actor_critic_ppo_continuous/train2/reward_243.pth (torch, 20563 bytes, 11 tensors)

critic.0.weight f4 [128, 8]
1.5501456 -0.18177466 0.30238205 -1.8370923 -1.0872803 -2.0387015 -0.29110965 0.6932562
0.50433713 -0.19634172 1.1131229 0.023814296 -2.3561332 0.6540238 -0.20479487 -0.29563427
1.1158271 0.42440563 -0.6733231 -1.6370441 -1.6950068 0.9565428 -0.57669765 -0.8641836
0.5907536 -0.70283073 -0.512202 0.26126605 -2.2300372 -1.9232314 -1.3689342 0.3043761
0.09004441 -0.31200555 0.9702078 -0.6353275 0.13162538 -1.1704373 -0.59903556 -0.01831738
-1.1308645 -0.33942032 -0.43028775 0.75634927 0.32356805 -0.32380423 0.16754827 -0.8329198
-4.568889 -0.9068772 -3.8515506 0.082207024 2.545962 0.6674966 -0.23293148 0.19803955
-0.5126175 -0.2544596 0.65923244 -0.77891445 -1.2916332 -1.0255777 -0.06647115 -0.6796088
-1.0552708 -0.67902595 0.86852723 2.005515 -3.9689 2.5116105 0.55116117 0.706002
-0.49889666 0.05962458 0.9869786 2.4057443 0.13931596 -0.10170282 -1.7035415 -0.30580103
-0.09119189 -0.1604276 0.54323745 -0.87613285 -0.9733434 0.99219835 0.64023 -0.43718603
0.057020966 0.324803 -0.86786646 -8.07204 -5.40705 -0.29711357 1.5606683 -0.2235245
-2.3089159 -7.2095404 -1.0957203 -0.58338207 1.0373929 -0.15648556 -0.6825238 -1.1121503
0.83873564 -0.03825237 -2.2227907 1.0362419 0.5623323 -1.2884665 0.2559526 -1.9503288
-0.65450466 1.2768483 0.22971782 -0.33118406 1.9178027 -0.054596167 0.98657006 1.1089281
-4.245904 1.328697 -0.29237452 -0.93991786 -0.090767615 -2.104374 0.51132745 -0.34325743
0.056407314 -2.219959 -11.060023 3.4965954 -0.10896312 1.6351308 0.38470635 1.0286388
0.49831873 -0.059945203 0.3581072 -0.8399252 -0.23249985 -0.38443792 -0.08103602 0.042461082
0.41954187 -0.044828247 0.81159306 -0.7139431 -2.2748256 0.15439674 -0.21881415 -0.10465799
-0.16677836 -0.5147798 -1.3485832 -0.23571657 -1.0852854 -2.3274872 -1.1077563 0.13605301
-4.746095 -1.1067156 -0.5865353 -3.501304 -2.6475627 -3.4997203 -1.7661525 -1.1457046
0.365773 -1.3838569 1.8308837 0.33323634 -2.2757807 0.28891248 -0.076651454 -0.11774529
-1.2583754 -0.75325006 0.6136058 -0.39331463 2.6052907 -0.90024465 -0.43362188 0.010293983
-0.56903994 -1.0338615 0.39394057 0.4456047 1.0291893 0.50161135 -0.3806292 0.76514786
1.1156948 -1.7549858 1.1131713 -1.0671875 -0.55737513 -0.7172833 -1.2175196 -0.09143127
0.4367996 -0.6013609 0.9723104 -1.63556 -0.41242024 0.64239514 0.4964325 0.4530161
0.03944679 -1.3036895 -0.25002784 0.023238406 0.6256488 0.3028377 0.057659857 -0.22029775
3.0883021 -3.5844293 2.7344198 -2.2708917 -0.58757806 -1.2091111 -0.8295322 0.19796744
1.6720636 -0.5219568 0.6791826 -1.8575991 -1.5172241 -1.0346112 0.043365415 1.0007585
-1.4347132 1.7446305 -0.74914134 -1.5695797 -0.6145877 0.2107416 1.3467232 0.34915996
0.63234067 0.34386653 -1.7402714 -0.6519936 0.66097945 -1.052228 0.5993024 -1.5402898
-1.7127475 -0.73686296 -0.5570054 0.90347576 0.27707213 0.6892373 -0.4577597 -0.13465698
00000000: 2c6b c63f 2323 3abe d2d1 9a3e d725 ebbf
00000010: 002c 8bbf 167a 02c0 530c 95be 3d79 313f
00000020: 3d1c 013f ce0d 49be d07a 8e3f 3316 c33c
00000030: e3ca 16c0 1b6e 273f bfb5 51be 605d 97be
00000040: 6cd3 8e3f b24b d93e e75e 2cbf a98a d1bf
00000050: fcf5 d8bf fddf 743f 75a2 13bf 233b 5dbf
00000060: a13b 173f b7ec 33bf ac1f 03bf aac4 853e
00000070: eeb8 0ec0 722c f6bf 3c39 afbf 2fd7 9b3e
00000080: 3469 b83d 31bf 9fbe 8a5f 783f d3a4 22bf
00000090: cec8 063e e4d0 95bf 655a 19bf 550e 96bc
000000a0: 2bc0 90bf 80c8 adbe ad4e dcbe 1ba0 413f
000000b0: b6aa a53e abc9 a5be c691 2b3e 3b3a 55bf
000000c0: 5734 92c0 1b29 68bf ce7f 76c0 285c a83d
000000d0: 0bf1 2240 0fe1 2a3f 9785 6ebe e1ca 4a3e
000000e0: e73a 03bf 8748 82be 75c3 283f f066 47bf
000000f0: 3d54 a5bf 2146 83bf 0722 88bd d8fa 2dbf
00000100: 1d13 87bf a5d4 2dbf cd57 5e3f 5c5a 0040
00000110: 7502 7ec0 3abe 2040 e618 0d3f 8cbc 343f
00000120: 626f ffbe e738 743d a1aa 7c3f b7f7 1940
00000130: d8a8 0e3e 9149 d0bd a60d dabf f491 9cbe
00000140: d0c2 babd 2247 24be 9c11 0b3f 3e4a 60bf
00000150: 082d 79bf b600 7e3f 1de6 233f d9d6 dfbe
00000160: d18e 693d 944c a63e 7f2c 5ebf 1327 01c1
00000170: 8e06 adc0 451f 98be fbc3 c73f 9be3 64be
00000180: 47c5 13c0 8eb4 e6c0 9040 8cbf 8758 15bf
00000190: 4ac9 843f c03d 20be e1b9 2ebf f15a 8ebf
000001a0: 61b7 563f 84ae 1cbd 3442 0ec0 93a3 843f
000001b0: 02f5 0f3f 78ec a4bf 380c 833e 60a4 f9bf
000001c0: 9e8d 27bf c46f a33f 263b 6b3e f590 a9be
000001d0: 8f7a f53f 3ba0 5fbd db8f 7c3f 5bf1 8d3f
000001e0: 72de 87c0 be12 aa3f 1db2 95be 759e 70bf
000001f0: 5fe4 b9bd 10ae 06c0 5be6 023f 70bf afbe
00000200: 5b0b 673d cf13 0ec0 dbf5 30c1 38c8 5f40
00000210: 0e28 dfbd f74b d13f 3bf8 c43e 70aa 833f
00000220: a223 ff3e 1a89 75bd d459 b73e 5705 57bf
00000230: 7114 6ebe 0cd5 c4be 36f6 a5bd aceb 2d3d
00000240: 31ce d63e d39d 37bd 90c4 4f3f fac4 36bf
00000250: be96 11c0 2e1a 1e3e d110 60be ee56 d6bd
00000260: f2c7 2abe 9cc8 03bf 609e acbf af5f 71be
00000270: a2ea 8abf 8df5 14c0 f5ca 8dbf 7b51 0b3e
00000280: 03e0 97c0 dba8 8dbf 2d27 16bf 5d15 60c0
00000290: ab71 29c0 6bfb 5fc0 4911 e2bf 73a6 92bf
000002a0: 9946 bb3e 3922 b1bf 665a ea3f f49d aa3e
000002b0: 64a6 11c0 56ec 933e 70fb 9cbd 7124 f1bd
000002c0: 7212 a1bf ffd4 40bf 4515 1d3f 8960 c9be
000002d0: 15bd 2640 6f76 66bf b003 debe 18a8 283c
000002e0: 9aac 11bf 9355 84bf 94b2 c93e 4d26 e43e
000002f0: 7abc 833f 9a69 003f d5e1 c2be bbe0 433f
00000300: 16cf 8e3f 60a3 e0bf 667c 8e3f 9a99 88bf
00000310: 23b0 0ebf e19f 37bf afd7 9bbf 5140 bbbd
00000320: 32a4 df3e caf2 19bf 56e9 783f 085a d1bf
00000330: bf28 d3be 0274 243f 672c fe3e baf1 e73e
00000340: f592 213d 4cdf a6bf a603 80be 785e be3c
00000350: 852a 203f 8b0d 9b3e be2c 6c3d bc95 61be
00000360: bea6 4540 4a67 65c0 bc00 2f40 4a56 11c0
00000370: 846b 16bf 27c4 9abf 395c 54bf fab7 4a3e
00000380: 2e06 d63f f69e 05bf e9de 2d3f cfc5 edbf
00000390: 6634 c2bf 246e 84bf ef9f 313d db18 803f
000003a0: afa4 b7bf 0d50 df3f bac7 3fbf fde7 c8bf
000003b0: 9f55 1dbf a5cc 573e 6d61 ac3f 18c5 b23e
000003c0: 14e1 213f 460f b03e 37c1 debf 0de9 26bf
000003d0: f335 293f 68af 86bf e26b 193f 3728 c5bf
000003e0: 4f3b dbbf 0da3 3cbf e897 0ebf 304a 673f
000003f0: 66dc 8d3e db71 303f 7b5f eabe 85e3 09be

critic.0.bias f4 [128]
-1.2738616 0.894239 -0.13518217 0.96510243 -1.4412884 -0.5791821 0.63254845 0.88128144
-0.9712622 1.1221192 0.6751638 -0.28051335 3.1402926 1.1890455 1.369409 1.3934422
0.44629836 -1.1957784 0.5887252 1.0205833 1.390088 0.47032174 1.3503606 -0.045756456
0.26324022 -1.0489408 -0.6629107 -0.6006602 -1.2698808 0.13254586 0.7189752 -0.41267318
-0.3842084 -0.7270127 0.3962097 -0.951562 -0.21126924 1.9507365 0.9580976 2.071739
-1.3659413 -0.002775769 0.5460933 -0.14618146 0.9102514 -0.11167342 0.75473726 0.37468815
0.28987613 -0.34487906 0.45813638 -0.14287661 0.59278095 -0.5337491 1.2669088 0.1586946
-0.4558855 -0.3426962 -1.3750057 -0.1718868 0.36985725 0.7821852 0.699029 0.7325703
0.56887996 0.16488984 0.6275926 0.67657256 -0.4371515 -1.4575515 -0.4248377 0.60981756
-1.1181151 0.37668407 -0.6508088 0.33398816 -1.4829308 -0.29611772 0.12649398 0.22527066
0.80619776 0.8521591 -0.23097786 0.7121552 0.83844274 0.6728359 -1.4666903 3.2655149
0.53260666 -0.8620566 -0.8722107 -0.54189044 0.6698908 -0.29932386 0.5578581 -0.47201112
-0.49217242 0.30126667 0.22458015 2.832798 -0.31898358 -0.005675284 0.5087789 1.7947146
0.46575475 -0.28229135 -0.007224721 0.69916356 0.5144582 0.57914203 0.48812506 0.3939866
0.9300774 1.1715212 1.8349234 -0.5000917 1.9714795 0.3522773 -0.4503722 1.0386956
-0.8561336 0.2079384 2.3367772 0.57634723 0.108607985 -0.35660857 0.47864255 -0.68831664
00000000: e60d a3bf d9ec 643f 326d 0abe f410 773f
00000010: 237c b8bf 4745 14bf b2ee 213f a99b 613f
00000020: a4a4 78bf 9aa1 8f3f 89d7 2c3f 729f 8fbe
00000030: 8efa 4840 a532 983f cb48 af3f 505c b23f
00000040: 3881 e43e 440f 99bf b2b6 163f 79a2 823f
00000050: 67ee b13f 03ce f03e 9ed8 ac3f 1f6b 3bbd
00000060: 6cc7 863e b143 86bf 84b4 29bf dec4 19bf
00000070: 748b a2bf 1aba 073e c20e 383f e649 d3be
00000080: f7b6 c4be 811d 3abf ffdb ca3e 9199 73bf
00000090: f756 58be bcb1 f93f e245 753f 5f97 0440
000000a0: 2ad7 aebf ade9 35bb c5cc 0b3f 98b0 15be
000000b0: 3c06 693f 09b5 e4bd 7636 413f 20d7 bf3e
000000c0: a56a 943e fd93 b0be da90 ea3e 3f4e 12be
000000d0: 7ec0 173f c8a3 08bf 112a a23f d680 223e
000000e0: d369 e9be e075 afbe 3000 b0bf 1803 30be
000000f0: ee5d bd3e 4a3d 483f 91f3 323f ba89 3b3f
00000100: 1ea2 113f e2d8 283e e9a9 203f dc33 2d3f
00000110: 52d2 dfbe 0c91 babf 5484 d9be 011d 1c3f
00000120: 651e 8fbf bcdc c03e 689b 26bf 7f00 ab3e
00000130: add0 bdbf be9c 97be a387 013e 5aad 663e
00000140: fa62 4e3f 1927 5a3f 7685 6cbe ce4f 363f
00000150: 2fa4 563f f93e 2c3f 82bc bbbf 32fe 5040
00000160: e958 083f beaf 5cbf 3349 5fbf 55b9 0abf
00000170: f77d 2b3f fa40 99be cacf 0e3f 71ab f1be
00000180: 06fe fbbe a03f 9a3e 57f8 653e 904c 3540
00000190: d151 a3be bcf7 b9bb 563f 023f 35b9 e53f
000001a0: 6877 ee3e 7e88 90be 5abd ecbb 62fc 323f
000001b0: 88b3 033f a742 143f 87eb f93e 9db8 c93e
000001c0: 8d19 6e3f 68f4 953f c5de ea3f 0206 00bf
000001d0: 7159 fc3f b15d b43e 2f97 e6be faf3 843f
000001e0: 922b 5bbf ceed 543e c28d 1540 7e8b 133f
000001f0: dd6d de3d 6695 b6be a310 f53e 8535 30bf

critic.2.weight f4 [1, 128]
-2.8354619 -1.002069 -1.1665707 -1.6415033 -1.9999356 -1.3405086 -5.2619386 -1.7356733
-4.459447 -1.7133343 -1.2580632 5.2499704 6.6030183 -2.8299575 0.8927195 3.9152055
4.834242 -1.2940856 -0.8307451 -1.6358843 6.838898 -0.94597024 -2.4826002 -2.074552
-2.8076322 -2.4071498 -0.92289984 -3.4011066 -3.6843781 -1.0528418 -2.0370452 -2.0801234
-2.057002 7.079056 -3.1794817 -1.7633905 -1.0746193 0.90671074 6.2976985 7.9709964
-3.7389355 -3.2882397 -4.325938 9.795206 -1.973275 1.3132557 3.7862048 -1.1492344
-1.6506394 -1.1449621 -1.3979752 -0.6535413 -2.0287347 -2.0276515 -2.6454055 -1.1733515
-1.1163626 -2.9248455 -3.4016166 -0.7872301 -2.9842718 -1.3661023 -1.080649 -2.1313746
-0.75935715 -2.2230601 -2.44866 -1.4816678 -1.3026776 -4.7028418 5.6880913 -1.7337453
-6.810188 -0.35554427 -3.5679913 -0.5368613 -1.7015764 -3.7974677 -3.2907171 -2.8294022
-0.966143 -1.6215479 -4.018429 -1.3838258 -2.283442 -1.294633 -3.737711 5.988854
-5.356198 -1.3717836 -4.1216664 -4.8983636 -0.54333353 -2.5304568 -0.4497227 -3.858839
-1.447519 -1.7380533 -2.4524596 5.4017572 -2.4040143 -2.6830213 -3.782837 0.81285316
-0.84162104 -2.8126364 -0.9205884 -1.7036427 2.5203424 -1.227884 -0.9683405 -0.8177539
-2.779181 4.8887005 1.075292 -4.4397554 5.4491334 -1.4102045 -2.536754 1.608762
-3.646942 -1.1006771 7.3361278 -4.3459234 -0.16150925 -1.6593295 -0.45465118 -4.8426466
00000000: 3578 35c0 cc43 80bf 3052 95bf c81c d2bf
00000010: e4fd ffbf c995 abbf cd61 a8c0 8b2a debf
00000020: cab3 8ec0 8a4e dbbf 3708 a1bf c2ff a740
00000030: ed4b d340 061e 35c0 4489 643f ba92 7a40
00000040: 1cb2 9a40 99a4 a5bf b6ab 54bf a864 d1bf
00000050: 41d8 da40 1b2b 72bf ece2 1ec0 76c5 04c0
00000060: 3fb0 33c0 be0e 1ac0 2a43 6cbf bbab 59c0
00000070: dacc 6bc0 85c3 86bf f35e 02c0 be20 05c0
00000080: eca5 03c0 a087 e240 a17c 4bc0 c8b6 e1bf
00000090: 208d 89bf 321e 683f bf86 c940 6712 ff40
000000a0: b84a 6fc0 8572 52c0 166e 8ac0 2ab9 1c41
000000b0: 4694 fcbf c318 a83f 2e51 7240 1d1a 93bf
000000c0: 2748 d3bf 1e8e 92bf daf0 b2bf 7c4e 27bf
000000d0: cad6 01c0 0bc5 01c0 534e 29c0 6230 96bf
000000e0: f8e4 8ebf ab30 3bc0 16b4 59c0 e987 49bf
000000f0: 4ffe 3ec0 71dc aebf b552 8abf 7168 08c0
00000100: 3b65 42bf 9e46 0ec0 d8b6 1cc0 4aa7 bdbf
00000110: 24be a6bf ae7d 96c0 d804 b640 5eeb ddbf
00000120: 0fed d9c0 e609 b6be f859 64c0 be6f 09bf
00000130: 41cd d9bf b609 73c0 1c9b 52c0 ed14 35c0
00000140: 2655 77bf e28e cfbf f896 80c0 3421 b1bf
00000150: ea23 12c0 89b6 a5bf a836 6fc0 b1a4 bf40
00000160: f965 abc0 9b96 afbf b1e4 83c0 65bf 9cc0
00000170: e817 0bbf 01f3 21c0 0e42 e6be 38f7 76c0
00000180: 4d48 b9bf 8878 debf 19f5 1cc0 32db ac40
00000190: 5fdb 19c0 9fb6 2bc0 001a 72c0 2517 503f
000001a0: 7a74 57bf 3c02 34c0 aeab 6bbf f710 dabf
000001b0: 4a4d 2140 4e2b 9dbf 2ae5 77bf 5258 51bf
000001c0: 1ade 31c0 3c70 9c40 2ba3 893f 7a12 8ec0
000001d0: 4d5f ae40 9581 b4bf 2d5a 22c0 eaeb cd3f
000001e0: 7f67 69c0 fde2 8cbf 8fc1 ea40 ce11 8bc0
000001f0: ae62 25be e964 d4bf 0ac8 e8be f6f6 9ac0

mu_net.0.weight f4 [128, 8]
0.12554578 0.17384516 0.31516176 -0.20140405 -1.0166453 -1.3043132 -0.6719084 -0.39546892
0.20849063 -0.4470314 0.595493 0.06680997 -0.39384544 0.45118755 0.1014455 -0.083777115
-0.15546228 0.14235851 -0.20519863 -0.09481302 0.12968051 0.3239096 0.10725624 0.16995542
-0.23093079 0.1894047 0.18010233 -0.018998738 0.3192406 -0.16925158 -0.2923431 -0.23630978
0.45233625 0.19400038 -0.051265385 -0.37445492 0.42089036 -0.250627 0.19735461 0.1769845
0.66186744 -0.54104954 0.010425409 -0.3848266 0.15395173 0.40442562 0.08195803 -0.08237445
0.06673649 0.16395703 0.61912227 1.1962258 0.05463102 -0.09628067 0.0017308157 0.1819543
-0.31124842 0.08860068 0.38032195 0.01331573 -0.47193906 -0.23694673 -0.35662147 -0.31375858
-0.09173784 -0.7856792 -0.183689 -0.39065358 -0.32272926 0.05260324 0.04227057 -0.18403263
0.12784334 0.26344073 -0.24490038 0.14492624 1.1590123 0.5542167 -0.18201207 0.19775246
0.010670426 -0.33116913 -0.08028068 -0.042586062 0.28810257 -0.032568637 -0.09191696 0.047773678
-0.4135732 -0.26350686 0.16454947 0.49793237 -0.38586918 -0.5199606 -0.0406188 -0.07903862
0.30131516 -0.534791 -0.101102784 -0.059749197 0.34712282 0.8916116 -0.19319554 -0.011927834
-0.089436814 0.14786816 -0.6303789 1.1041776 -0.31224814 -0.51760834 -0.2809032 -0.36019722
-0.7879689 -0.20932287 0.7083372 -0.36905771 0.1882496 -0.27624297 -0.10067225 0.24447826
0.06059402 -0.07561157 -0.2663554 0.45929515 0.41360277 0.22590847 -0.12120104 0.08731506
0.0582765 -0.124157265 0.1656476 -0.46239004 -0.37379465 0.17826556 0.077541 -0.32943484
0.33629206 -0.107789904 0.20294127 -0.16602267 0.42106694 0.18378243 -0.40542787 -0.17770486
0.17614743 -0.4244033 0.42603612 1.1764902 0.44051772 0.29080376 -0.45466158 0.35599312
0.22202456 0.0825095 0.8097355 -0.27070406 -0.6873971 0.39003837 0.5288707 -0.17636399
-0.5915144 -0.5025863 0.21924117 -0.27869335 0.4132676 0.5493993 -0.4922624 -0.18271558
0.048988912 0.0099466145 -0.12679218 0.045895018 -0.0399288 -0.5297669 -0.3337238 -0.32911354
0.40238672 -0.20807347 -0.062560186 -0.45551094 -0.81592524 -0.45102894 0.058206785 -0.12680133
0.53614277 -0.50796944 -0.03470853 0.22214805 -0.038414143 -0.50755674 -0.20706585 0.2458302
0.116810285 -0.17219527 -0.3640987 -0.43970358 0.58570355 0.5262263 0.13571636 -0.11567096
0.48567897 -0.050856896 0.22740395 -0.062209986 -0.1620101 -0.609831 -0.11619563 -0.5748515
0.061737046 -0.12934555 -0.3398733 -0.345737 0.1755873 0.5084444 -0.2243877 0.044572096
-0.2765278 -0.08721207 0.04001241 1.1172546 0.12212361 -0.28863373 -0.035765793 -0.23351191
0.09983722 -0.10312649 -0.37614945 -0.72738314 0.71110123 1.360127 -0.44469547 -0.1812967
0.22162127 -0.09764866 0.36368135 -0.3277749 -0.73533237 -0.8893554 -0.20779994 0.15568812
0.012556451 -0.096531264 0.7165553 1.7325649 0.6504829 -0.31517375 -0.002484209 0.40141183
-0.112929665 -0.40663695 0.053640254 0.8062274 -0.45164222 -0.9381615 0.050287273 0.3382475
00000000: 138f 003e 7704 323e e25c a13e dd3c 4ebe
00000010: 6f21 82bf bcf3 a6bf 3002 2cbf e77a cabe
00000020: 917e 553e 4de1 e4be 3b72 183f aad3 883d
00000030: 1ca6 c9be 0e02 e73e a9c2 cf3d 5693 abbd
00000040: 8131 1fbe 6ec6 113e 971f 52be 542d c2bd
00000050: f8ca 043e 7bd7 a53e 29a9 db3d cb08 2e3e
00000060: 1f79 6cbe 4ef3 413e bf6c 383e 3ea3 9bbc
00000070: 8173 a33e 4950 2dbe ffad 95be 31fb 71be
00000080: 9e98 e73e 09a8 463e a7fb 51bd 8eb8 bfbe
00000090: f17e d73e 2f52 80be 5417 4a3e 6d3b 353e
000000a0: 2570 293f 3982 0abf 56cf 2a3c fe07 c5be
000000b0: 86a5 1d3e e010 cf3e 9dd9 a73d f0b3 a8bd
000000c0: 24ad 883d 5ae4 273e cc7e 1e3f ed1d 993f
000000d0: c7c4 5f3d cd2e c5bd 8adc e23a 3a52 3a3e
000000e0: f45b 9fbe 4674 b53d 8fb9 c23e 382a 5a3c
000000f0: ffa1 f1be 2aa2 72be 1797 b6be f7a4 a0be
00000100: 0ce1 bbbd 4622 49bf f818 3cbe bf03 c8be
00000110: c53c a5be 7f76 573d e823 2d3d 0d73 3cbe
00000120: 5de9 023e b4e1 863e 2ac7 7abe 8b67 143e
00000130: 845a 943f 25e1 0d3f 5f61 3abe 9f7f 4a3e
00000140: 03d3 2e3c 008f a9be 326a a4bd b96e 2ebd
00000150: 2e82 933e b166 05bd f63e bcbd 55ae 433d
00000160: debf d3be 5fea 86be a87f 283e fef0 fe3e
00000170: a590 c5be 231c 05bf e65f 26bd 00df a1bd
00000180: fb45 9a3e 10e8 08bf fa0e cfbd 93bb 74bd
00000190: 15ba b13e a840 643f 0dd5 45be f66c 43bc
000001a0: a62a b7bd c06a 173e 8360 21bf b155 8d3f
000001b0: fdde 9fbe fb81 04bf 8bd2 8fbe c56b b8be
000001c0: 54b8 49bf bc58 56be 9655 353f 22f5 bcbe
000001d0: 81c4 403e b86f 8dbe 412d cebd 8258 7a3e
000001e0: 6f31 783d 3dda 9abd bc5f 88be bc28 eb3e
000001f0: bec3 d33e 8d54 673e 4038 f8bd 3dd2 b23d
00000200: 57b3 6e3d 2a46 febd 869f 293e 63be ecbe
00000210: 0362 bfbe 3f8b 363e d1cd 9e3d afab a8be
00000220: 792e ac3e f4c0 dcbd d6cf 4f3e d901 2abe
00000230: 1696 d73e 7631 3c3e 3e94 cfbe 43f8 35be
00000240: fe5f 343e 644b d9be 6821 da3e 3b97 963f
00000250: 8a8b e13e 3be4 943e 67c9 e8be bb44 b63e
00000260: 685a 633e befa a83d d34a 4f3f b999 8abe
00000270: 42f9 2fbf 1cb3 c73e 1264 073f c398 34be
00000280: 7d6d 17bf 7fa9 00bf c280 603e e5b0 8ebe
00000290: d097 d33e 6fa5 0c3f d109 fcbe cb19 3bbe
000002a0: 99a8 483d 20f7 223c cfd5 01be 6afc 3b3d
000002b0: 628c 23bd ce9e 07bf d9dd aabe 9281 a8be
000002c0: a205 ce3e 3611 55be 8e1f 80bd bb38 e9be
000002d0: 7ae0 50bf 44ed e6be 3d6a 6e3d 35d8 01be
000002e0: a740 093f 490a 02bf 882a 0ebd c77a 633e
000002f0: 2658 1dbd 3def 01bf 1209 54be e9ba 7b3e
00000300: 3b3a ef3d f553 30be 256b babe d420 e1be
00000310: abf0 153f c4b6 063f 3bf9 0a3e e5e4 ecbd
00000320: eaaa f83e 524f 50bd 95dc 683e e6cf 7ebd
00000330: fae5 25be e21d 1cbf f9f7 edbd 7829 13bf
00000340: fcdf 7c3d 2973 04be e003 aebe 7104 b1be
00000350: 28cd 333e 6a29 023f e4c5 65be 3b91 363d
00000360: 0d95 8dbe 3e9c b2bd 0ee4 233d 3302 8f3f
00000370: f11b fa3d cdc7 93be 277f 12bd bf1d 6fbe
00000380: 7577 cc3d fb33 d3bd a996 c0be c835 3abf
00000390: bb0a 363f a418 ae3f 20af e3be d8a5 39be
000003a0: b0f0 623e 05fc c7bd 7134 ba3e 1dd2 a7be
000003b0: be3e 3cbf ccac 63bf 82c9 54be b56c 1f3e
000003c0: 93b9 4d3c 2fb2 c5bd 2b70 373f b0c4 dd3f
000003d0: 0c86 263f 745e a1be 1cce 22bb da85 cd3e
000003e0: ab47 e7bd b832 d0be e2b5 5b3d eb64 4e3f
000003f0: a63d e7be 5a2b 70bf 07fa 4d3d c72e ad3e

mu_net.0.bias f4 [128]
-0.05483134 -0.36268106 -0.5740295 -0.45179132 -0.20046781 -0.080510594 -0.020780602 -0.49059373
0.08090249 -0.10390765 -0.2511158 -0.14711715 0.012682534 0.009982559 -0.27179682 -0.4576853
0.10701324 -0.010828173 0.33035943 -0.32610723 0.2873655 -0.2498158 0.3048666 -0.20998941
0.17578803 -0.027315183 -0.28152713 0.32333878 0.023612266 0.15807085 0.25800386 -0.04196246
-0.21292365 0.2513245 0.45444643 -0.2397643 -0.13403912 -0.2278236 -0.4482769 0.056757864
0.15887369 -0.2967433 -0.02879834 0.1945529 0.084558494 0.10016575 -0.43646893 0.13237588
-0.32499155 -0.23650979 -0.4189484 -0.1531052 -0.33986327 0.24268287 -0.565023 -0.13314395
-0.03325236 -0.15699594 0.13054143 -0.16771245 -0.20545778 -0.3195707 -0.15856226 -0.53125745
-0.17296687 -0.13790917 -0.13726719 0.03563169 -0.2612803 0.15084419 -0.056658506 -0.14139459
-0.3178829 0.120324336 -0.07306595 -0.17115362 -0.18817356 0.16345868 -0.014621617 -0.03526211
0.17531957 -0.03697717 -0.18526931 -0.12674138 0.094051205 0.20708331 -0.14428115 0.19436595
-0.14713788 -0.13668984 -0.19374073 0.268321 -0.4261781 -0.040430583 -0.38313672 -0.0005942626
0.17613718 -0.2763735 0.24258214 0.00806071 0.17153639 -0.27853504 -0.39544147 0.06537118
0.01688753 -0.35265875 0.046614904 -0.04846973 0.114417955 -0.00023174765 -0.1604092 0.110159
0.24008462 -0.009113827 -0.14697734 0.1175914 -0.31556258 -0.042780053 0.021234406 -0.12331231
0.082955904 0.27518257 0.22231767 -0.33411443 -0.21983236 -0.12006148 0.19719568 0.12470929
00000000: d496 60bd 55b1 b9be 99f3 12bf 3151 e7be
00000010: 6f47 4dbe bde2 a4bd 153c aabc 1a2f fbbe
00000020: 34b0 a53d 89cd d4bd 4092 80be e1a5 16be
00000030: 67ca 4f3c e38d 233c f428 8bbe ba55 eabe
00000040: c229 db3d a668 31bc df24 a93e 87f7 a6be
00000050: 9221 933e b7cf 7fbe 7a17 9c3e 7707 57be
00000060: c701 343e 17c4 dfbc 5324 90be a98c a53e
00000070: 836e c13c 53dd 213e 1519 843e d4e0 2bbd
00000080: a808 5abe 9bad 803e 34ad e83e c684 75be
00000090: 8d41 09be 974a 69be 8d84 e5be ef7a 683d
000000a0: c9af 223e bdee 97be 7fea ebbc e038 473e
000000b0: 012d ad3d b323 cd3d db78 dfbe 8b8d 073e
000000c0: 4b65 a6be 9f2f 72be 6880 d6be 9cc7 1cbe
000000d0: 8f02 aebe dc81 783e 59a5 10bf e356 08be
000000e0: a033 08bd 8bc3 20be a7ac 053e d0bc 2bbe
000000f0: 8663 52be c59e a3be 255e 22be 7d00 08bf
00000100: 3a1e 31be 1038 0dbe c58f 0cbe 89f2 113d
00000110: 88c6 85be e676 1a3e c012 68bd bec9 10be
00000120: 8cc1 a2be 9b6c f63d 9aa3 95bd e542 2fbe
00000130: 92b0 40be b661 273e 828f 6fbc 016f 10bd
00000140: f986 333e 5f75 17bd 3db7 3dbe 7ec8 01be
00000150: eb9d c03d a60d 543e 70be 13be de07 473e
00000160: 50ab 16be 6cf8 0bbe f863 46be 5f61 893e
00000170: 0434 dabe 8a9a 25bd 7f2a c4be 4ac8 1bba
00000180: 4e5d 343e d480 8dbe 7467 783e 1111 043c
00000190: 3ca7 2f3e 259c 8ebe 4e77 cabe 53e1 853d
000001a0: b857 8a3c b08f b4be 45ef 3e3d 3288 46bd
000001b0: f653 ea3d 4901 73b9 4f42 24be 0b9b e13d
000001c0: bed8 753e 2952 15bc 3a81 16be c3d3 f03d
000001d0: 6b91 a1be 233a 2fbd c7f3 ad3c 2a8b fcbd
000001e0: c9e4 a93d bbe4 8c3e 3ea7 633e 0c11 abbe
000001f0: bc1b 61be cbe2 f5bd aaed 493e 9667 ff3d

mu_net.2.weight f4 [2, 128]
-0.09538805 -0.30213976 0.06140469 0.023489114 0.23888066 -0.3229714 -0.32879367 0.013472286
0.28308034 0.047093563 0.044056352 -0.036771446 0.021073112 -0.6980705 0.35878864 0.31101555
0.1134359 0.124185674 -0.21292885 0.008373566 0.16635756 0.08140569 0.18726175 -0.35418162
0.10342195 0.34166923 0.009557165 -0.1691882 0.30460957 0.07100601 -0.75374615 -0.09096518
0.16566376 0.15452902 -0.7039964 -0.24666694 0.093654536 0.042842492 -0.0521706 0.1783701
0.27869326 0.001816784 -0.5376888 0.1781634 -0.07482073 0.11689655 -0.36343262 -0.4577023
-0.61331517 -0.07522393 0.1227844 0.1393902 -0.3783403 -0.28129077 -0.124279894 -0.050043937
0.010210992 0.25669178 0.40198293 0.20197809 -0.35168573 -0.29465854 0.019025838 -0.1129428
0.40053466 0.008184897 0.05870204 -0.101120815 -0.2164466 0.13366733 -0.17273049 0.023789026
-0.41607252 0.72557676 -0.4929122 0.18618801 0.09155627 -0.021060394 -0.15800644 -0.43896326
0.58423585 -0.45416582 0.17820919 -0.17749898 0.07211825 -0.031481043 0.24710684 -0.5991586
-0.3639059 -0.74147135 0.021318913 -0.27823815 -0.23774935 -0.21708547 -0.030190302 -0.18197104
-0.03440613 0.039739396 0.12041244 -0.4177751 -0.056350973 0.8176708 0.029548725 0.07877638
0.018279428 -0.0007936656 -0.079548426 0.11160461 -0.22142957 0.061578967 0.0060693347 0.16437791
0.14487328 -0.14473496 -0.33595783 -0.24700224 -0.04805688 -0.018414054 -0.120527394 -0.055533204
-0.19340684 0.18413596 0.1073064 0.2855315 0.13592893 0.3460741 0.071854256 0.02608713
-0.30222067 -0.2041581 -0.009952666 -0.11431017 0.1542283 -0.168008 0.019399002 -0.25935394
0.003981162 0.23609751 -0.1438464 0.048434358 -0.42892978 0.059932444 -0.39619467 -0.16150494
-0.058838353 0.014793622 0.13506815 -0.9502233 0.5569516 0.017730568 -0.21521503 -0.011123032
0.097552024 0.040440314 -0.35800084 0.064106 0.35550687 -0.16782792 0.4183641 -0.11743487
0.036832377 0.2643109 0.2480004 0.29560688 -0.20931166 0.32534257 -0.015658833 0.0317751
0.52933973 -0.004382588 -0.39941475 0.3874988 -0.60318875 0.24396081 0.16766652 0.11487517
0.033130527 -0.28708732 0.058761388 -0.4810129 0.7326774 0.05065354 -0.2508444 0.15173548
-0.6424569 -0.42864442 0.02070939 -0.06702 0.16703483 -0.118828356 0.01942199 0.40310973
-0.070678234 -0.074517086 0.20982692 -0.5128181 -0.08338842 0.105277225 0.07846087 -0.025378093
-0.05469982 0.14782147 0.045523655 -0.59598035 -0.25259128 -0.23827983 0.0038836459 0.12064403
0.071855 0.011604538 0.1821326 -0.2198867 0.10863965 0.32107213 -0.14322086 0.10230887
0.40982342 0.0660918 -0.15798658 -0.45638603 -0.09151276 -0.04424586 0.046163134 -0.3621931
0.53555197 -0.023000726 0.22357717 0.021330716 0.3851129 0.1052946 -0.024122283 0.32752588
-0.089870356 0.081568696 -0.53165567 0.0018833125 -0.034082342 -0.6208682 0.34830058 0.13904944
0.0916283 -0.39169368 -0.016806766 0.102984264 0.55630654 -0.19303407 -0.049968388 0.017266007
-0.393013 0.42547864 -0.27287278 0.15705046 0.046820104 -0.09049203 -0.4826622 -0.46634805
00000000: cf5a c3bd 10b2 9abe 7c83 7b3d 3e6c c03c
00000010: 229d 743e 825c a5be a557 a8be ddba 5c3c
00000020: e8ef 903e 2ee5 403d 6f74 343d a89d 16bd
00000030: 85a1 ac3c c0b4 32bf 25b3 b73e 6e3d 9f3e
00000040: 1551 e83d 0f55 fe3d 050a 5abe 4831 093c
00000050: a359 2a3e 07b8 a63d 8bc1 3f3e 4b57 b5be
00000060: e3ce d33d 45ef ae3e a895 1c3c ac3f 2dbe
00000070: c9f5 9b3e 996b 913d 82f5 40bf f44b babd
00000080: c3a3 293e db3c 1e3e 1c39 34bf 4296 7cbe
00000090: f3cd bf3d 9c7b 2f3d d7b0 55bd a7a6 363e
000000a0: e2b0 8e3e 2821 ee3a f9a5 09bf 7770 363e
000000b0: 9c3b 99bd 7567 ef3d d713 babe f557 eabe
000000c0: 3902 1dbf 010f 9abd 6376 fb3d 4ebc 0e3e
000000d0: d2b5 c1be 5805 90be 7586 febd dffa 4cbd
000000e0: 014c 273c 1b6d 833e b5d0 cd3e 58d3 4e3e
000000f0: 2710 b4be 7cdd 96be 13dc 9b3c 8e4e e7bd
00000100: e112 cd3e f219 063c 8d71 703d 6e18 cfbd
00000110: 2da4 5dbe 17e0 083e 43e0 30be 34e1 c23c
00000120: 7507 d5be 66bf 393f fd5e fcbe 12a8 3e3e
00000130: db81 bb3d d986 acbc 71cc 21be cbbf e0be
00000140: 7b90 153f 6c88 e8be 787c 363e 4bc2 35be
00000150: bcb2 933d 44f2 00bd 9309 7d3e 7562 19bf
00000160: e051 babe 11d1 3dbf 00a5 ae3c 3b75 8ebe
00000170: 9174 73be a74b 5ebe a751 f7bc 9e56 3abe
00000180: 71ed 0cbd c7c5 223d cc9a f63d 9ee6 d5be
00000190: 47d0 66bd e052 513f 2b10 f23c 8355 a13d
000001a0: bdbe 953c ff0d 50ba 49ea a2bd f590 e43d
000001b0: 6fbe 62be 3a3a 7c3d 45e1 c63b af52 283e
000001c0: a959 143e 6735 14be aa02 acbe 28ee 7cbe
000001d0: 4ad7 44bd 12d9 96bc 11d7 f6bd c976 63bd
000001e0: 710c 46be 238e 3c3e 75c3 db3d 2f31 923e
000001f0: f430 0b3e a030 b13e 5328 933d adb4 d53c
00000200: abbc 9abe d20e 51be 8210 23bc 731b eabd
00000210: 06ee 1d3e 4a0a 2cbe a8ea 9e3c 0aca 84be
00000220: 6874 823b 8cc3 713e 784c 13be 1b63 463d
00000230: af9c dbbe b97b 753d 07da cabe 8d61 25be
00000240: 7c00 71bd f360 723c 4e4f 0a3e d641 73bf
00000250: 6194 0e3f b23f 913c 5461 5cbe 613d 36bc
00000260: 5bc9 c73d bea4 253d e34b b7be 024a 833d
00000270: ff04 b63e 15db 2bbe d233 d63e b181 f0bd
00000280: 8cdd 163d c253 873e d1f3 7d3e c959 973e
00000290: cc55 56be 4d93 a63e f446 80bc 9b26 023d
000002a0: cf82 073f d09b 8fbb 1780 ccbe 3e66 c63e
000002b0: 946a 1abf ddd0 793e c6b0 2b3e ac43 eb3d
000002c0: e0b3 073d 1cfd 92be c8af 703d 5347 f6be
000002d0: bf90 3b3f 167a 4f3d ad6e 80be 8c60 1b3e
000002e0: 0e78 24bf 4877 dbbe bda6 a93c c841 89bd
000002f0: 2e0b 2b3e 485c f3bd dd1a 9f3c 6664 ce3e
00000300: c0bf 90bd 6a9c 98bd dedc 563e 0c48 03bf
00000310: 8cc7 aabd 969b d73d 18b0 a03d b8e5 cfbc
00000320: eb0c 60bd 835e 173e 0377 3a3d 2b92 18bf
00000330: a553 81be a1ff 73be c484 7e3b 3814 f73d
00000340: b728 933d f620 3e3c f880 3a3e fb29 61be
00000350: 777e de3d 9163 a43e 7da8 12be 5087 d13d
00000360: 60d4 d13e 235b 873d 3cc7 21be 6eab e9be
00000370: 0b6b bbbd 263b 35bd 8e15 3d3d 6071 b9be
00000380: ef19 093f 056c bcbc 6af1 643e c1bd ae3c
00000390: 852d c53e b2a4 d73d 189c c5bc 79b1 a73e
000003a0: f30d b8bd 7d0d a73d 961a 08bf 7bd9 f63a
000003b0: ed99 0bbd 38f1 1ebf 7454 b23e fa62 0e3e
000003c0: 9ea7 bb3d 138c c8be 58ae 89bc 6ae9 d23d
000003d0: 1b6a 0e3f b9aa 45be a7ab 4cbd 7171 8d3c
000003e0: 0039 c9be 56d8 d93e fbb5 8bbe d6d1 203e
000003f0: 70c6 3f3d e353 b9bd 801f f7be 2cc5 eebe

mu_net.2.bias f4 [2]
0.12996118 -0.026220424
00000000: 8b14 053e 37cc d6bc

variance.0.weight f4 [128, 8]
0.49527287 0.5133363 0.9757097 -0.047451094 0.5313854 -0.32760796 0.3087922 -0.14430745
-0.2985972 0.386319 -1.834546 -0.00347432 -0.6339016 -1.2927213 0.38796484 -0.33620465
0.3406197 -0.059016146 0.18034822 0.64645815 -0.06492163 0.05177443 0.02985159 -0.14153896
-0.30267298 -0.09854593 0.45224547 -0.46616974 -0.26798776 -0.43727377 0.26364625 0.19436748
-0.37599003 0.53181094 -0.121360876 0.72695017 -0.049515843 -0.5064085 0.26011804 -0.07197187
-0.4854713 0.12885764 0.45492056 -0.4743679 -0.0829462 -0.64572036 -0.13424245 -0.21469077
0.46743938 0.2631139 -0.66927755 1.5077409 0.56161004 0.62273467 -0.48450738 -0.71132344
-0.14371692 -0.26577717 -0.23608546 -0.05030127 -0.132489 0.08978301 -0.101338424 -0.30965614
-0.115161374 0.20608996 -2.053283 -0.6137219 -0.1788392 -0.111460276 0.23455499 -0.24422038
-0.368337 -3.4589257 -0.002482835 0.052568685 0.83111054 1.3053359 -0.31613126 -0.6635048
0.5656681 -0.4367694 -0.097701624 -1.7851756 0.011540446 0.1945309 0.278598 -0.631527
0.14665988 -0.0008658337 -0.14201358 0.33535978 0.58673114 -0.19806893 -0.33988175 0.13052736
-0.22776201 -0.069089584 -0.018390473 -0.1394739 0.31650457 -0.10782565 -0.34682468 0.021271262
-0.2939328 -0.10616919 0.29969096 1.3443722 0.3105109 0.12461695 0.13833326 -0.13307104
0.16189723 0.30580705 -0.31169882 -0.50400144 0.16655362 -0.40036356 -0.5025165 0.45705512
0.17303337 -1.0283804 0.71811616 -0.16595724 -0.8669858 -0.5120836 -0.36426246 -0.17373954
0.0045748292 0.17068923 0.025478894 0.60192925 0.50741327 -0.4631776 -0.23770215 0.17427005
0.11907469 0.3675704 -0.15919062 0.006494689 -0.11825991 0.13449419 0.09354162 0.20294
0.27501914 -0.2775497 1.6734893 -0.41438147 -0.1956755 0.48721927 0.19055018 0.099395394
-0.48464265 0.3560647 -0.21762158 0.04843378 0.08835982 -0.08483952 -0.13565493 -0.22151025
0.3827177 -0.11397992 -0.2787028 -2.2253952 -0.96986866 0.29390293 0.030636076 -0.59260404
-0.3245064 0.5384912 0.15299958 -0.014037186 0.1434404 -0.011308422 0.17877133 0.01593911
0.3923226 0.1693376 -0.53945524 0.39594632 0.2946103 -0.5048055 0.4616918 -0.5365056
0.17464513 -0.9270715 -1.4525121 -0.34444812 0.5745536 -0.32851598 0.038674757 0.35968953
0.9417169 -1.4118861 0.19360308 -0.4236449 -0.28241178 0.033776067 -0.5930957 0.10049071
0.22146252 0.32985416 0.22984499 2.201773 -0.13351095 -1.4793862 -0.5263153 0.19542871
0.5251557 0.043488353 -0.5125195 1.4526523 1.4459057 0.8210845 -0.69458514 -0.6754262
-0.3072413 -4.146374 0.4705014 -0.086479515 -0.01605838 1.095736 -0.06312716 -0.50447655
-0.057849865 0.40012774 0.6505388 -0.62957937 -0.5570409 -0.52183074 0.45062044 -0.18667279
-0.64718837 -0.12536208 -0.7534634 1.1286651 0.6383578 0.51764804 0.33283195 0.22628047
-0.2634215 -0.2780237 -0.1272738 -0.15216896 0.56322116 0.6130034 0.21224727 0.055811748
1.0439332 0.5082369 0.18828274 0.6636064 -0.36297572 -0.36813146 -0.59160614 0.42431054
00000000: 6894 fd3e 026a 033f 1cc8 793f 145c 42bd
00000010: e008 083f 3bbc a7be 031a 9e3e 55c5 13be
00000020: bbe1 98be 9bcb c53e 67d2 eabf 6bb1 63bb
00000030: 6047 22bf e477 a5bf 54a3 c63e 0423 acbe
00000040: b565 ae3e eaba 71bd 34ad 383e 487e 253f
00000050: a2f5 84bd 6d11 543d 528b f43c 97ef 10be
00000060: f4f7 9abe 73d2 c9bd b88c e73e cdad eebe
00000070: b135 89be 59e2 dfbe a4fc 863e 4508 473e
00000080: c481 c0be c324 083f 0d8c f8bd 6819 3a3f
00000090: 20d1 4abd fda3 01bf 312e 853e fd65 93bd
000000a0: b28f f8be 42f3 033e 59eb e83e 59e0 f2be
000000b0: b3df a9bd ee4d 25bf da76 09be e6d7 5bbe
000000c0: 3754 ef3e ddb6 863e c655 2bbf a7fd c03f
000000d0: adc5 0f3f 8a6b 1f3f 5a11 f8be 4b19 36bf
000000e0: 872a 13be f213 88be 63c0 71be b408 4ebd
000000f0: 32ab 07be 28e0 b73d 858a cfbd 408b 9ebe
00000100: bad9 ebbd 3f09 533e fd68 03c0 e11c 1dbf
00000110: a021 37be 4945 e4bd 2f2f 703e e814 7abe
00000120: ab96 bcbe 0a5f 5dc0 0fb7 22bb 4352 573d
00000130: a9c3 543f 3f15 a73f f5db a1be 73db 29bf
00000140: a0cf 103f 3da0 dfbe ca17 c8bd a280 e4bf
00000150: 2414 3d3c 1c33 473e 66a4 8e3e c1ab 21bf
00000160: 022e 163e 1ef9 62ba 026c 11be 47b4 ab3e
00000170: 0334 163f 95d2 4abe fb04 aebe f7a8 053e
00000180: 723a 69be d77e 8dbd 9ea7 96bc 3fd2 0ebe
00000190: e30c a23e b2d3 dcbd 0193 b1be 1241 ae3c
000001a0: 5c7e 96be 3b6f d9bd 1871 993e 6314 ac3f
000001b0: 49fb 9e3e 2c37 ff3d 3ca7 0d3e c643 08be
000001c0: 63c8 253e be92 9c3e fd96 9fbe 3d06 01bf
000001d0: 088d 2a3e 74fc ccbe eca4 00bf 2103 ea3e
000001e0: a92f 313e f8a1 83bf 76d6 373f b2f0 29be
000001f0: c8f2 5dbf e917 03bf 9c80 babe c7e8 31be
00000200: 73e8 953b 28c9 2e3e 1db9 d03c 0918 1a3f
00000210: d6e5 013f 9d25 edbe 3168 73be d973 323e
00000220: 6edd f33d 3032 bc3e de02 23be 66d1 d43b
00000230: 4032 f2bd d8b8 093e c092 bf3d 81cf 4f3e
00000240: 4fcf 8c3e ff1a 8ebe e634 d63f cf29 d4be
00000250: 295f 48be ce74 f93e 961f 433e d08f cb3d
00000260: 1523 f8be 1d4e b63e 31d8 5ebe 8062 463d
00000270: fef5 b43d 58c0 adbd 20e9 0abe 95d3 62be
00000280: 93f3 c33e 4e6e e9bd 22b2 8ebe e06c 0ec0
00000290: 5049 78bf 727a 963e 82f8 fa3c e6b4 17bf
000002a0: b425 a6be 8fda 093f ecab 1c3e 3afc 65bc
000002b0: 0ae2 123e f646 39bc d50f 373e bd92 823c
000002c0: 82de c83e d666 2d3e bd19 0abf 7ab9 ca3e
000002d0: 29d7 963e ef3a 01bf de62 ec3e 6e58 09bf
000002e0: 2cd6 323e 8f54 6dbf ebeb b9bf 815b b0be
000002f0: f215 133f 3f33 a8be 6c69 1e3d 3a29 b83e
00000300: 5c14 713f afb8 b4bf e33f 463e fce7 d8be
00000310: 4798 90be c658 0a3d 1fd5 17bf 13ce cd3d
00000320: 12c7 623e a5e2 a83e 7c5c 6b3e d9e9 0c40
00000330: 18b7 08be 875c bdbf 99bc 06bf 771e 483e
00000340: 9b70 063f d820 323d 7a34 03bf 83f0 b93f
00000350: 7013 b93f 9832 523f 55d0 31bf bbe8 2cbf
00000360: bb4e 9dbe 19af 84c0 8fe5 f03e 2c1c b1bd
00000370: dd8c 83bc 1441 8c3f d048 81bd 6025 01bf
00000380: fbf3 6cbd 8bdd cc3e b689 263f 1d2c 21bf
00000390: 3c9a 0ebf b396 05bf b9b7 e63e 2727 3fbe
000003a0: 23ae 25bf eb5e 00be fae2 40bf 1978 903f
000003b0: 6b6b 233f 9584 043f f368 aa3e 11b6 673e
000003c0: 2fdf 86be 1f59 8ebe 1054 02be 2ed2 1bbe
000003d0: 432f 103f caed 1c3f 5957 593e dc9a 643d
000003e0: 9a9f 853f d01b 023f 31cd 403e 1ce2 293f
000003f0: f4d7 b9be ba7b bcbe 8073 17bf 3b3f d93e

variance.0.bias f4 [128]
-0.14721015 0.09583701 -0.47092414 0.0124509325 0.051069893 -0.013082822 0.14062555 -0.29019427
0.03404999 0.27433968 -0.047361083 0.26332846 -0.34822452 0.022736609 0.24051566 -0.22267312
0.19505796 0.1653701 -0.13419253 0.25531098 -0.13309543 0.0014900431 0.05579103 -0.010951048
-0.147339 0.109280884 0.20887014 0.23564953 -0.16179018 -0.18746221 -0.05479144 -0.08537936
0.04584369 0.036935814 0.021812793 0.3337801 0.03981329 0.17333065 -0.21773225 0.23833457
0.21451028 0.41847065 -0.5689999 0.2285271 0.4989239 -0.22779255 0.24803647 0.10078676
-0.07766439 -0.25948495 -0.10798369 -0.10987524 -0.2468721 -0.40850386 0.122039504 0.24910241
0.28127864 0.38481477 0.1297818 -0.15099296 0.13033491 -0.36327282 0.02934407 0.31077406
-0.07562152 -0.26103115 0.35496238 0.2656731 0.110352844 0.5771568 -0.13498741 0.008267562
-0.1262606 -0.1847869 -0.2393165 0.27087864 0.27220848 0.32823476 0.23336461 0.055075604
-0.46034735 -0.17527318 -0.12810193 0.16031311 -0.14043485 0.13841845 0.2771704 -0.11419475
0.25549084 0.15614757 0.46915027 0.45536274 0.038745947 0.4306786 0.18015529 -0.14373665
0.06301579 -0.16683406 -0.031951748 -0.09504917 0.10730521 -0.109879054 -0.05578278 -0.32438326
0.07820083 0.08217141 0.37264842 -0.24514845 0.30309445 0.12156414 0.29569855 -0.021093216
-0.01901091 -0.21453498 -0.020933714 0.31704253 0.120187975 -0.19392574 0.28955936 0.024053607
0.15056252 0.106253795 -0.05196577 0.13282023 0.18867673 -0.17482707 -0.32865888 -0.09653123
00000000: 42be 16be 3246 c43d f81c f1be fffe 4b3c
00000010: aa2e 513d 5559 56bc 2500 103e 5894 94be
00000020: 0178 0b3d 4076 8c3e b2fd 41bd fdd2 863e
00000030: 7c4a b2be 2042 ba3c bd49 763e 6c04 64be
00000040: 46bd 473e c856 293e c469 09be 1fb8 823e
00000050: 2b4a 08be 8d4d c33a 2385 643d 066c 33bc
00000060: 09e0 16be a8ce df3d 0ee2 553e 1c4e 713e
00000070: 53ac 25be 18f6 3fbe fd6c 60bd 60db aebd
00000080: 98c6 3b3d 024a 173d beb0 b23c 3ae5 aa3e
00000090: 4313 233d 977d 313e 34f5 5ebe fa0d 743e
000000a0: 95a8 5b3e c941 d63e faa9 11bf 0203 6a3e
000000b0: f472 ff3e 7342 69be 46fd 7d3e 4a69 ce3d
000000c0: 820e 9fbd 36db 84be 8e26 ddbd 4506 e1bd
000000d0: 0acc 7cbe 6b27 d1be d9ef f93d b414 7f3e
000000e0: c103 903e 7106 c53e 85e5 043e e69d 1abe
000000f0: 8476 053e e5fe b9be fa62 f03c c71d 9f3e
00000100: 75df 9abd e0a5 85be a1bd b53e 4e06 883e
00000110: ac00 e23d 8cc0 133f 243a 0abe ab74 073c
00000120: 754a 01be c738 3dbe 620f 75be 9bb0 8a3e
00000130: e95e 8b3e 630e a83e 22f7 6e3e f596 613d
00000140: a6b2 ebbe d07a 33be 272d 03be 1f29 243e
00000150: 27ce 0fbe 91bd 0d3e 47e9 8d3e f0de e9bd
00000160: b2cf 823e 26e5 1f3e 7734 f03e 4e25 e93e
00000170: 12b4 1e3d e881 dc3e a17a 383e b32f 13be
00000180: 6c0e 813d 8cd6 2abe d6df 02bd 24a9 c2bd
00000190: d5c2 db3d 4508 e1bd 7c7c 64bd 9015 a6be
000001a0: c227 a03d 7c49 a83d c6cb be3e 3208 7bbe
000001b0: 322f 9b3e 9ff6 f83d cd65 973e aecb acbc
000001c0: c5bc 9bbc 0faf 5bbe 2e7d abbc 6653 a23e
000001d0: 1d25 f63d 7894 46be 2041 943e 120c c53c
000001e0: 102d 1a3e 979b d93d 0fda 54bd 0702 083e
000001f0: 7934 413e de05 33be fa45 a8be 2ab2 c5bd

variance.2.weight f4 [2, 128]
0.58778894 0.871313 0.32350215 -0.17937383 -0.015143632 0.30426872 -0.7865374 -0.07741904
0.83693403 -2.1584342 -0.7769907 -0.21361953 0.15544568 0.28901798 -0.2754597 0.19662693
-0.23228067 -0.11648062 0.5658356 0.5554962 -0.7189085 0.02404527 -0.44832727 -0.29172826
1.1179845 -1.7635659 -0.8306641 -1.9712578 -0.122207426 0.40397498 0.28686723 -0.46376207
0.33709884 -1.9150757 -0.13085647 0.5362335 -1.0885473 -0.037715685 -0.55297005 -0.29973727
-1.0286328 -0.17994203 -0.14783785 -0.15627272 -1.8003908 0.19328755 -1.4716924 -0.9393447
0.5194319 -0.5899212 0.076307446 0.44030067 0.12822047 -0.51585764 -0.12345411 0.025241155
-0.5071138 -0.18954407 -1.77985 -0.15949224 -0.2156429 0.24184391 0.09169833 -1.0909567
0.63900846 -0.0056519075 -0.11868159 -0.264683 1.0320604 -1.6690463 -0.05301488 0.88713473
0.7095783 0.6691964 0.71108496 -0.9592629 0.32892904 -0.1902645 -1.0557841 -0.62956387
0.21523397 0.44546884 -1.3367202 0.60526663 0.8895571 -0.05166645 -0.17057914 -1.3816892
-0.21644977 -1.0983379 -0.43902552 -0.014276551 -0.100959465 -1.4469551 -0.44626737 0.36497387
1.1172893 1.3090998 -0.1758449 0.094747394 0.423687 0.22468428 -0.43199652 0.07430654
-0.34800094 0.9247448 -0.4197376 0.3438658 -0.64077955 -0.36143976 -0.9259091 0.6469501
-0.32537866 -0.54040307 -0.24031995 -0.15801264 -0.6415302 0.5817095 -0.68968433 -2.5895827
0.9582414 -0.21664932 0.38088307 -0.15823357 -1.2867155 1.0060003 -0.060123727 0.6687981
0.40199932 0.73436314 -0.0062419544 0.27081966 0.3412002 0.9643386 -0.29118723 0.034017306
0.29891074 -1.5064418 -0.25738108 -0.00067337055 -0.041456275 0.28728047 -0.16643648 -1.067931
0.08739336 -0.06841059 0.9113822 -0.009177577 -0.74428165 0.1405559 0.11686815 -0.38516176
1.1956704 -1.1566541 -0.81609154 -2.0693789 0.08526909 -0.42112967 -0.46702155 -0.6376511
-0.3753173 -1.9145478 0.16020885 0.16676834 -0.4509703 -0.04255321 -0.9700271 0.036550954
-1.058463 -0.102538526 0.4114658 -0.08787005 -2.3819807 -0.027101437 -1.6443671 -1.1887676
0.06894088 -0.83258295 -0.05257594 0.34816134 0.5108154 0.20370606 0.0679412 -0.053923156
-1.1335251 -0.31671762 -1.6045966 0.25558463 -0.098319024 -0.46940935 0.45763782 -0.850822
0.33917406 0.004439477 -0.065864824 -0.1424634 0.31590596 -0.9671791 0.81529456 -0.20155679
0.37359565 1.0197738 -0.08616017 -1.2448369 0.033961404 -0.042459678 -1.1080203 0.12791707
0.05581722 1.2572061 -1.7924246 0.32562393 0.4180229 -0.031601746 -0.17344825 -0.6355878
-0.08955358 -2.1157997 -0.70907086 -0.41619986 -0.012387941 -1.4576333 -0.20579143 1.4745767
0.9662278 0.5201131 0.34379116 0.14551866 0.2048496 -0.37214652 -0.7750697 -0.051767077
-0.093966566 0.8390719 -0.6381041 -0.23864044 -0.8603906 -0.7741476 -1.3506563 1.0322663
-0.3034782 0.058145016 -0.01125019 -0.11079958 -0.65965545 0.75879586 -1.5722034 -0.96478677
0.3780812 -0.0519562 0.30167952 0.01247585 -0.9933918 1.1516718 0.17002834 -0.35157531
00000000: 5679 163f 5e0e 5f3f 13a2 a53e c6ad 37be
00000010: ff1c 78bc 1cc9 9b3e 845a 49bf e08d 9ebd
00000020: 4f41 563f c923 0ac0 dde8 46bf 14bf 5abe
00000030: 272d 1f3e 2afa 933e 0e09 8dbe 9258 493e
00000040: fcda 6dbe 648d eebd 9ada 103f 0035 0e3f
00000050: 630a 38bf 96fa c43c 278b e5be 685d 95be
00000060: 1e1a 8f3f 87bc e1bf 67a6 54bf 2d52 fcbf
00000070: e347 fabd cfd5 ce3e 43e0 923e 3972 edbe
00000080: 3898 ac3e 3321 f5bf 3dff 05be 9946 093f
00000090: 8555 8bbf c37b 1abd 728f 0dbf 2a77 99be
000000a0: 3daa 83bf b942 38be ce62 17be f505 20be
000000b0: 3573 e6bf 2ced 453e 6b60 bcbf e578 70bf
000000c0: 7df9 043f 1305 17bf 1447 9c3d 176f e13e
000000d0: 3a4c 033e 3f0f 04bf 82d5 fcbd 8ac6 ce3c
000000e0: 36d2 01bf d717 42be 20d2 e3bf ef51 23be
000000f0: 7ed1 5cbe eea5 773e 56cc bb3d 78a4 8bbf
00000100: 0f96 233f a333 b9bb 550f f3bd 8884 87be
00000110: 8e1a 843f 4fa3 d5bf 2126 59bd 431b 633f
00000120: eca6 353f 7550 2b3f aa09 363f 4192 75bf
00000130: 6369 a83e b2d4 42be ef23 87bf 192b 21bf
00000140: 4b66 5c3e 7e14 e43e a619 abbf c1f2 1a3f
00000150: 04ba 633f 33a0 53bd 4cac 2ebe 31db b0bf
00000160: 02a5 5dbe 5696 8cbf f4c7 e0be 32e8 69bc
00000170: d6c3 cebd d335 b9bf 287d e4be dbdd ba3e
00000180: 5603 8f3f 9590 a73f af10 34be ec0a c23d
00000190: 81ed d83e a313 663e a62e ddbe 072e 983d
000001a0: 2e2d b2be 13bc 6c3f d9e7 d6be 2e0f b03e
000001b0: 210a 24bf a20e b9be 6108 6dbf 869e 253f
000001c0: 0898 a6be db57 0abf 6f16 76be 11ce 21be
000001d0: 533b 24bf eaea 143f 278f 30bf b9bb 25c0
000001e0: 4f4f 753f 52d9 5dbe 1b03 c33e fb07 22be
000001f0: 18b3 a4bf 9ec4 803f 4c44 76bd 5a36 2b3f
00000200: dbd2 cd3e 39ff 3b3f 4f89 ccbb e0a8 8a3e
00000210: cbb1 ae3e e5de 763f 7e16 95be bb55 0b3d
00000220: d40a 993e 16d3 c0bf 74c7 83be 2285 30ba
00000230: 0ece 29bd 6d16 933e 536e 2abe f7b1 88bf
00000240: 4afb b23d da1a 8cbd 5850 693f 8c5d 16bc
00000250: 3e89 3ebf e3ed 0f3e 9258 ef3d ec33 c5be
00000260: ba0b 993f 3e0d 94bf 60eb 50bf b470 04c0
00000270: 90a1 ae3d 4f9e d7be 731d efbe 1a3d 23bf
00000280: 9729 c0be e70f f5bf ca0d 243e 52c5 2a3e
00000290: 94e5 e6be 464c 2ebd b253 78bf 74b6 153d
000002a0: b77b 87bf b8ff d1bd a5ab d23e 36f5 b3bd
000002b0: 5f72 18c0 d503 debc 9f7a d2bf 8929 98bf
000002c0: e030 8d3d 2824 55bf de59 57bd 3442 b23e
000002d0: ccc4 023f 5298 503e c224 8b3d 87de 5cbd
000002e0: 5a17 91bf d028 a2be 6c63 cdbf fddb 823e
000002f0: 7c5b c9bd 6c56 f0be 814f ea3e 78cf 59bf
00000300: 39a8 ad3e 0879 913b 23e4 86bd ede1 11be
00000310: 6dbe a13e 0d99 77bf 25b7 503f e764 4ebe
00000320: ee47 bf3e f387 823f be74 b0bd d156 9fbf
00000330: 1d1b 0b3d 33ea 2dbd 9cd3 8dbf b1fc 023e
00000340: 99a0 643d 21ec a03f 2b6e e5bf 2eb8 a63e
00000350: 1907 d63e d570 01bd 6b9c 31be e2b5 22bf
00000360: de67 b7bd 4369 07c0 ab85 35bf 2618 d5be
00000370: caf6 4abc ba93 babf fdba 52be eebe bc3f
00000380: b55a 773f 2226 053f 6505 b03e d802 153e
00000390: 18c4 513e fd89 bebe f86a 46bf b709 54bd
000003a0: 8b71 c0bd 6bcd 563f ca5a 23bf 295e 74be
000003b0: 8f42 5cbf 8a2e 46bf 4ee2 acbf 4d21 843f
000003c0: 7f61 9bbe 7829 6e3d b852 38bc e4ea e2bd
000003d0: 2edf 28bf 7240 423f f63d c9bf 44fc 76bf
000003e0: dc93 c13e 06d0 54bd bd75 9a3e 8267 4c3c
000003f0: ed4e 7ebf fb69 933f e91b 2e3e ae01 b4be

variance.2.bias f4 [2]
-0.176762 -0.14742489
00000000: 1901 35be 8df6 16be
