actor_critic_ppo_continuous/train2/reward_-3.pth (torch, 20563 bytes, 11 tensors)

critic.0.weight f4 [128, 8]
000000 06 11 8d 3f f2 ab 8b bf a5 f0 4f 3f 1f 72 89 be
       1.102082 -1.0911849 0.8122657 -0.2684488
000010 00 ee 7a bf 6f bc aa bf 9e 33 f4 3e 47 2d d0 be
       -0.9801941 -1.3338755 0.4769563 -0.40659544
000020 ca f3 cb be 72 4f dd be d2 00 a4 3d b3 f2 82 3e
       -0.39834434 -0.43224674 0.08007969 0.2557579
000030 e6 e7 f2 3e ef b2 f2 3e 2c bd 42 be 34 67 f5 be
       0.4744255 0.4740214 -0.19017476 -0.479303
000040 00 6d 55 3f 94 07 24 be e1 bc a4 3e e8 68 7a 3e
       0.83369446 -0.16018516 0.32175353 0.24454081
000050 00 65 08 3d 84 51 9b 3e ec f7 ee bd 94 4f 20 be
       0.033299446 0.3033563 -0.11668381 -0.15655357
000060 6b d0 9e 3f 22 0c 02 be 4a 10 54 3f 89 2b 91 3f
       1.2407354 -0.12699941 0.82837355 1.1341411
000070 55 88 5c bf d5 56 94 bf 8d ff a2 be 96 ba 95 be
       -0.86145526 -1.1588999 -0.31835595 -0.29243916
000080 8c a3 fb be 85 62 88 bf 9e 0c 16 3f 96 2b eb be
       -0.49148214 -1.0655066 0.58613 -0.4593169
000090 49 61 51 bf 12 a2 c0 bf ac b9 8c be 0d 5c 83 be
       -0.8178907 -1.504946 -0.27485406 -0.25656167
0000a0 bb 2d 53 bf 0b b2 b6 bd 32 79 d2 bc 6d 86 0c bf
       -0.82491654 -0.08920678 -0.025692556 -0.5489262
0000b0 7d f2 d1 3e 86 af eb 3d 8d 88 6b be e5 4b 49 ba
       0.41005316 0.11508088 -0.23001309 -0.00076788507
0000c0 e5 79 6a bf 9b 89 a9 be fb 20 15 bf c3 86 88 be
       -0.91592246 -0.33112797 -0.5825345 -0.26665315
0000d0 1f f1 0f 3f 54 aa fa 3d 8f ab 12 bf c9 cf c2 3d
       0.56227297 0.12239519 -0.5729303 0.09512288
0000e0 f1 85 f1 be 37 93 c1 be f9 8a 13 3e ca ff 90 be
       -0.47172502 -0.3780763 0.14408483 -0.28320152
0000f0 60 2b 0a 3f d6 f0 f9 3d 01 7b 9b be 77 be 03 3e
       0.53972435 0.12204139 -0.30367282 0.12865625
000100 db af ea be ac 97 3e be 1e b2 fb be 0e bf 96 bd
       -0.45837292 -0.18612546 -0.4915933 -0.073606595
000110 eb 9d 35 3f ed 0e 29 3f 83 67 b1 bd 6f e3 39 3e
       0.7094409 0.660384 -0.086623214 0.18153165
000120 a4 ea fb 3e c0 00 7b 3d 68 b7 60 3f 8a 43 53 40
       0.49202454 0.061280012 0.87779856 3.3009973
000130 28 ec 5c bf 56 86 87 bf 66 96 15 be 14 f0 e5 be
       -0.86297846 -1.0587871 -0.14608154 -0.44909728
000140 93 f9 77 3c 23 84 a3 bd 8b 55 8c be 8e 11 d6 3d
       0.015135187 -0.079841875 -0.27409014 0.10452567
000150 42 e0 1c 3f 06 5a 1f 3f e3 a0 af 3d 42 5f 91 be
       0.6127969 0.6224674 0.085756086 -0.28392988
000160 6e 11 17 3d cf 8a 04 bd 84 53 84 3b 45 b3 8f be
       0.036881857 -0.03235894 0.004038276 -0.2806646
000170 29 13 74 3e 6c 67 a6 3e fc a1 e6 3e 51 ea b1 bc
       0.23835434 0.3250078 0.4504546 -0.021718176
000180 ce f2 1b bf 7e fd 0f bf d0 95 c9 be 3e 25 a5 be
       -0.60917366 -0.56246173 -0.3937211 -0.32254976
000190 5a 1b 60 3e d7 86 90 3e ab ef 2e 3e 70 3b e6 3d
       0.21885434 0.28227875 0.17083614 0.112418056
0001a0 b9 89 23 be 8e 85 8e be 59 2c 85 3e 51 bd 21 40
       -0.15970506 -0.2783627 0.26010397 2.52718
0001b0 1b 5e cf bd 57 d9 9a bf 94 58 95 be 5e 6b e7 be
       -0.10125371 -1.2097577 -0.29169142 -0.45199102
0001c0 2e 76 97 be 1c db 03 3e c2 ad 37 3e bd 9b ea be
       -0.2958235 0.12876552 0.17937377 -0.45821944
0001d0 2b 62 b1 3e 96 a0 bc bd f5 64 40 3f c9 9e f2 3e
       0.3464521 -0.09210317 0.7515405 0.47386768
0001e0 42 ee 37 bc 8b 01 a7 be 27 a2 74 3e 23 66 25 be
       -0.011226239 -0.32618365 0.23889981 -0.16152243
0001f0 31 ae fa bd 15 15 fa bb 3d ae 9b 3d 06 00 21 3d
       -0.122402556 -0.0076319077 0.07601593 0.039306663
000200 05 54 42 be a3 86 85 bd e4 3a d0 be aa fc 9f be
       -0.18977363 -0.065198205 -0.4066993 -0.31247455
000210 6a cb cd 3d cd a5 12 be 96 44 95 3e f5 50 89 bd
       0.10048564 -0.1432106 0.2915389 -0.067048945
000220 92 67 a4 3e 7e 48 e0 be ea 28 ac 3e 1b 68 14 bf
       0.32110268 -0.43805307 0.33624965 -0.5797135
000230 83 87 61 3e d7 26 87 be 27 75 3b 3e 7e 3f 1b 3d
       0.2202435 -0.2639682 0.18306409 0.037902348
000240 18 2e 2a be 87 8b 85 be cf 72 b8 bd 3c bc bd be
       -0.16619146 -0.26083013 -0.09006273 -0.37057674
000250 f5 f1 00 3f f6 f4 54 3e 47 5a b0 be 8d bc bc bd
       0.503692 0.2079657 -0.34443876 -0.09215651
000260 00 d0 2c bf 25 87 17 bf 2a 2a 2d 3f 3f 8f 7c 3e
       -0.6750488 -0.5919059 0.6764246 0.24664019
000270 e2 25 91 be bb 80 a6 bf be 26 2d be fb 2b 53 3d
       -0.28349215 -1.3008035 -0.1690931 0.051555615
000280 a6 b3 48 be 09 a1 e8 be 73 a5 17 3e 65 32 36 3e
       -0.1959978 -0.4543536 0.14809208 0.17792661
000290 a3 c3 6d 3e 0e 8a ec 3e e3 a7 40 3e 8a f6 c3 bc
       0.2321916 0.46199077 0.18814044 -0.02392127
0002a0 6d 1c 5d bd 94 fd ed be 51 7c a7 ba 16 b7 c1 bd
       -0.053982187 -0.46482527 -0.0012778138 -0.09458749
0002b0 e9 a2 8e 3e 7e 23 98 3d cf ec 88 be 5d f0 b0 be
       0.27858666 0.074286446 -0.2674317 -0.34558383
0002c0 ef 54 5f bf 15 3c de bd f9 ec c7 bc aa b9 20 3e
       -0.87238973 -0.108513035 -0.02440499 0.15695825
0002d0 88 00 5f 3f 04 07 31 3e 1c ea 12 bf 30 06 b3 3e
       0.87110186 0.17287832 -0.5738847 0.34965658
0002e0 7c fd 2b bf cb b8 85 bf fe 57 ec bd e3 4c dc be
       -0.6718366 -1.0447019 -0.11540221 -0.4302741
0002f0 df bd 00 3d ca fe d9 3c 5c ea c5 be 4a 79 30 bd
       0.031431075 0.02661075 -0.38655365 -0.04308442
000300 9d 4f 3b be e5 3c 89 be 76 83 7a 3e 9a fd 1f 3e
       -0.18292089 -0.2680427 0.24464211 0.15624085
000310 32 ed 22 3e 67 d3 18 be 4f 72 10 3e 98 3f a4 3d
       0.15910795 -0.14924394 0.14106105 0.08019942
000320 aa 99 e4 3e af d4 f6 be af af 2f 3e 8d f5 10 bf
       0.44648486 -0.4820914 0.17156862 -0.5662468
000330 64 98 c6 3d a1 7d 03 3f ad 91 55 3e c2 7d 97 bc
       0.09697035 0.5136357 0.20856352 -0.018492583
000340 bd 62 11 3e 60 08 61 bf 53 8c d8 bc a8 2c 58 be
       0.14197822 -0.87903404 -0.0264341 -0.21110785
000350 c9 d3 33 3f 3b a5 23 3f 7c 69 ce bd 54 fe 44 be
       0.70245034 0.63923997 -0.10078713 -0.19237643
000360 57 8b d0 3f 0b f6 19 bf 28 cb 7f 3f fb d0 86 3e
       1.6292523 -0.60141057 0.99919367 0.26331314
000370 3f 7e a0 be 50 9e 07 3d 37 d0 8c 3e ab 74 a1 3d
       -0.31346318 0.033109963 0.27502605 0.07883581
000380 01 22 43 3f f5 8a c1 bf 0b cb 61 3f 0b f5 1a bf
       0.7622376 -1.5120531 0.88200444 -0.60530156
000390 07 7e 0f bf ce 33 5c bf 51 a3 d8 3d 9a 2b 42 3e
       -0.5605168 -0.8601655 0.10578025 0.18961945
0003a0 d8 c3 31 bf 6d ca 99 bd 1f ef cf bb 79 27 00 bf
       -0.6943946 -0.07509313 -0.006345644 -0.5006023
0003b0 a2 64 2a 3f d3 a4 d3 3e d4 42 95 3d 58 e1 8b 3d
       0.66559803 0.41336688 0.07288137 0.0683009
0003c0 51 a2 0e be bc f1 98 be eb 69 0f 3c 90 75 19 be
       -0.13929106 -0.2987193 0.00875328 -0.14986253
0003d0 be 22 1b 3f eb a5 75 3d b1 88 7e be 14 68 ee 3d
       0.6059989 0.059972685 -0.24856831 0.11640945
0003e0 7f c2 58 bf 32 2a 7d be 03 76 fb be 87 c4 88 3d
       -0.8467178 -0.24723127 -0.49113473 0.066781096
0003f0 12 1b 05 3f 48 fa 10 3f 93 53 c4 be c1 5b 8d 3e
       0.5199443 0.566319 -0.38345012 0.27609065

critic.0.bias f4 [128]
000000 7e 89 0e bc 3b 1b 1e 3f 9c 5e 00 3f 56 d3 40 3f
       -0.008699773 0.617603 0.5014436 0.75322473
000010 2b 47 80 be 77 22 e5 bd a6 05 54 bd 7d 2f de 3e
       -0.25054297 -0.11188214 -0.0517632 0.43395606
000020 ce d3 29 be 30 fb 1e 3f 74 08 09 3e 4d 5e da 3e
       -0.16584703 0.6210203 0.13382131 0.4265007
000030 68 33 96 3e 1b 3c 32 3f a7 bc 7b 3e ba cb d5 3e
       0.29336095 0.69622964 0.24583684 0.41756994
000040 08 2a 5a 3e a1 ab 47 be a7 39 99 3e 06 20 40 3f
       0.21305096 -0.19499065 0.29926798 0.75048864
000050 4a ab 1f 3f 24 d9 15 3f 41 e2 06 3e 24 63 47 bd
       0.6237074 0.58534455 0.13172247 -0.048678532
000060 c7 96 cb 3e 41 c4 28 be e6 dd 10 be 37 bd 85 be
       0.3976347 -0.16481115 -0.14147148 -0.26120922
000070 50 13 7e be 09 bb 37 be 33 7a c4 3e 55 6e f9 bc
       -0.24812055 -0.17942442 0.3837448 -0.030448118
000080 26 b1 48 3e 55 32 71 3e b0 13 b7 3e 5b 06 a0 3c
       0.19598827 0.23554356 0.35757208 0.01953428
000090 eb 0d 1c 3d d6 57 32 3f 38 17 39 3b 79 c6 92 3e
       0.03809921 0.69665277 0.00282426 0.28667048
0000a0 63 b9 92 be 28 db 08 3f a4 fe 57 bd df 80 73 3e
       -0.28657064 0.53459406 -0.05273308 0.23779629
0000b0 74 98 bb 3e f4 87 a3 be 23 99 f9 3e f9 ec a0 3e
       0.3663975 -0.31939662 0.48749647 0.31430796
0000c0 d5 e2 6b bd 70 97 7b bd 2a b3 ae 3e 31 23 c2 bd
       -0.05758937 -0.06142372 0.34121066 -0.094793685
0000d0 a6 6d 3c 3e b4 05 42 3f 0e ca 9a 3f 37 bc 85 bb
       0.18401203 0.7578995 1.2092912 -0.004081275
0000e0 8b 1b 71 be 1f f4 fb bc 52 28 2d be 41 99 d2 3e
       -0.23545663 -0.030756054 -0.16909912 0.41132548
0000f0 11 fd a4 3e c0 3c cc 3e c4 19 ad 3e 10 15 8e 3e
       0.32224324 0.398901 0.3380872 0.27750444
000100 62 74 da 3e 4f ba a9 bd 74 f7 d7 3e 17 18 eb 3e
       0.42666918 -0.08287489 0.4218098 0.45916817
000110 28 48 03 be b0 39 c1 be 38 d2 d8 3e 55 6a de 3e
       -0.12820494 -0.37739325 0.42347884 0.434405
000120 ff 68 9a 3e cc 02 c8 3e 03 53 90 be 47 0f 8e 3e
       0.3015823 0.39064634 -0.28188333 0.2774603
000130 1e 2a 8d be e0 a3 5c be 78 eb 97 be c3 1f 08 3c
       -0.27571195 -0.21546888 -0.29671836 0.008308354
000140 c2 20 f1 3e ed 83 bf 3d 31 16 9c 3e c9 de 81 3e
       0.47095305 0.09351335 0.3048568 0.25365284
000150 1f 6b 52 3f 9e 35 bf 3e 1d f1 79 be 2d 60 9b 3f
       0.82194704 0.37345594 -0.24408384 1.2138726
000160 a5 ae b3 bd bb 01 8b 3e 65 81 8a be 7c 43 c5 be
       -0.08773545 0.27149758 -0.27051845 -0.3852805
000170 3f 5b 2b 3f 81 78 69 3e 29 f3 c8 3e 5f 97 ea be
       0.66936105 0.22799875 0.39248016 -0.45818612
000180 14 a0 9e 3e 6b b4 4d 3e 00 68 58 3c 63 79 79 be
       0.30981505 0.20088355 0.013208389 -0.24362712
000190 71 76 13 3e 1c be a7 3e f5 df 97 3e 8f 34 1b 3f
       0.1440065 0.3276223 0.29663053 0.60627073
0001a0 50 cd 3c 3e f5 75 a5 bd be 82 76 3e c0 af a8 3e
       0.18437696 -0.08079139 0.24073312 0.32946587
0001b0 59 07 c1 3e 30 70 c6 3e 92 39 8d 3e 15 77 c5 3e
       0.37700918 0.38757467 0.27582985 0.38567415
0001c0 8d 7a 2a 3e 82 24 bc 3e 50 08 18 3f d8 ad ae be
       0.16648312 0.36746603 0.59387684 -0.34117007
0001d0 9b 21 17 3e 13 57 61 3e c5 97 2e 3e 5d 3c e0 3e
       0.14758913 0.22005872 0.17050083 0.43796054
0001e0 38 9b 81 be 6b 1b 55 3e cf 50 ca 3e c5 84 af bd
       -0.25313735 0.2081124 0.39514777 -0.08570246
0001f0 0b e3 86 3e 1d 7c 44 be f8 f4 da 3e f5 c5 a6 be
       0.26345095 -0.1918797 0.4276502 -0.32572904

critic.2.weight f4 [1, 128]
000000 a4 32 9b bf 69 59 c8 be 59 32 a8 be 37 2d 8d bf
       -1.2124829 -0.39130715 -0.32850912 -1.1029423
000010 28 5d 8f bf 0f 42 86 be 9d 7c bb be be bd 87 be
       -1.1200304 -0.26222274 -0.3661851 -0.2651195
000020 39 e0 c2 be 47 ae d7 bf 24 35 96 be b1 d3 ee 3c
       -0.38061693 -1.685006 -0.29337418 0.029153677
000030 63 d9 eb bd c9 f5 a4 bf cf fe 4e 3e f6 04 34 be
       -0.115160726 -1.2887508 0.2021439 -0.17580017
000040 c8 1a 94 bc 7a b5 f2 be df 66 5c be 81 cd 75 bf
       -0.018079177 -0.4740408 -0.21523617 -0.960167
000050 6d 4a 7d be f9 3a 9f be 0a 68 d9 be 6b 23 35 bf
       -0.24735422 -0.3109968 -0.42462188 -0.7075717
000060 8f b5 9e be 06 fc cb be 07 a9 06 bf db c9 42 bf
       -0.30997893 -0.39840716 -0.52601665 -0.76089257
000070 05 41 b8 bf a6 9f ec bd 55 77 6e be 61 33 02 bf
       -1.4394842 -0.11553888 -0.23287709 -0.5085965
000080 11 7f 98 be a1 38 bb bd 48 87 0b be 09 ed 46 be
       -0.29784444 -0.091416605 -0.13625824 -0.19426359
000090 5f d0 ec bd 3d 35 76 3e b1 7f ae bd 38 e9 05 be
       -0.11563181 0.24043746 -0.08520449 -0.13077247
0000a0 ec c6 9e bf 19 5e d4 be e6 6b e7 be 68 25 c0 bd
       -1.2404456 -0.4147804 -0.45199507 -0.09382135
0000b0 32 99 9a be ef 3e 00 3d e9 eb 57 be 12 e4 2d bf
       -0.30195004 0.03131002 -0.21086086 -0.6792613
0000c0 33 92 96 be e1 fd a4 be bf 83 a5 be 35 54 e0 be
       -0.29408416 -0.32224944 -0.32327077 -0.43814245
0000d0 15 c0 5f be d7 fc 86 bf 67 bf 1b c0 bb 02 33 be
       -0.21850617 -1.0545911 -2.4335573 -0.1748151
0000e0 35 cc b7 be 4e 9e 1f be 40 8d 92 bf 2c f5 3d be
       -0.35897985 -0.15587732 -1.1449356 -0.18550557
0000f0 97 d0 c6 be ac 71 9b be a4 cc 74 be db 43 f6 be
       -0.38831016 -0.30360162 -0.23906189 -0.48098645
000100 2f f5 51 be 82 8d b2 be ba c1 f8 be 60 4c c8 be
       -0.20503686 -0.34873587 -0.48585302 -0.3912077
000110 5c cb 84 bf e9 f6 cd bf 1c 39 14 bc 14 84 91 be
       -1.037456 -1.6090976 -0.009046819 -0.2842108
000120 13 1c b4 be 06 6c 0d bc 2e 0f b2 bf 3c e5 1f be
       -0.3517767 -0.008631712 -1.3910882 -0.1561479
000130 53 c3 5c be 72 03 96 be 02 bd 8e be b2 8d 1b bf
       -0.21558885 -0.29299504 -0.27878577 -0.60763085
000140 2f a0 85 be 52 a6 aa be 10 16 90 be 09 7b ca be
       -0.26098773 -0.33330017 -0.28141832 -0.39546993
000150 ed 23 29 bf 06 8c 45 be 8a 68 a8 bf ae 91 fc 3f
       -0.66070443 -0.19291696 -1.3156903 1.9731958
000160 04 6a 0a bf 47 26 bf bd fe 15 4f be 9e 9d 68 bf
       -0.54068017 -0.09333473 -0.20223233 -0.90865505
000170 60 0b 95 be f5 da 27 be f4 53 4f be e2 a8 6f bf
       -0.2911024 -0.16392119 -0.2024687 -0.9361707
000180 71 d3 75 be e7 63 0d be 3a c0 5f be b5 3e d2 3c
       -0.2400644 -0.13807641 -0.21850672 0.025664667
000190 e8 9a 45 bf fa 73 38 be cf 9f 1f bf 16 76 83 3e
       -0.77189493 -0.18012992 -0.62353224 0.2567603
0001a0 47 5b 4b be 0a fc a4 be da e9 05 be 3c 06 d4 be
       -0.19859038 -0.3222354 -0.13077489 -0.41411006
0001b0 dd 7e f2 bd 6a c5 b7 be 72 a6 bf be c8 98 24 be
       -0.118406035 -0.35892802 -0.37431675 -0.16073906
0001c0 78 16 14 bf 4a 36 bf bd c9 98 f2 3e af 12 1f bf
       -0.57846785 -0.09336527 0.4738219 -0.62137884
0001d0 e8 79 9e bc 57 07 4e be 9f e9 3d bf 17 af 9d be
       -0.019345239 -0.20119987 -0.741846 -0.30797645
0001e0 2c 47 8b be d1 b2 16 be e8 4c 21 3c ce 25 ec be
       -0.27202737 -0.1471665 0.009844996 -0.46122593
0001f0 a6 f7 89 be bb e9 8d be 28 77 03 bd 4a 44 a6 bf
       -0.26946753 -0.27717385 -0.032096058 -1.298959

mu_net.0.weight f4 [128, 8]
000000 6d 4c 16 3e d1 5d a3 3e f6 a5 bc 3e b6 37 9b be
       0.14677592 0.31907514 0.36845368 -0.30315942
000010 8a a3 ea be 26 ed 34 bf 3e 3f a2 be e3 2e c3 be
       -0.45827895 -0.7067436 -0.31688875 -0.3812171
000020 ac 23 43 3e c5 8d 65 be 90 31 97 3e 4e ff c7 3d
       0.19056576 -0.22417362 0.2953 0.097654924
000030 2b bf 0c be b9 e4 37 3e 9c 98 22 3e 26 ee 8f 3e
       -0.137448 0.17958345 0.15878528 0.2811138
000040 6d 86 c9 be fd 41 8c 3e 5a 8b 79 be a6 0d 2f be
       -0.3936037 0.27394095 -0.24369565 -0.1709505
000050 7a 31 15 3e 5f 30 7d 3e 24 7e 96 3e be 7c af 3e
       0.14569655 0.24725483 0.29393113 0.34274858
000060 6d 60 9b be ce 26 8d 3e 43 0e e9 3d 22 88 a1 bd
       -0.30347005 0.27568668 0.11379673 -0.078872934
000070 d4 cb 8d 3e 13 ed 7c be ff ad 95 be 31 fb 71 be
       0.2769457 -0.24699812 -0.2923431 -0.23630978
000080 a4 63 85 3e 74 78 13 3e ed 0c 0f bd 49 73 a0 be
       0.26052582 0.14401418 -0.034924436 -0.31337956
000090 ac f8 62 3e 31 4f 04 bf 86 ce 76 bd 29 32 4b 3e
       0.22165173 -0.51683336 -0.06025555 0.19843353
0000a0 1f 61 84 3e 73 32 9f bd 80 99 d7 3b 3f a4 84 be
       0.25855348 -0.07773294 0.006579578 -0.2590656
0000b0 83 c6 3e bd 2a d1 a5 3e 8e 51 d6 3c 07 8e 1b 3e
       -0.046576034 0.32386142 0.026161935 0.15190898
0000c0 de 5c 2e 3e 6d 6e 2c 3e 25 a0 1a 3f 12 93 74 3f
       0.17027614 0.16838999 0.6040061 0.9553691
0000d0 02 c4 11 be df 5e 74 3e a4 04 cf 3d 2a 03 cf 3e
       -0.14234927 0.23864315 0.10108307 0.404321
0000e0 14 c4 b8 bd ec 39 bd 3e db 03 b7 3e 6e 4f 52 bc
       -0.09021774 0.36958253 0.3574513 -0.01283632
0000f0 38 fa 02 bf c3 92 18 be 17 97 b6 be f7 a4 a0 be
       -0.51163054 -0.14899735 -0.35662147 -0.31375858
000100 e4 fa b3 bd 65 c1 80 be d7 dd 91 be 7b 43 72 be
       -0.08788088 -0.25147548 -0.28489563 -0.23658554
000110 f0 01 74 be a4 f1 db bc 77 64 3a 3e b6 d6 16 3e
       -0.23828864 -0.026848622 0.18202387 0.14730343
000120 b7 3b e7 3c 52 ba 45 3e 08 bb 48 bb 50 5d 39 3e
       0.028226716 0.19309357 -0.0030629057 0.18102002
000130 90 0f 12 3f 70 08 66 3e 0e e6 47 be ff 21 c0 3b
       0.57054996 0.22464156 -0.19521353 0.0058634277
000140 8e a2 9d 3b de 23 a6 be 75 b6 16 be e2 b2 cf bd
       0.004810638 -0.3244924 -0.1471804 -0.10141541
000150 c7 87 95 3e dd df ce bd f6 3e bc bd 4d e4 11 3e
       0.29205152 -0.10101292 -0.09191696 0.14247246
000160 f9 4f a7 be 3d 03 7f 3d 77 99 02 3f 2e a0 96 3e
       -0.32678202 0.062258948 0.5101542 0.29419082
000170 16 11 97 be 42 b4 0f be cb 47 6a 3e 30 28 5a bd
       -0.29505223 -0.14033607 0.2287895 -0.053260982
000180 33 ed aa 3e ae 39 55 3e 90 90 02 be ce 7a 6f be
       0.33384094 0.20822784 -0.12750459 -0.2338669
000190 92 9b 8e 3e b1 08 d5 3e 4c 54 eb be b1 00 17 bc
       0.27853066 0.41608194 -0.4596275 -0.009216473
0001a0 97 c4 47 3d a4 41 f0 bb 07 d1 92 be 19 09 9a 3f
       0.048771467 -0.0073320437 -0.286751 1.2034026
0001b0 10 16 85 be 27 dd 19 3e 67 b3 77 be 64 1a ce be
       -0.25993395 0.15025769 -0.2418953 -0.4025451
0001c0 b2 62 5c be 37 dc 5c be 9f cd 5d 3e d7 eb 80 be
       -0.21522024 -0.2156838 0.2166047 -0.25179932
0001d0 89 80 d2 3d 7d 7e 9e be a1 d4 55 bd b7 0d 74 3e
       0.102784224 -0.30955878 -0.05220473 0.23833357
0001e0 e2 3f 5c bd 96 90 88 3d f3 77 90 be bf 03 b0 3e
       -0.05377186 0.066682026 -0.28216514 0.34377858
0001f0 21 e6 56 3e aa ca e3 3d 24 6f ec 3a 3f 58 23 3e
       0.20986225 0.111226395 0.0018038494 0.15951632
000200 d9 9e b5 3d c4 09 fb 3d a2 f1 16 3e ab 93 19 bf
       0.088681884 0.12257722 0.14740613 -0.5999095
000210 e0 b1 f2 bd 83 ce 75 be 7b b9 11 3d bd 6e 66 be
       -0.11850333 -0.24004559 0.03557728 -0.22503181
000220 0e c3 ac 3e c1 f6 c2 3d 9b 02 3d 3e 20 a6 c4 be
       0.33742565 0.09519721 0.18458025 -0.38407993
000230 63 9e 99 3e 41 c3 84 bd 3f d7 91 be 8e 34 81 be
       0.30003652 -0.06482554 -0.28484532 -0.2523541
000240 1a aa bc 3e 01 d1 b0 be b5 ff 29 3d b3 6c 58 3f
       0.36848527 -0.34534457 0.041503627 0.8454086
000250 4b a1 7f 3e 41 93 95 3e 6d 1c b4 be 88 33 74 3e
       0.24963872 0.29213908 -0.35177937 0.23847783
000260 b4 f7 a3 3e 7a 54 82 be 4c 2f 0f 3f f9 f6 86 be
       0.3202492 -0.25455076 0.55931544 -0.263603
000270 03 8b 07 bf f4 51 28 bc 25 5e d4 3e d1 cc aa bd
       -0.5294649 -0.010273445 0.41478077 -0.08339847
000280 fe 97 57 be 9f 7d c1 be fa 50 da be eb 0d 4f be
       -0.21054074 -0.37791154 -0.42639905 -0.20220153
000290 14 3b 27 3e 97 d5 48 be 2f 31 28 be 52 50 ce be
       0.1633113 -0.19612728 -0.16425012 -0.40295655
0002a0 c8 12 45 bd 70 0d 80 3e 9f 22 dd bd da 09 20 be
       -0.048113614 0.25010252 -0.10797619 -0.15628758
0002b0 22 11 e8 bd c4 bd ad be e4 df 65 be 2a cc ba be
       -0.11331393 -0.33933842 -0.22448689 -0.3648389
0002c0 00 2d ca 3e b7 83 3f be a9 20 80 bd e8 2a fc be
       0.39487457 -0.18702589 -0.062562294 -0.49251485
0002d0 0b 1b 14 bf d1 a5 05 bf 22 5f 49 bd 8f 56 ce bd
       -0.57853764 -0.5220614 -0.04916299 -0.100751035
0002e0 bd 36 91 3e 45 7a a2 be 3c d4 0c b8 5f 17 27 3e
       0.28362074 -0.3173391 -3.357626e-05 0.16317509
0002f0 ae fa 0d be 43 9b b2 be ed de 94 be d1 07 4f 3e
       -0.13865158 -0.3488408 -0.2907633 0.20217825
000300 a5 6e 7c 3c df ef 32 3d 91 c1 a5 be cd cd b7 be
       0.015407239 0.04368579 -0.32374242 -0.358992
000310 f2 b9 04 3f f9 8a 60 3e 38 77 45 3e c7 9b ea bc
       0.5184623 0.21928014 0.1928376 -0.028638734
000320 99 75 ce 3d ab 71 71 be fb 7e 0d 3d 9d e8 b0 3d
       0.10081024 -0.23578517 0.034544926 0.086381175
000330 e5 ad f9 bd 58 7e bc be 95 d0 61 3e 12 55 a4 be
       -0.12191371 -0.36815143 0.22052224 -0.32096153
000340 8b 43 a0 3e 4a d7 49 3d 2d fd 82 be 43 01 9c be
       0.3130153 0.04927758 -0.25583783 -0.30469713
000350 bb 29 ce 3e 0e 21 4b 3e 61 3e 16 be 12 e3 ce 3d
       0.40266213 0.19836828 -0.14672233 0.10101904
000360 30 c8 af be 87 4d 40 be 33 b9 82 bd 1e 51 58 3f
       -0.34332418 -0.18779574 -0.0638298 0.84498775
000370 85 1a 23 bd b4 66 2d bd 3e b5 ca 3d 07 c1 42 be
       -0.039820213 -0.042334273 0.098978505 -0.19018947
000380 9f f3 86 3e f0 0d af 3c 51 a1 c1 be c7 28 10 bf
       0.26357743 0.02136895 -0.37818387 -0.5631222
000390 26 87 13 3f 33 3c 49 3f 48 26 aa bd 85 ec 44 be
       0.57628095 0.7860748 -0.08308083 -0.1923085
0003a0 d1 70 6a 3e aa 9f fc ba 6d b1 e6 3e 15 a0 eb be
       0.22894599 -0.0019273658 0.4505724 -0.4602057
0003b0 ea 33 d6 be 60 bc 4b bf 3d b8 c6 bd ef d1 37 3e
       -0.41836482 -0.7958431 -0.097031094 0.17951177
0003c0 e8 58 b9 3d ac cb 7b 3c 8b 7a c8 3e bb ed d9 3f
       0.09050161 0.015368383 0.39155993 1.7025675
0003d0 78 5b fe 3e 06 f2 ac 3d 29 2c 52 bd ea b4 6c 3e
       0.4967916 0.084446 -0.051311646 0.23115888
0003e0 4d 52 15 3d 8e f5 23 3c c9 92 ce 3e 3e 7a 03 3f
       0.03645544 0.010007275 0.40346363 0.513584
0003f0 66 e4 ab be a9 ea 2d bf cd 91 9b 3e 15 3e b7 3e
       -0.33572692 -0.6793619 0.30384675 0.35789552

mu_net.0.bias f4 [128]
000000 a0 ac 95 bb f1 45 46 be 56 26 9b be b8 47 b7 be
       -0.0045676976 -0.19362618 -0.30302685 -0.35796905
000010 fc 6e 04 be 4d b0 92 be 57 cc e2 bc 21 e0 41 be
       -0.12932962 -0.28650132 -0.027685327 -0.18933155
000020 c7 08 a2 bc 7c e4 03 bd e6 f3 18 be 0b 47 12 3e
       -0.019779576 -0.03220032 -0.1493679 0.14284913
000030 cf ee 41 3e ab a2 0b 3e 46 af 94 be 87 1a 9f be
       0.18938754 0.13636272 -0.29039973 -0.31074926
000040 56 dc a5 3e 26 1f 5d 3e 21 1c ce 3e 13 09 2c be
       0.32394665 0.21593913 0.40255836 -0.16800337
000050 72 5e 24 3e b0 c5 b3 bc bb 17 c6 3e d9 f4 35 be
       0.16051653 -0.02194485 0.3868998 -0.17769183
000060 a5 33 ab 3e 62 38 7c be e3 3b fc 3d f5 72 b1 3e
       0.3343784 -0.24630883 0.1231611 0.34658018
000070 71 0d 14 3e dc 7d 99 3e ae 48 e8 3d f8 f6 52 3e
       0.14458252 0.29978836 0.113419876 0.20602024
000080 4e 04 ec bd 23 cb ac 3e 5c bf cd 3e 51 fa e5 bd
       -0.115242586 0.3374873 0.40185058 -0.11229385
000090 4c fe 2d 3e b7 36 cb bd 32 de fe bd d2 72 32 3e
       0.16991538 -0.099225454 -0.12444724 0.17426613
0000a0 72 c6 4f 3e f7 77 d8 bc f5 e0 cb bd 08 6f 83 3e
       0.20290545 -0.026424391 -0.099550165 0.25670648
0000b0 2f 02 1e 3e ef bf 43 3e 92 03 71 be 5d 88 0d 3e
       0.1543052 0.19116186 -0.23536518 0.1382155
0000c0 4e 30 23 be 33 64 39 3e 85 ac b8 be ed 52 13 be
       -0.15936396 0.18104629 -0.36069122 -0.14387102
0000d0 c3 15 89 be cc 6d 85 3e 28 8c 95 be 06 60 c4 bd
       -0.26774415 0.2606033 -0.29208493 -0.095886275
0000e0 34 3e e9 3a 28 46 1f 3b 52 06 98 3d c9 23 84 3e
       0.0017795027 0.002430329 0.074230805 0.25808552
0000f0 bf 88 d8 bd 35 5d db bd 95 bb 22 3e c9 1f 9e be
       -0.10572957 -0.10711137 0.1589187 -0.30883625
000100 62 46 ee bd 10 38 0d be 36 b0 5e 3d 73 78 f9 bd
       -0.11634518 -0.13790917 0.054367267 -0.12181177
000110 9f ee 12 be 5b 51 c2 3e e8 f6 97 3e b7 90 5d 3e
       -0.14348839 0.37952694 0.29680562 0.21637236
000120 08 05 4e be ee 64 62 3d 84 fc 8a bd 02 ab 94 bd
       -0.20119107 0.055272035 -0.06786445 -0.0725918
000130 6c b1 0d be b9 68 8e 3e 49 2b 1f 3e 87 02 74 3d
       -0.13837212 0.27814272 0.15543856 0.059572723
000140 dd f3 16 3e 72 a1 3d 3e 58 ca 22 be a9 c4 d5 3d
       0.14741464 0.18518618 -0.158975 0.104379006
000150 14 e6 42 3e 14 0d 8c 3e ba d1 c8 3d 0f b2 8c 3e
       0.1903308 0.27353728 0.09805627 0.27479598
000160 5a f0 47 be e6 8f 3d be b5 e1 a8 3d 6a c9 62 3e
       -0.1952528 -0.18511924 0.08246175 0.22147146
000170 f0 e3 63 be c2 44 6a 3e 7f 2a c4 be 11 9f 8e 3c
       -0.2225492 0.22877792 -0.38313672 0.017409833
000180 12 1b 22 3e d4 80 8d be 90 40 c2 3e 9b 8e af bd
       0.15830639 -0.2763735 0.37939882 -0.08572122
000190 ce 9b 37 3e ae 98 0f be d4 4a ac be 0b 99 de 3d
       0.17930529 -0.14023086 -0.3365084 0.108690344
0001a0 9a be 64 3e 81 3a 3b bc 86 e9 30 3e a9 e1 8d 3e
       0.22338334 -0.011427523 0.17276582 0.27711228
0001b0 a5 99 4d 3e 00 56 84 3d 96 f5 2f 3e 2f 7b 2f 3e
       0.20078142 0.06461716 0.17183527 0.17136835
0001c0 bb 4b bc 3e 89 cf 20 3e 28 c5 01 bd d1 e2 c8 3d
       0.36776528 0.15704168 -0.031682163 0.09808887
0001d0 9d 4c 93 be 8e 71 32 3e 86 fe 33 3d 8a 7c 56 3e
       -0.2876939 0.1742613 0.043943904 0.20945945
0001e0 1b 56 ed 3d 59 da 9d 3e e3 38 93 3e dc 38 93 be
       0.11588689 0.3083065 0.2875434 -0.28754318
0001f0 7e 05 9c be f4 21 7e 3c f7 bb 94 3e 21 0d 2f 3e
       -0.3047294 0.015511025 0.29049656 0.17094852

mu_net.2.weight f4 [2, 128]
000000 46 8c e1 3d 77 39 e0 bd f5 44 bc bd 39 ca c3 bc
       0.11013083 -0.109484605 -0.0919284 -0.023900138
000010 27 c6 f3 3d 6e 01 05 be ab 4a 01 bf 37 88 76 bc
       0.11903029 -0.12988827 -0.5050456 -0.015047125
000020 07 fb 13 3e c2 4e 32 3c c0 2c 49 3d ec 93 99 bc
       0.14451228 0.010883035 0.049114943 -0.018747292
000030 ea 76 97 3c 43 bc 6c bf ea 0d e2 3d 75 20 bf 3d
       0.01848932 -0.92474765 0.1103781 0.093323626
000040 46 72 4b 3e 90 88 39 3e 75 3f 9c be 24 cc c1 bd
       0.1986781 0.181185 -0.30517164 -0.09462765
000050 49 14 6e bd 08 0f a8 3c 5b a2 50 3e 3c aa 86 be
       -0.058124814 0.02051498 0.20374434 -0.26301754
000060 61 0d 0f 3e 3b 01 57 3d 14 6f 69 3d a3 c3 9f be
       0.13969947 0.052491408 0.056990698 -0.31203946
000070 24 a6 64 3e 2f 26 d3 3d 67 3d 23 bf cd 1c d0 bd
       0.22329003 0.10310017 -0.6376557 -0.10161743
000080 56 05 43 be 2c 6b a9 3d 62 34 38 bf 1b 91 94 bd
       -0.19045004 0.082723945 -0.7195493 -0.07254239
000090 59 5c 14 3e ed 05 86 bd 45 fc 12 be f4 4f 87 3e
       0.14488353 -0.06544099 -0.14354046 0.26428187
0000a0 ba 3e 36 3e dd d8 91 3c 22 9e 96 bd 40 2b 14 3e
       0.17797366 0.017803604 -0.0735438 0.14469624
0000b0 8a 66 52 be 02 1b f4 3c 1e a1 dc bd 65 2b e9 be
       -0.20546928 0.029798035 -0.10772918 -0.4554092
0000c0 e2 2b e0 be 07 f2 67 3d d3 67 27 3d 9f 62 12 3d
       -0.4378348 0.0566273 0.0408705 0.035738584
0000d0 9b 9a 2e be cf 5f bc be 42 e4 fa 3c 0f 29 06 be
       -0.17051165 -0.36791846 0.03062642 -0.131016
0000e0 03 2f a1 bd 5b f9 ac 3e a5 f2 c3 3e 64 f8 17 3e
       -0.07870295 0.33783993 0.3827106 0.14840847
0000f0 a3 80 be be 8c 02 3a be 4d 98 bc bd 90 43 be be
       -0.37207517 -0.18165034 -0.092087366 -0.3716092
000100 f4 42 b7 3d f2 19 06 3c 43 fb 11 3e 5e 71 b1 bd
       0.08948317 0.008184897 0.14256005 -0.08664201
000110 33 c1 aa be b0 c6 23 3e 8e 4c 0f 3d c3 91 df 3d
       -0.33350524 0.15993762 0.034985118 0.10916474
000120 41 96 fa bc a2 1d db 3e b5 88 1a bf a7 c4 0a 3e
       -0.030589225 0.42796046 -0.6036485 0.1355158
000130 c2 8c 8d 3c ae 06 71 3b 36 06 a0 bd eb 72 01 bf
       0.017279033 0.0036777663 -0.07813685 -0.50565976
000140 96 a2 d2 3e 4b 74 62 be 3a dc 80 bc 5a f6 a9 bd
       0.41139668 -0.22114675 -0.015730012 -0.08298941
000150 4d 81 54 bd bb a7 98 bc c4 94 78 3e ad 87 21 bf
       -0.051881123 -0.018634668 0.242755 -0.6309765
000160 b5 46 13 be 12 0d 00 bf 77 af 4d 3d 86 1c b7 be
       -0.14382441 -0.50019944 0.050216164 -0.3576395
000170 8a 34 bb be 07 10 b8 be a7 51 f7 bc 6a 8d 85 be
       -0.36563522 -0.35949728 -0.030190302 -0.26084453
000180 4d e0 c4 bd c7 c5 22 3d 43 07 f4 3d 03 bf f9 be
       -0.096130945 0.039739396 0.119154476 -0.48778543
000190 1c 3a 17 be bc 6a 49 be f6 62 0a 3c 23 1d c2 3d
       -0.1476826 -0.19669622 0.008446446 0.09478214
0001a0 65 ec 7e bc cb 41 5e 3d d7 42 f8 bc 74 c9 0c 3e
       -0.015559291 0.054261964 -0.03030531 0.13748723
0001b0 fd bd a9 be 5d 91 63 3e 36 5c 8f 3c 3a 0e 5a 3e
       -0.33152762 0.2222342 0.017500024 0.2129449
0001c0 55 3d 20 3e 1b ea 04 bc df e4 ea bd 1f ff 82 be
       0.15648396 -0.008112456 -0.11469435 -0.25585267
0001d0 cd c3 2b 3d ad 36 b0 3c 98 12 84 be 6b 43 8c 3d
       0.041934777 0.021510446 -0.25795436 0.068487965
0001e0 c3 b6 20 be 0d 2c 4b 3e bf 3e ae 3d 41 db 95 3d
       -0.15694718 0.19841023 0.085080616 0.0731721
0001f0 87 86 af bc 13 48 b4 3d 86 0e 7c 3d 56 e3 36 bc
       -0.021426452 0.088028096 0.061537288 -0.0111626
000200 91 af 84 be b6 29 a3 bc ff e1 20 3e ad 06 01 bd
       -0.25915197 -0.01991735 0.1571121 -0.031500507
000210 55 4d 6f 3c a4 67 8c bd a5 d8 e2 3c e4 fb 25 be
       0.01460584 -0.068557054 0.027691195 -0.1620937
000220 a2 8c 54 bd 2a f3 13 3e 69 d6 02 be 8f 8c e7 bd
       -0.05189193 0.14448228 -0.12777103 -0.11306106
000230 9e de af 3d 2e eb 46 3d 70 01 53 3a 81 21 31 bc
       0.08587383 0.04856413 0.00080492254 -0.010811211
000240 ec 61 c0 bd 2f 4b 02 3d fd 3f 44 3e 22 c4 9c be
       -0.09393677 0.031809982 0.19165035 -0.30618387
000250 a1 c4 d5 3d 63 50 82 bd ee f9 8c be c7 a5 27 bc
       0.104378946 -0.06362989 -0.2753443 -0.0102323955
000260 38 e6 0c 3e 6b 85 e9 3d b6 69 23 3e b9 c3 73 3d
       0.13759696 0.114024006 0.15958294 0.059512828
000270 5f 72 c5 3e 9f 67 79 be 2b 1d a4 3e 54 66 26 be
       0.3856382 -0.24355935 0.32053503 -0.16249973
000280 05 51 b2 3d 0a bb ae 3e 88 ff 82 3e 29 ba a3 bc
       0.087068595 0.34127074 0.2558558 -0.019986229
000290 e0 41 0b 3d 12 0a 3e 3e 41 3d 81 bd a7 47 1e 3d
       0.03399837 0.18558529 -0.063105114 0.03864255
0002a0 ff f2 07 3f e4 54 39 bd a2 54 2c ba 5c 2d c0 3e
       0.5310516 -0.045246974 -0.00065738906 0.37534606
0002b0 71 c4 0c bf d0 5d 6f 3e eb 0c 0a 3c a6 fd ae 3d
       -0.54987246 0.2337563 0.008425931 0.08544473
0002c0 b0 01 c4 3d 6c e1 e1 bd f7 32 6a 3d 71 d6 1e be
       0.09570634 -0.11029324 0.05717751 -0.1551149
0002d0 d6 6b 8a bb 9d c0 c1 bd 32 50 46 be 62 cc fc 3d
       -0.004224281 -0.09460566 -0.1936653 0.123436704
0002e0 71 35 e9 be 82 92 97 be de 50 80 bd 6c 11 20 be
       -0.45548585 -0.29603964 -0.06265424 -0.15631646
0002f0 de 22 1b bd 2e bc 76 3d ac 89 2b bc fb 54 1c 3d
       -0.03787505 0.060238056 -0.010469835 0.03816698
000300 9f da 9f 3b 6a 9c 98 bd 2e 4e 0a 3e a9 7d e1 be
       0.0048783566 -0.074517086 0.13506386 -0.44041184
000310 cf a7 8a 3d 5e 85 d9 3d 54 4b 50 bc 5e 13 c9 bc
       0.06770288 0.10621141 -0.012713272 -0.024545368
000320 09 fa 84 bd c5 cb 3b be cc 32 d1 bc 69 3d a1 be
       -0.06493003 -0.1833945 -0.025536917 -0.31492165
000330 84 02 e2 bd 74 f0 b0 be 8e 23 43 3e a4 da 34 3e
       -0.11035636 -0.3455845 0.19056532 0.1766153
000340 89 e8 45 be 80 84 09 bd 0c 5a e8 bb 2b 1c 4f bd
       -0.19326986 -0.033573627 -0.0070908125 -0.050563972
000350 30 00 8d 3e 42 ae 29 3e af 6a 8c be 10 ae 56 3d
       0.27539206 0.1657038 -0.27425143 0.052412093
000360 1c 6b 19 3d 27 e7 11 bd 77 49 44 be fc 6c dc be
       0.037455663 -0.035620835 -0.1916865 -0.43051898
000370 bc 78 11 bd 7f 68 67 bd 8e 15 3d 3d 69 c1 f3 be
       -0.035515532 -0.05649614 0.046163134 -0.47608498
000380 11 60 f1 3e 05 6c bc bc b3 5c 55 3e f2 21 88 3d
       0.47143605 -0.023000726 0.20836143 0.066470996
000390 bc d5 e9 3e f6 ed 00 be 1f 3b 96 bd 42 a4 73 3e
       0.4567088 -0.12590775 -0.07335495 0.23793128
0003a0 9b 2a 31 3e 78 de 2b 3d 68 41 0b bf 2a 3f 42 3d
       0.17301409 0.04196021 -0.54396677 0.04742352
0003b0 4e 06 5e 3d a5 cf 1f bf fb c5 68 3e 58 ca 92 3d
       0.05420523 -0.62426215 0.22731774 0.071675
0003c0 f5 56 f3 3d 5f b4 c8 be 07 1e 4f 3e da 40 34 3e
       0.1188182 -0.39200112 0.20226298 0.17602864
0003d0 20 01 0c 3e 23 ec cd 3d 28 48 69 b8 91 4d c5 3d
       0.13672304 0.10054805 -5.561873e-05 0.09633935
0003e0 89 ca ff be f6 01 cc 3e 30 df ad be b6 61 4e 3d
       -0.4995921 0.39845246 -0.3395934 0.050386153
0003f0 a3 3b 00 3e e2 e0 0a 3c 52 b2 e4 be 2c 09 0b bf
       0.1252275 0.008476468 -0.44667298 -0.5431087

mu_net.2.bias f4 [2]
000000 2a 5e d5 3d af b1 2f bd
       0.10418351 -0.04289406

variance.0.weight f4 [128, 8]
000000 74 46 d3 3e 0c 8f 17 3e 80 38 d1 3e ab 07 c0 3d
       0.4126469 0.14800662 0.4086342 0.093764625
000010 1b d5 48 be fa cc 7e bd ba 9d b3 3e 43 db 0e be
       -0.19612543 -0.0622072 0.35081273 -0.13950829
000020 e6 cf 07 be ff 50 b3 3e 9c 6e 79 be af 6b 36 3f
       -0.132629 0.35022733 -0.243586 0.7125806
000030 86 93 8a 3e 7f d0 ad be 6b ca 1b bd 57 5d c9 be
       0.27065676 -0.33948132 -0.038034838 -0.39329025
000040 57 6e f8 3e bb 21 29 3e d3 38 5d bd 67 ad 57 3f
       0.48521683 0.16516773 -0.05400927 0.84248966
000050 7c 36 77 be fb 47 1b bf 90 af 46 3e e7 15 82 bd
       -0.24141878 -0.6065671 0.1940291 -0.06351834
000060 58 bd 6c 3d 05 0f b5 3e 1b 20 93 3c 70 77 07 bc
       0.05779776 0.35363021 0.017959645 -0.008268222
000070 b7 3d 8d 3e 34 c8 1e be 9d 43 52 3e 84 fa 61 3c
       0.27586147 -0.15506059 0.20533605 0.013792638
000080 44 90 ca bd 50 e1 c2 bb d8 9f 2e 3e 9e 6d 81 3f
       -0.09890798 -0.0059472695 0.17053163 1.0111578
000090 9e 01 8c 3d a2 92 ae be b6 90 97 3d 1f 2e 20 be
       0.06836246 -0.34096247 0.07400648 -0.15642594
0000a0 49 f5 c1 bd 34 81 08 bf aa 51 d1 3d ba 72 43 be
       -0.094706126 -0.5332215 0.10220654 -0.19086733
0000b0 97 5d 74 3e fd 03 72 bd 8b 6f e4 bd cc 11 d4 bd
       0.23863827 -0.059085835 -0.11154088 -0.10354957
0000c0 fe 88 a6 3e 77 cc 12 be 2f 4a 10 3e d5 ce 24 3f
       0.32526392 -0.1433581 0.14090799 0.643781
0000d0 22 cf 9f bd 50 1e 80 3d d4 6d 07 3e 94 a0 00 bf
       -0.07803179 0.06255782 0.1322549 -0.5024502
0000e0 c0 70 1a be c9 cc 89 be 6d c3 79 be c0 27 56 bd
       -0.15082073 -0.2691405 -0.24390955 -0.052284002
0000f0 c5 a8 05 be 41 25 b2 3d 85 8a cf bd 40 8b 9e be
       -0.13052662 0.08698512 -0.101338424 -0.30965614
000100 ba fb 88 3c 83 d4 dc be a4 1b c6 bc 32 f8 62 be
       0.016721595 -0.43130884 -0.024183102 -0.22164991
000110 6f 57 4f bd 5a b2 24 3b d5 1d 1d 3e ae 01 8d 3d
       -0.050620493 0.002513072 0.15343411 0.06885086
000120 54 22 35 be ce 85 82 bd 2e 58 0c be ea 9e 7c 3e
       -0.17688876 -0.063731775 -0.13705513 0.24669996
000130 9e 52 20 ba 1b 3d 5f 3e 9c 43 97 bd e7 06 6a 3e
       -0.00061158265 0.21800654 -0.07385942 0.22854196
000140 94 c2 8f 3e 35 1b 00 bc 19 55 9f be 3b 97 1a bf
       0.2807814 -0.007818987 -0.31119612 -0.6038701
000150 81 c7 89 be 06 c0 37 be 8b 23 6e 3e c2 ce 68 be
       -0.26910022 -0.17944345 0.23255746 -0.22735122
000160 c5 2e 3e 3e 94 90 6c 3e f1 c5 81 bc 77 f1 45 bd
       0.18572529 0.23102027 -0.015841456 -0.048325982
000170 1e a9 32 3e f4 94 b3 3e 7c 60 f3 bd 94 ca e2 3d
       0.17447326 0.3507458 -0.11883637 0.11073795
000180 72 3a 69 be d7 7e 8d bd 9e a7 96 bc 3f d2 0e be
       -0.22776201 -0.069089584 -0.018390473 -0.1394739
000190 e3 0c a2 3e b2 d3 dc bd 01 93 b1 be 12 41 ae 3c
       0.31650457 -0.10782565 -0.34682468 0.021271262
0001a0 69 84 96 be d9 7e 42 3c 83 93 86 3e 62 94 85 3f
       -0.29397896 0.011871063 0.26284418 1.0435908
0001b0 ae dd a5 3d 8e bb da bd e1 50 f9 bd 3e 83 1f be
       0.08098923 -0.106803045 -0.121736296 -0.15577409
0001c0 e9 4b 00 be 1b cd c3 3e dd 00 12 be 52 b3 1c bf
       -0.12528957 0.3824242 -0.14258142 -0.6121112
0001d0 c4 e7 97 be 97 d3 38 be 30 f6 d3 be a3 f3 09 3f
       -0.2966901 -0.18049465 -0.41398764 0.53887385
0001e0 0e 7f 72 bd 68 5e b3 be 89 3f 11 be 41 e7 4e be
       -0.0592032 -0.35032964 -0.14184393 -0.20205404
0001f0 55 39 ba be cf 57 af be 82 9c 2d bd 00 c9 d5 3d
       -0.36371866 -0.3424668 -0.042385586 0.10438728
000200 bc 50 a7 3d 3a 29 cf 3e 4c 6c 69 3d e9 af 93 3d
       0.08169696 0.4046114 0.056988046 0.072112866
000210 43 b5 15 3e 5f 06 05 be 7d a1 93 3d 06 1a 12 3e
       0.14619927 -0.12990712 0.07208536 0.1426774
000220 f6 84 b8 3d c8 a2 13 3f b4 35 75 be c0 b3 9e be
       0.09009735 0.5767026 -0.23946267 -0.30996513
000230 c9 69 e7 be 9c 90 c7 3e f8 6b a1 3e 5e b7 98 3e
       -0.45197895 0.38977516 0.31527686 0.29827398
000240 43 8e 98 3e ef e6 e7 bd 7a 7f 04 3f 74 32 af be
       0.29796037 -0.11323344 0.51757014 -0.3421818
000250 47 27 ba bd 8e 04 56 3d 57 4e fb 3d e3 c0 62 3d
       -0.09089523 0.052250437 0.122708015 0.055359732
000260 3a 94 84 be 9b 86 8c 3d 0f 61 16 3e a4 71 4b 3f
       -0.25894338 0.068616115 0.14685462 0.79470277
000270 ec c8 a5 3e 7e 76 c3 be fd bd 57 be 12 f5 b4 be
       0.32379854 -0.3817634 -0.21068569 -0.35343224
000280 6c a9 27 be 76 0a a2 bb 84 6f 9a be 0d a7 44 bf
       -0.16373223 -0.0049450947 -0.30163205 -0.768174
000290 f3 25 d6 be ea b0 21 3c e7 72 b2 3e 71 fb 5b be
       -0.41825828 0.00986884 0.3485329 -0.21482636
0002a0 ae 5b 20 3e dd 5b a8 3e 6b 35 2e 3e 86 23 de 3e
       0.15659973 0.32882586 0.17012565 0.43386477
0002b0 b0 01 95 3e a1 78 04 3d ba 79 78 3e 73 54 c7 3c
       0.2910285 0.032341603 0.24265185 0.02433226
0002c0 bc ca 77 3e b1 99 28 3e d6 8f c2 be 40 08 3c 3b
       0.24198431 0.16464879 -0.38000363 0.002869144
0002d0 43 c9 09 3e 11 d1 5c bd 8a bb c2 3e 0a 94 b0 be
       0.13455682 -0.05391032 0.38033706 -0.34487945
0002e0 9b ac e5 3e 85 2b 8a be bc e2 fe be a4 a3 8a be
       0.4485825 -0.26986328 -0.4978236 -0.27077973
0002f0 1c 7c 99 3e 1d 82 9c 3d 73 80 7c 3e 63 d7 ef 3e
       0.299775 0.07642005 0.24658374 0.46844015
000300 1e 5b d9 3d 03 47 87 be 14 8d 91 bd 53 57 97 be
       0.10613082 -0.26421365 -0.07106987 -0.2955881
000310 b0 4e 03 be d2 74 13 3e da ac 50 be 41 3d 5b 3d
       -0.12822986 0.14400032 -0.20378438 0.053525213
000320 55 d2 65 3e 91 21 82 3e f2 dd 76 3e e8 e7 d9 3e
       0.22443517 0.25416234 0.24108103 0.42559743
000330 14 c9 4b 3e 0a b2 03 be 76 04 d0 be 87 c6 fb 3d
       0.19900924 -0.12860885 -0.40628403 0.122937255
000340 a9 00 c1 3c 8a c4 33 3e 64 18 af be 2b f0 ba 3e
       0.023559885 0.17555442 -0.34198296 0.3651136
000350 4e 3b 36 3e 72 bc e2 3d c2 d4 82 be a8 09 e4 be
       0.1779606 0.11071099 -0.25552946 -0.44538617
000360 c6 b9 c3 bd 35 26 ec be e0 1e 20 3e 4a c4 35 bc
       -0.09556918 -0.461229 0.15636778 -0.011094162
000370 9f 37 a1 bb b7 01 8d 3e f0 69 02 be f0 9c 35 3e
       -0.0049199606 0.2754037 -0.12735724 0.17735648
000380 b4 73 7f be 17 6e fd 3e 8c 2f 07 3e f5 1c 1b bf
       -0.24946481 0.49498054 0.13201731 -0.6059106
000390 b4 35 0e bd e1 b2 b9 3e 30 70 09 3f 4a a8 44 be
       -0.034719184 0.36269286 0.5368681 -0.19204822
0003a0 c5 4c 35 bf 72 51 94 be f5 15 bf be 75 7a bb bd
       -0.70820266 -0.28968388 -0.3732144 -0.09154216
0003b0 44 88 82 3e e2 33 90 3e 9c 8c 79 bb 23 a1 3a 3d
       0.25494587 0.28164583 -0.0038078194 0.04556383
0003c0 be 1a 25 be 89 57 d9 bd 9e ef 7a bd 81 67 c3 be
       -0.16123483 -0.10612399 -0.061263673 -0.38164905
0003d0 aa d5 b3 3e fe 58 e2 3e 08 82 a0 bd 9e cc 24 3d
       0.3512395 0.4420852 -0.078373015 0.0402342
0003e0 14 2d e3 3e ff 94 bc 3e c5 a5 45 3d f9 c3 53 3e
       0.4437033 0.36832425 0.048253793 0.20680226
0003f0 9d 75 76 3d db c0 e4 be 22 b3 03 bf 4f 26 f6 3e
       0.06017076 -0.44678387 -0.5144521 0.48076102

variance.0.bias f4 [128]
000000 c6 42 40 be c2 36 e5 3c 3e 43 cd bd e9 6a c6 bb
       -0.18775472 0.027980212 -0.10022591 -0.006055225
000010 a4 a2 65 3e 32 86 a0 bc b1 58 c6 3e 2a 41 8f be
       0.22425324 -0.01959524 0.3873954 -0.27979404
000020 a5 3c 51 bd 49 da 91 bc aa 16 74 3e 85 32 a0 3e
       -0.051083226 -0.017804282 0.2383677 0.31288543
000030 7c 4a b2 be ef 44 82 3e 29 17 bc 3c 64 fb 0c 3c
       -0.34822452 0.25443217 0.022960262 0.008604858
000040 96 6f ac 3e 36 d2 37 3e 51 7d 19 be b8 41 3f 3e
       0.33678883 0.17951283 -0.1498921 0.18677413
000050 75 b1 97 3c 0a fa 90 bd 1b 0d d6 3d 2c 6e 92 ba
       0.018517235 -0.07078941 0.104517184 -0.001117175
000060 73 8f ec bd f9 52 9f bb aa 73 47 3e 21 b1 e4 3d
       -0.11550798 -0.004862186 0.19477716 0.11166597
000070 5d d1 88 bd 58 41 d8 bd fd e8 8a be fd b0 5a be
       -0.06680558 -0.10559338 -0.2713088 -0.21356578
000080 e5 c4 2b be 9a 2e 0c bc 63 3d 1f 3e 19 80 11 3f
       -0.16774328 -0.008556033 0.15550761 0.56836087
000090 05 3f 9a bd 6a 27 30 3e 48 46 0d be ab 72 95 bb
       -0.07531551 0.17202535 -0.13796341 -0.0045607886
0000a0 ef e3 06 3e 18 a9 c5 3e 7f 56 4d be 06 8e 4a 3e
       0.13172887 0.3860557 -0.20052527 0.1978074
0000b0 09 2f 55 bd c7 04 e4 bb 7d 51 8d 3e 15 f3 45 bd
       -0.05204681 -0.0069585773 0.27601233 -0.048327524
0000c0 dd 90 49 3e b0 19 14 be 0a 9b 8f 3e 8b 66 00 3e
       0.19684167 -0.14462924 0.28047973 0.12539117
0000d0 6d 1c 71 be de 9f 09 bb b6 95 20 3e 97 15 96 3e
       -0.23546 -0.002099983 0.1568211 0.29313347
0000e0 90 1c 1a 3d 8d 91 38 3e 95 b3 b5 3e 71 65 f9 3c
       0.037624896 0.18024273 0.35488573 0.030443879
0000f0 21 0e 6d 3d d0 42 87 be 4e e9 15 bd 97 f0 8c 3d
       0.057874803 -0.2641816 -0.03659945 0.06881826
000100 48 7e d5 3d 7d 90 45 be 7e 5e c5 3e 4a df 81 3e
       0.10424477 -0.19293399 0.38548654 0.2536567
000110 03 f4 7f bc e0 72 6a 3e 11 d9 f5 bd a7 fc 63 bd
       -0.015622142 0.22895384 -0.12004293 -0.05566087
000120 6d 0d ac bd 48 47 9b bd ee ff 9a bd d8 a1 04 3e
       -0.08400998 -0.07581955 -0.07568346 0.12952363
000130 02 07 ec 3e 44 19 a9 3e d2 db e6 3d ad 61 80 bd
       0.46099097 0.3302709 0.11272396 -0.0626863
000140 30 1a a0 be a6 29 5c bd ce e7 89 be 48 3e 61 3d
       -0.3126998 -0.053750657 -0.26934665 0.054991037
000150 9d db 3b 3e 9f 40 08 3e 28 08 37 bb 9b 38 8e be
       0.18345495 0.13305901 -0.0027928445 -0.27777562
000160 c5 68 63 3e 63 4f a9 3d b7 7f 4b 3e d8 62 8b 3e
       0.22207935 0.08267095 0.19872938 0.2722385
000170 41 f6 4b 3e e5 1c 16 3e d4 0e f6 3d de 56 88 bd
       0.19918157 0.1465946 0.12014547 -0.066571936
000180 87 0d 4a 3e 4a df 81 be a8 bf c3 bd fb e0 ae 3d
       0.19731723 -0.2536567 -0.0955804 0.08539005
000190 b4 37 62 3e 4f 5c 6f 3e 24 40 22 be 90 15 a6 be
       0.22091562 0.23375057 -0.1584478 -0.32438326
0001a0 1c 3d 87 3d 28 f8 b4 3e e4 87 08 3e 16 a9 dd bd
       0.066034526 0.35345578 0.13333088 -0.10823266
0001b0 b9 e8 8c 3e 0a ec cd bd 11 96 27 3d 7e 77 d4 3d
       0.27521303 -0.100547865 0.0409146 0.10374354
0001c0 7d b7 eb 3d d1 f7 fd 3d 5e d7 ef 3c a0 e8 9a 3e
       0.11509607 0.12400783 0.0292775 0.30255604
0001d0 94 9d 4d bd 68 81 a9 be 7e 2e 44 bd d5 5c 92 3e
       -0.050199106 -0.33106542 -0.0478959 0.2858645
0001e0 f4 7b 81 3d 9e 25 41 3e f8 b3 83 3e 2d 96 79 3e
       0.0632247 0.18862006 0.25723243 0.24373694
0001f0 7c c1 99 3e c8 8c b9 bd 0f 8f 89 be 34 96 4d 3e
       0.3003043 -0.09060055 -0.26866958 0.20076829

variance.2.weight f4 [2, 128]
000000 8c 5f 73 3c b7 f0 34 3e c8 5a 0b 3f a9 fa d2 bd
       0.014854323 0.1766995 0.54435396 -0.10301716
000010 ec 5b 80 3e ff 4a 55 3e 1d 1b 02 3e 3e a2 a2 bd
       0.2507013 0.2082939 0.12705655 -0.079411015
000020 d4 e7 7e 3d 78 28 df 3d 75 04 50 be 54 e4 a2 bd
       0.062232807 0.10896391 -0.203142 -0.079537064
000030 27 2d 1f 3e 89 ee d2 3e 4c 76 40 be 3b 08 03 3e
       0.15544568 0.41197613 -0.18795127 0.12796108
000040 c3 cd e6 bd 43 d8 57 be 7f ea 18 3e ed 89 1b 3f
       -0.11269715 -0.21078591 0.14933203 0.60757333
000050 31 47 70 be 17 c3 69 bc d4 21 e1 bd 01 4e 0b be
       -0.23464657 -0.014267704 -0.1099278 -0.13603975
000060 a1 9f 20 3e 39 23 26 3e 9e a0 31 bd 45 c7 8d 3e
       0.15685894 0.16224374 -0.043366067 0.27691093
000070 aa 71 8d be 46 d5 aa 3e 5d 9b 0d 3e 53 2d 02 3e
       -0.2762578 0.3336584 0.13828798 0.12712602
000080 e8 df b4 3d 1c cb 3e 3d f1 8a 5e be 79 bc f7 3e
       0.08831769 0.04658042 -0.2173269 0.4838598
000090 ce 7d ab be 3e 7f 39 be 84 58 21 3e 27 cf 8f be
       -0.3349442 -0.18114945 0.15756422 -0.28087732
0000a0 4a a9 36 3e 49 89 48 be bf 8e 59 bd 39 c0 7d be
       0.17838016 -0.1958362 -0.05311465 -0.24780358
0000b0 08 08 00 3f 3f 8a dd 3d 52 c6 3a 3e ae 06 89 be
       0.50012255 0.10817384 0.18239716 -0.2676291
0000c0 d6 3b 0c 3f a5 2a 77 be 4f 3f 25 3e f7 a0 83 3e
       0.547788 -0.24137361 0.16137432 0.25708744
0000d0 0a 9e 8d 3e 00 d8 c5 3d 1c aa 45 3e 5d 4e 3f bd
       0.27659637 0.09660339 0.19303173 -0.046705592
0000e0 fb 8a aa 3e a7 2a 57 be d9 c8 9f 3e 5d 77 63 be
       0.3330916 -0.21012364 0.31207922 -0.22213502
0000f0 9a f4 a0 be 34 e4 bb 3e 46 87 da bc 15 58 9e bd
       -0.31436616 0.36697543 -0.026675832 -0.07731644
000100 fd a7 ff 3e f4 ce ae 3d ae 9c 29 be 40 40 10 be
       0.49932852 0.08535567 -0.16563675 -0.1408701
000110 8a 90 d1 3e 37 fb 43 3e e2 8f 5b 3c 5c d0 10 3e
       0.40930587 0.191388 0.013401004 0.14141983
000120 39 2e 45 3e c4 8c 85 3d 1b cb 24 3e 1d cd ec 3d
       0.19255914 0.065209895 0.16093104 0.1156256
000130 cf 6d 6f 3e f1 41 88 bd 78 6f bc bd c5 16 0e bc
       0.23381732 -0.06653202 -0.092009485 -0.008672421
000140 ee 1e 40 3e d8 53 c6 3c d1 22 c0 be 86 c6 83 3e
       0.18761799 0.024209902 -0.37526563 0.257374
000150 a2 8d 7d 3e 62 9f 63 be 5c 1f b0 be 0e 3d 04 3e
       0.2476106 -0.22228768 -0.34398925 0.12913916
000160 7f aa 6c be 0c 77 ed 3e b6 af b9 bc 27 2c a9 bd
       -0.23111914 0.46379888 -0.022666793 -0.082603745
000170 98 a9 3e be b0 e0 18 3d a4 44 8c be fd 36 1e bd
       -0.18619382 0.037323654 -0.2739612 -0.03862666
000180 83 86 bd 3e cb d1 b6 3e c8 02 ed bd 06 78 e8 3d
       0.37016687 0.35706934 -0.11572796 0.11351018
000190 4f 68 58 3e 7c 6f 28 3c 47 da a0 3d 07 2e 98 3d
       0.2113354 0.010280486 0.07854133 0.07430654
0001a0 f5 5f a4 be ce b1 ec 3e 5f 85 c5 3c aa 45 db 3e
       -0.3210446 0.46229404 0.024111448 0.42826587
0001b0 52 99 14 bd df fc 0e be fc d5 8e 3d 82 26 2f 3e
       -0.03627903 -0.1396365 0.06974408 0.17104533
0001c0 2c b1 64 be 39 a0 6c be 36 9e 92 be cb af 5a be
       -0.2233321 -0.23107995 -0.2863633 -0.21356122
0001d0 7e a7 f7 bd 5d 8e 37 3e f0 f3 74 3e 4b a6 8f 3e
       -0.120924935 0.17925401 0.2392118 0.2805656
0001e0 c0 66 3f 3f 46 f3 82 be eb fb a6 3e cb 7a 2d be
       0.7476616 -0.25576228 0.32614073 -0.16941373
0001f0 5d 3e dc 3e 1e 67 7d 3e 8c 5c 0f 3d c3 2e cb 3e
       0.4301633 0.24746367 0.03500037 0.39684114
000200 3d c6 02 3e a0 93 4a 3e e5 3a 82 3e 98 b1 70 3d
       0.12770934 0.19782877 0.25435558 0.058763117
000210 d8 51 bf 3e ea c9 88 bc 09 21 ce 3e bb 55 0b 3d
       0.3736713 -0.016697843 0.4025958 0.034017306
000220 22 05 72 3d 56 92 b4 bd 84 a3 4e bd cd ad fa bc
       0.059086926 -0.08816974 -0.05044891 -0.030600453
000230 0e ce 29 bd de 92 f7 3e 6e 2e af be b1 fa 7d bd
       -0.041456275 0.48354238 -0.3421511 -0.062006656
000240 e8 82 cf 38 f8 e0 48 be b0 2e da 3e 77 e8 8d 3e
       9.8949124e-05 -0.19617069 0.42613745 0.2771642
000250 c0 bd 54 be ba 10 1f 3e 3a c8 03 3d 95 91 de be
       -0.20775509 0.15533724 0.032173373 -0.43470445
000260 81 e1 aa 3d b0 64 a8 bb f9 8d 09 3e 89 bb f7 bd
       0.08343793 -0.005138956 0.13433065 -0.12096316
000270 c2 b0 4c be 47 ef 8e bc be 5f c6 3d d9 e9 5c be
       -0.19989303 -0.01744808 0.0968623 -0.21573581
000280 af 89 85 3c cd d4 67 bd 05 f8 92 bd 71 5a e2 3e
       0.016301004 -0.056599427 -0.07176212 0.44209626
000290 1e a8 a9 3e 37 f1 14 be fa af 1e be 41 9c 3c be
       0.33136076 -0.14545141 -0.15496817 -0.18418981
0002a0 9b fb 5c bd f3 f5 c8 bd d1 4e c3 3e 87 78 1e be
       -0.053950887 -0.09812536 0.3814607 -0.15475665
0002b0 73 c4 1a be 07 99 fb 3b ac 6f 6f 3e 6d 17 30 be
       -0.15114002 0.0076781544 0.23382443 -0.17196436
0002c0 4c 5d 85 3e 1f 2c 51 be 26 3c d3 3c cb ab 2e 3e
       0.26047742 -0.20426987 0.025785517 0.17057721
0002d0 b9 ee 8e 3e 1e 0d 22 3e 2d f1 72 3e 35 92 ab bd
       0.27916506 0.15825316 0.23724814 -0.08377496
0002e0 db 81 41 be 70 8b a5 bd 95 60 57 be b6 55 f0 bd
       -0.18897192 -0.08083236 -0.21032937 -0.11735098
0002f0 65 4e 9f be 06 10 bb 3c 01 0f 5e 3e be b0 33 3d
       -0.31114498 0.022834789 0.21685411 0.043869726
000300 d5 0e b1 3e 09 44 64 3d 46 85 d4 bd 71 c2 b2 bd
       0.34581628 0.055728946 -0.103769824 -0.08728493
000310 19 6c 36 3e 30 e2 c8 3c 14 17 e8 3d ff b9 66 3d
       0.17814673 0.024521917 0.11332527 0.056329723
000320 be 3a 90 3d fd a7 ad 3e e8 e0 1c bc e2 ec 0e be
       0.07042454 0.33917227 -0.009575106 -0.13957551
000330 29 b7 49 3e ec 7e 8f 3d a6 ea 3e be 17 b5 b1 3d
       0.19698776 0.0700663 -0.18644199 0.08677118
000340 d8 48 65 3b 67 32 10 3e f6 cb 59 be 93 fd 4d 3e
       0.0034986045 0.14081727 -0.21269211 0.20116262
000350 e0 e7 73 3e 76 39 2e be c6 49 77 be e5 39 95 3e
       0.23818922 -0.17014107 -0.24149236 0.29145733
000360 97 b2 50 be f4 3e 66 bd 3f 9c 9f be f8 9c 26 be
       -0.20380627 -0.05621238 -0.31173894 -0.16270816
000370 81 16 17 be 47 06 ac 3d bd 3b a9 bd b8 01 b4 3e
       -0.14754678 0.08399635 -0.08263347 0.3515756
000380 0a 2d 9f 3e a5 a0 60 3c 8f bd 92 3e 56 0b 96 3e
       0.3108905 0.013710176 0.28660247 0.29305524
000390 41 e0 4d 3e 20 63 22 3d 01 48 7b bc b7 09 54 bd
       0.20105077 0.039645314 -0.015336991 -0.051767077
0003a0 50 60 59 be 41 91 b3 3e 49 f3 d9 be f2 1d a4 bc
       -0.21228147 0.35071757 -0.42568424 -0.02003381
0003b0 c5 79 b6 be de e3 f4 bd 8b 6b 82 be f9 a9 4a 3e
       -0.35639778 -0.11957525 -0.25472674 0.19791402
0003c0 08 44 b1 be f6 43 4d be ae 84 ae be 03 71 34 be
       -0.34622216 -0.20045456 -0.34085602 -0.17621236
0003d0 b8 84 90 be e7 b7 b0 3e 77 cb 9d bd ea 84 78 3e
       -0.28226256 0.34515306 -0.077048235 0.24269453
0003e0 54 1e 9d 3e 85 77 bc bd e8 03 9e 3e f6 e7 fe bc
       0.306872 -0.09202484 0.30862355 -0.031116467
0003f0 d7 92 a6 3e da 41 8c 3e f0 1e e9 3c d5 15 68 3e
       0.32533905 0.2739399 0.028457135 0.22664578

variance.2.bias f4 [2]
000000 ce 4d 22 bd da 92 ec bb
       -0.03962498 -0.0072196545
