lunar_landing_continuous_ppo/train1/reward_-3.pth (torch, 15114 bytes, 8 tensors)

log_std f4 [1, 2]
00000000: c237 aabc 343f cebd
-0.02077854 -0.10070649

weight f4 [128, 8]
00000000: 29e2 a03e 761b a1bc 0a7c d33e 501a 0c3d
00000010: 5459 5ebf 7aba 1ebf a4a5 2cbe acc7 19be
00000020: d120 123f d89c 70bf c7a8 27be 8b03 dfbe
00000030: 87a4 53bf 4de2 86bf 3012 b1be 2289 e3be
00000040: 7793 063f 0683 20bf 8f50 e3bd 3a62 77be
00000050: d12e 5abf 1b6a 86bf 2d7c 18be b641 eabe
00000060: 7185 5e3e c3c6 66be 85d8 b03e 2497 823e
00000070: e3bd 00bf 6c07 4dbf 3213 a0be 7b75 b8be
00000080: 4982 c43e 8e4d b13d fc63 f93e eb60 a3be
00000090: d9da d6be 9248 2fbf 18ca f83d 91f0 a7be
000000a0: 83ff 4d3e 416f 24bf 5cc6 143e 7bca 42bf
000000b0: dff3 4fbf c1f5 49bf 84de 79be 42d6 46be
000000c0: 9b72 463f ee84 82be c59f f7bd 0aee 7bbe
000000d0: cb10 33bf 2b61 f0be dbdf 0d3f 2ffb 263e
000000e0: 1818 223f d08b 7ebe 1b0c 7ebe a009 843e
000000f0: 45aa 57bf 675f 55bf d1d8 aebe e7fc 29be
00000100: 6c6a 143f a4a9 64bf 4096 0b3e 8ccd 17bf
00000110: 4b05 0fbf 8870 9dbe a024 7d3e b175 99be
00000120: 769a 1c3f d4f3 07bf 230c ee3e ea83 8abe
00000130: c2f5 63bf 5562 68bf 41aa c7bd fa23 1d3e
00000140: 42ce 123f a11a 95bf e752 a2be 26fa dbbe
00000150: 4f18 d8be 51c8 c2bd b376 f23e 65c9 843e
00000160: 53da 0c3f b135 843d 922f 933e 0b2f df3e
00000170: cc11 78bf c384 66bf 0058 3fbd e8c6 923d
00000180: afdf 863a 0f30 20bf 268a 1fbf 6ded c4be
00000190: 0ed1 2dbf b290 10bf c5c7 6b3e f8c8 1cbe
000001a0: d092 3a3f cafc 15be 0c5e 5bbe 0125 883d
000001b0: c382 4dbf 40cf 20bf 2dfa e9bc f2d8 f63d
000001c0: 3966 ce3e c126 57bf 2b75 eebd 258a 22bf
000001d0: 3da2 2dbf 7e6e 85bf 0735 37be 21e6 f2be
000001e0: 08ce b63e 497e abbe c09b c23d e93b 683e
000001f0: 1332 b8be 10cd 64bd d3b2 e53e 7552 463f
00000200: ae29 483f 3c73 3fbc 2cbf b83e d47c 17be
00000210: 04e5 36bf 98c1 0cbf 13ea e73e c776 c13d
00000220: 4b93 503f 7c44 75be c95f c8be 1826 ac3e
00000230: 60a3 e6be 3493 5cbf 5e9f 45bd 1e1d 923d
00000240: 203b 493f 19a9 0f3e d11c ba3e 17eb e13e
00000250: 8884 d5be 995b a4be 2e66 eb3e bd15 d6bd
00000260: f2a4 9bbf 77d9 8cbe 9024 b6bf e812 2d3f
00000270: 4f63 503d 86e4 a4be ce3f 1f3e 22bc 2f3f
00000280: dcbf acbf 5e78 dc3b dc8a 45bf 018a a93f
00000290: 061b 883f 41cc 363f 8743 33bf 75cd 80be
000002a0: 06a5 333f d4cf e9be aac2 24bc 3137 11be
000002b0: 591c 65bf 8d2a c5be 9aaf 953e 6abd 17be
000002c0: a4f5 833d 6f8f 49be ea2e 493e f56a 853e
000002d0: 2000 1bbf e567 e4be e7a5 1e3f f309 ed3e
000002e0: 7f79 5c3e 81ea 51bf 7d7d b1be 239c 06be
000002f0: 17fd 64bf b054 65bf 77bc 46be 53e2 67be
00000300: d9e1 df3d 3757 d3be 5333 233e 0fe8 c1be
00000310: d6a5 17bf cbff 71be 83d8 343f a917 97bd
00000320: 2a13 ba3e 7791 56bf 0012 fbbd 5d6d 05bf
00000330: 4bfd 5dbf 6c8e 29bf c094 2c3f 0434 91be
00000340: c6cf 0c3f 02ba 03bf e8a3 103e 7068 93be
00000350: 20c4 09bf 5f59 7bbe 44f5 443f 42a2 36be
00000360: 39db 5abf ad5f aabf 21f2 8ebf c1bf 5fbe
00000370: 2770 7e3e be17 9b3e 408b 323f 113e d43e
00000380: 2920 6ebf 0dd5 38bf f79f 26bf 9502 e4be
00000390: 72b4 a03f e806 953f dbc1 4fbe d3dd 223f
000003a0: e273 6a3f 1f2e 01bf 73be 213b 9ea9 2e3e
000003b0: f440 1cbf 04bd dcbe 3edd 153f 883b 073c
000003c0: e7c9 ef3e 1c8a e7bd 9aec 9d3e f301 3dbc
000003d0: 7a81 68bf 89a6 8fbe a535 a03e 08e3 0b3e
000003e0: 7930 453f b3b4 57bc cb88 0b3f 9c82 993d
000003f0: 47a2 04bf 2bb6 5fbf f5a3 213f b9c5 44be
0.31422547 -0.019666415 0.41305572 0.03420478 -0.86855054 -0.6200329 -0.16860062 -0.15017575
0.57081324 -0.93989325 -0.16372977 -0.4355739 -0.82672924 -1.0537812 -0.34584188 -0.44440562
0.52568763 -0.62699926 -0.1109935 -0.24158564 -0.85227686 -1.0501131 -0.1489112 -0.45753258
0.21730591 -0.22536759 0.3454019 0.25505936 -0.50289744 -0.8008945 -0.31264645 -0.3602713
0.3838065 0.086573705 0.48709095 -0.3190988 -0.41963843 -0.6847011 0.12147921 -0.32800725
0.20117001 -0.6423226 0.14528793 -0.7609021 -0.8123149 -0.78890616 -0.24401289 -0.1941767
0.77518624 -0.25492042 -0.120910205 -0.24602523 -0.699475 -0.46949133 0.554197 0.16306756
0.63318014 -0.24858022 -0.24809305 0.25788593 -0.84244186 -0.833487 -0.34149793 -0.16600381
0.57974887 -0.8932135 0.13631535 -0.59298015 -0.5586745 -0.30749917 0.24721003 -0.29972604
0.6117319 -0.5310643 0.46493635 -0.27053767 -0.8904687 -0.9077504 -0.0974927 0.15345755
0.57345974 -1.1648751 -0.31703874 -0.42964286 -0.42206046 -0.095108636 0.47356185 0.25934902
0.55020636 0.06455553 0.2874723 0.43590578 -0.96902156 -0.9004633 -0.046714783 0.071668446
0.0010290052 -0.6257333 -0.6232017 -0.38462391 -0.6789712 -0.5647079 0.23025425 -0.15311038
0.7288027 -0.14647213 -0.21422595 0.06647683 -0.8027765 -0.6281624 -0.028561676 0.12053098
0.40312365 -0.8404351 -0.11643442 -0.6349204 -0.6782568 -1.0424345 -0.17891322 -0.474412
0.35704064 -0.33494785 0.09502363 0.22679104 -0.35975704 -0.055859625 0.44862995 0.7746957
0.781886 -0.011685189 0.36083353 -0.14793712 -0.714432 -0.549829 0.45295772 0.09446483
0.8147475 -0.23951906 -0.39135578 0.33622813 -0.4504652 -0.86162114 -0.048247688 0.0713446
0.7860584 0.1402935 0.3635011 0.44124672 -0.41702676 -0.32101133 0.45976394 -0.10453365
-1.2159712 -0.27509663 -1.4229908 0.67606974 0.050875958 -0.322056 0.15551683 0.6864644
-1.3496051 0.006728216 -0.7716501 1.324524 1.0633247 0.71405417 -0.70024914 -0.2515675
0.7017368 -0.45666373 -0.010056177 -0.1418121 -0.8949638 -0.38509026 0.29235536 -0.1481835
0.064433366 -0.19683622 0.19646803 0.26058164 -0.60547066 -0.44610515 0.61971897 0.46296653
0.21530722 -0.8199845 -0.34666052 -0.13145499 -0.89448684 -0.8958235 -0.19407831 -0.2264493
0.10931749 -0.41277477 0.15937547 -0.3787236 -0.5923742 -0.23632734 0.7064287 -0.0737756
0.36342746 -0.8381571 -0.122592926 -0.5212 -0.8671462 -0.66232944 0.67414474 -0.28359997
0.5500454 -0.514557 0.14125025 -0.28790617 -0.5381489 -0.24545811 0.76936746 -0.17835334
-0.8549076 -1.3310448 -1.1167642 -0.21850492 0.2484747 0.3029155 0.6974373 0.41453603
-0.9301782 -0.7220009 -0.65087837 -0.4453322 1.2555068 1.1642733 -0.20288794 0.63619727
0.91583073 -0.50461 0.0024680167 0.17056891 -0.6103661 -0.43112957 0.58540714 0.008253939
0.46833727 -0.11305639 0.30844575 -0.011536109 -0.90822566 -0.28056744 0.31290928 0.13660824
0.7702709 -0.013165641 0.54505605 0.07495615 -0.51810116 -0.8738734 0.63140804 -0.1921605

bias f4 [128]
00000000: 9079 bebc b633 bc3e e919 7d3e 24ec f03e
00000010: 388a 043f 1ff1 6abb 6869 0d3f 3b27 9b3e
00000020: 4785 983e 97cc c53d b340 5b3f 71ee 763d
00000030: 563c 2f3e d2b8 403e e43e 743e fd85 ca3e
00000040: 1575 6bbe 3682 d63e 7a60 82bc 1aeb d93e
00000050: eda8 133f 0897 f43e d1b0 043f 4050 e33e
00000060: 2a4b 053f 82fe aa3e f85a fc3e 81e0 383f
00000070: 10d5 703e 4b61 033f f734 063d 9311 f33e
00000080: a623 633f b6fa 623e 3e83 623e 6350 bb3d
00000090: 792a 083d 1e0d 4e3e d5b9 403d cd99 3a3e
000000a0: dd28 c13e 1cbd 9a3e cfb7 5c3c 1596 4f3f
000000b0: b3f6 353e 6257 b33d cf4f 8a3d 1544 9a3f
000000c0: d4f3 483f b817 353e 8fcc 263f 9b1d 243f
000000d0: f9d3 003f 721e 8a3e bf62 7e3e b0e4 903e
000000e0: 7795 a93e 15db a03e 6e98 0d3f ed3f 963e
000000f0: 05bc 113f 537c ca3e 445a 073d 2070 b73d
00000100: 72f7 a43e ce03 063f e4d3 863e c9ee ab3e
00000110: 7aaf 873e 1eaf 673c 2cbd 5f3d 99b5 d63e
00000120: 7e02 aa3e 30ad 3a3e fc19 0f3f 2d94 ff3d
00000130: 98b8 583e 6d8c 163f 3312 003f cf89 953e
00000140: 2c9c 893d fa0f f53e c2d6 8f3d 3f04 1cbd
00000150: 85dd 163e 10e4 7d3e 9a81 573e cfb3 993e
00000160: b4d2 2d3f 3594 1c3f ba44 df3e c79a 5f3f
00000170: 48f5 343e 6a0a 153f b18d 4e3d ee53 143e
00000180: 26be 073f a24e a73e 3ece 113f 0dfb 173e
00000190: 975c a93d c913 ba3e 3e14 853f 33b5 9a3e
000001a0: 264a ff3e c84e d73e 6e1d ea3e 28e8 223f
000001b0: c83a 9f3e 2b3e 2f3d 94f7 ab3d e265 3a3f
000001c0: b205 5f3e 114a eb3d 7a4b 363e a615 1c3e
000001d0: 8d94 603e c758 abbe 8c9b 0b3d 1aa3 fd3e
000001e0: 04bc a23e d7c4 16bc 4559 4e3d 88a2 073f
000001f0: b6f7 d23e 3404 083f 5bfa 4a3e 7ef8 3e3f
-0.023251325 0.36758202 0.24716915 0.4705516 0.51773405 -0.0035849286 0.5523896 0.30303368
0.29789183 0.09658163 0.856456 0.06028599 0.1711286 0.18820503 0.23852116 0.3955535
-0.22993882 0.41896218 -0.015915144 0.4256218 0.57679635 0.47771478 0.518323 0.44397163
0.52067816 0.333973 0.49288154 0.72217566 0.23518777 0.5132033 0.032765355 0.47474346
0.8872627 0.22165951 0.22120377 0.09146192 0.03324363 0.20122191 0.047052223 0.18222733
0.3772649 0.30222404 0.013471558 0.8108838 0.1776989 0.08756901 0.067535035 1.2052027
0.7849705 0.17684829 0.6515588 0.64107674 0.50323445 0.26976353 0.24842356 0.28299475
0.33121845 0.31417146 0.55310714 0.29345647 0.5692752 0.39547977 0.03304507 0.08956933
0.32220036 0.52349555 0.26333535 0.33580616 0.26501065 0.014140872 0.054623768 0.41935423
0.33205026 0.18230128 0.55899024 0.12479434 0.21164167 0.5880802 0.5002777 0.29206702
0.067192405 0.47863752 0.07023384 -0.038089987 0.1473294 0.2479403 0.21045533 0.30019996
0.6789963 0.61163646 0.43607122 0.87345546 0.17671692 0.58219016 0.050428096 0.14485142
0.5302452 0.3267718 0.56955326 0.14841862 0.08269613 0.3634322 1.0396802 0.3021637
0.49861258 0.42052293 0.45725578 0.6363549 0.31099534 0.042783897 0.08396831 0.7281171
0.21779516 0.114887364 0.1780223 0.15242633 0.21931668 -0.3346617 0.034083888 0.495385
0.3178407 -0.009202204 0.050378103 0.5298238 0.41204613 0.53131413 0.19822066 0.7459792

weight f4 [1, 128]
00000000: 998d cfbe 4527 0cbf 14e3 41bf 8479 cdbe
00000010: 10f1 62be b494 1dbf ca5c 90be 4d22 1ebf
00000020: fe02 e6be 0646 fdbe be14 52bf 4fe8 eabe
00000030: 6e3d 46bf 1af9 10bf ff9a 17bf e007 bebe
00000040: 6f47 c3be a399 a9be cd37 dcbe 1b00 2fbf
00000050: f7c8 c3bf ed29 b6be d45f abbe a2cc 25bf
00000060: 45d5 80be 07a8 29bf 7491 c0be 8e04 93bf
00000070: 8fed abbf 8b7b edbe 1e9c aebe b1b2 75be
00000080: 717f a3bf 8a3e 10bf c563 d1be f936 1dbf
00000090: 5713 42bf 7964 c1be 9a89 a9be 89ff 14bf
000000a0: b7cf 9bbf 7592 2fbf 15e3 8ebf 5e91 6dbf
000000b0: cea5 b8be f97f cebe 4342 20bf e370 f8bf
000000c0: dcb2 a4bf 1a5a e7be dbf9 bbbe 6ef2 debf
000000d0: 2616 9bbe e40a dabe 1a28 58be e879 1dbf
000000e0: b591 89be 0b1f f6be 3bc8 7dbe 9a9c a8bf
000000f0: 4f76 e4be c5bd 79be ac4a c2be 76e1 03bf
00000100: b560 7dbf c2ca b2bf be10 25bf f597 f9be
00000110: dff5 dabe 738c dcbe 3f39 18bf 1070 07bf
00000120: 9f07 80be 855a d1be 08f6 a6be 0ea1 1cbf
00000130: c81f 19bf adb5 51be d5e2 0bbf cdb8 d6be
00000140: 9c66 1740 c93f 80bf acb8 abbf c248 c4be
00000150: 96b7 29bf 6982 87be 009c b1bf 721a 2ebf
00000160: 1398 9cbf 75d0 8ebe 3c90 46be ed42 6fbf
00000170: abf2 b4bf 9252 6ebe 00a1 e7be 9103 7bbf
00000180: 8685 85bf ce03 f0be 68f5 d3be 0efd a7be
00000190: 5804 a4bf 1d3e e8be 1da6 7ebf 1661 0fbf
000001a0: 7266 08bf 983d 65be d101 13bf b8ab 8bbe
000001b0: 5e40 07bf 8b8f 97bf 7393 30bf d6b4 46bf
000001c0: 9a3f 98bf 6ab7 45bf 5147 dcbe 6f94 2bbf
000001d0: 6043 16bf 23c0 abbd 6090 06bf 8cf8 99be
000001e0: 6107 abbe ea1e 5ebf afdd 0abf b230 ddbf
000001f0: f41f 84be c3a2 80be a1db 4dbf 9a29 a8bf
-0.40537718 -0.5474742 -0.7573712 -0.40131772 -0.2216227 -0.6155503 -0.28195792 -0.6177109
-0.44924158 -0.49467486 -0.820629 -0.45880362 -0.77437484 -0.566301 -0.5922088 -0.37115383
-0.38140437 -0.33125028 -0.43011323 -0.68359536 -1.5295705 -0.35578862 -0.3347155 -0.6476537
-0.25162712 -0.66272014 -0.37610972 -1.1485765 -1.3431872 -0.46383318 -0.34103483 -0.23993947
-1.2773267 -0.5634543 -0.4089643 -0.61412007 -0.7581076 -0.37771967 -0.33112794 -0.58202416
-1.2172765 -0.6858285 -1.116305 -0.9279994 -0.36064 -0.4033201 -0.6260111 -1.940945
-1.2867084 -0.4518593 -0.36714062 -1.7417734 -0.30290335 -0.42586434 -0.21109048 -0.6151414
-0.26868978 -0.4807056 -0.24783413 -1.3172791 -0.44621512 -0.24388798 -0.37947595 -0.515159
-0.9897569 -1.3968127 -0.6447867 -0.48748747 -0.4276571 -0.43075904 -0.5946235 -0.5290537
-0.25005814 -0.40889373 -0.32609582 -0.6118325 -0.5981412 -0.2047946 -0.54642993 -0.41937867
2.3656378 -1.0019466 -1.3415732 -0.3833676 -0.66295755 -0.26466683 -1.3875732 -0.680091
-1.2233909 -0.27893415 -0.19390959 -0.93461496 -1.4136556 -0.23273686 -0.4524002 -0.98052317
-1.0431373 -0.46877903 -0.41398168 -0.32810253 -1.2813826 -0.4535989 -0.9947222 -0.56007516
-0.5328132 -0.22386777 -0.57424647 -0.27279449 -0.5283259 -1.1840681 -0.6897499 -0.77619684
-1.189441 -0.7723299 -0.4302316 -0.67023367 -0.58696556 -0.083862565 -0.5256405 -0.3007244
-0.33404067 -0.8676592 -0.5424451 -1.7280486 -0.25805628 -0.25124177 -0.8041325 -1.3137696

weight f4 [128, 8]
00000000: 48f4 873e bbc8 30be ed1c 70bd 9854 eebd
00000010: edc3 143e c9c0 e2be 1665 383c 6e08 e73d
00000020: c83b 0b3e be1d b23e 0f70 d73e b02d 18be
00000030: 9019 09bd 2b45 81bd 0a7c 083e e4de 5e3e
00000040: 2368 3d3e 018c fcbd 0b61 9f3e d3d5 233f
00000050: 2639 e7be 76d5 a63d a4e9 7a3b 6acb 00bf
00000060: cb25 073e 4f2c 823e 9b4b a8be cf67 713e
00000070: d7d1 423f 1f51 9e3d ebfe 27be 5401 73bd
00000080: 40ff ea3c 4bb6 b0bd 99a8 efbe f927 ff3e
00000090: 4ab7 2b3f d02a 073e 2947 173e 01cd 023e
000000a0: aa33 353e 4fda 8abe 65ce 1abe 3457 0e3f
000000b0: b6d0 2a3d db22 84be f2ca b6be ece6 8bbe
000000c0: cd68 553e 4c51 b33c dc48 443e 3efc 343e
000000d0: cdce e33e 0c6a 81be f93e d5be 7a9b e23e
000000e0: dc6f 883e 3e16 debe 9bfd 063e ac57 94be
000000f0: 1e0b b43e 2242 543e 571a 2d3e 29fc 483e
00000100: 3aec c23e dbbe 84be 4c3b 79be 23db 9e3e
00000110: 2468 673e 1e30 fb3c 0331 a03e adc3 02bd
00000120: 618b 9f3c a97d 933e ba4f 38be f981 573c
00000130: a390 123f 7903 073f dc74 ad3d e630 243e
00000140: 2eb2 a7bd 95ed 89be 8595 51be 61d3 84be
00000150: 4f17 483e 8bb4 9dbe 1ebc 893e b4ba 993e
00000160: 0914 84bd 68cc c33e f20a 4fbe 332f a2be
00000170: eea8 b03e 5965 063f 5967 bc3d dc8f c2be
00000180: 7ad6 3c3e 7595 dc3d 2321 30be 0a68 d33d
00000190: 66dd a43d ca83 023f 8d51 51be a5fe f93d
000001a0: e31d 853e ada6 8b3d 7469 00bf eade 5abe
000001b0: ff97 e0be 1b6e 33be db68 d2be 5c67 dfbe
000001c0: 01d7 61be 1b98 16be 4fa6 a4be 9aaa 873e
000001d0: ca1c 17bf 910a d53d cb72 e63e 5ef2 71bd
000001e0: 6ead afbd f24f c9be ba57 123e 213b f3be
000001f0: 3d6a a53e e500 a2bd 4be5 aabd c858 76be
00000200: 63b1 7cbe 3a23 9bbe decb 43bd 1e5d 163f
00000210: 59f6 363e e2fd ffbd 2074 79be 3d85 74bd
00000220: a8be 9fbd d74f 3cbc 463e 9ebe 5f72 f63e
00000230: 1ba1 ba3d 655d 50be fb56 453e be18 933e
00000240: ea50 e73d e0de a5be 1663 64bd 228c 293e
00000250: 03cd 553e a357 ecbd 3e3d 3dbe 6669 823d
00000260: f9a7 c6be c5f0 ea3d 8690 80be ab95 5ebd
00000270: 2b48 5cbe b48b 0fbe 49cb 50be 4edd 81bd
00000280: c088 683d 48f6 603e 2c8f cc3e 19a0 823c
00000290: 9b26 6dbe 42fd 643e 01ad b1be e21f 8b3e
000002a0: b722 9bbd d5f3 ecbd 3874 743e c673 1fbe
000002b0: 429f 98bd 35b4 753e d1f0 25bd 6ef9 983e
000002c0: 44eb b0be 1f69 be3d 448f 45be 58f1 943e
000002d0: 571f 0e3e aca3 54be b371 b2bc d66f 47be
000002e0: 0794 a5be 0a0e 46be 61f3 923d 8c61 d73d
000002f0: 4699 a73e fa3d 32be efbe c43d f9cf 3b3e
00000300: 5c5b 363e 6db9 ae3e e56f b83d 8d3a 2dbe
00000310: 188b 8a3e ae8b a73e a882 2bbe 69dd debe
00000320: 3f87 cabe 7027 50be 218d d8be f836 71be
00000330: e2a2 38be 6f7c 4a3e ddd4 ea3d 981b 8d3e
00000340: 7710 5dbe e2d2 72be a8cd 1e3c 0476 f9bd
00000350: 5240 bd3e 6614 763e fc43 493e bd96 28be
00000360: 5681 b4be 11a4 22be 59a0 f1bc 6e5a 31bd
00000370: a064 e03e 7886 a0be adda 3bbe afcc 723e
00000380: ef9b a4be 78ae 373e 2786 f0be e88e 93be
00000390: 760c 6dbe 9086 88bc 872f 843d ba92 a33e
000003a0: 88ac e83d 26e5 dc3d 7bf4 99bc b6ae e1bd
000003b0: 51b4 1fbe 9369 d3bd 334b 9b3d c4c3 7c3e
000003c0: 82a5 2f3e 7acc b9be cd18 9f3d 2e37 273e
000003d0: e2dd ae3d 13c7 993e 100c bc3e be0a 1ebd
000003e0: f344 133e 696c b13e c058 ac3c 532d 983d
000003f0: ae37 90be 791a 50bd 11cc dcbd ea38 2c3e
0.2655356 -0.17264073 -0.058621336 -0.11637229 0.14527865 -0.44287708 0.0112545695 0.11280905
0.13597023 0.34788316 0.4207768 -0.14861178 -0.033471644 -0.06312021 0.13328567 0.21764714
0.18496756 -0.12331391 0.31128725 0.63998145 -0.45160788 0.08146183 0.0038286233 -0.50310385
0.1319801 0.2542443 -0.32870182 0.23574756 0.7610144 0.07730316 -0.16405837 -0.05932744
0.028686166 -0.086285196 -0.46808317 0.49835184 0.6707655 0.13199925 0.14773239 0.12773515
0.1769549 -0.2711968 -0.15117796 0.5560181 0.04170295 -0.25807843 -0.3570171 -0.27324617
0.2084076 0.021889351 0.19168419 0.17674348 0.44493714 -0.2527622 -0.41649607 0.44259244
0.26647842 -0.43376344 0.1318268 -0.28973138 0.35164732 0.20728353 0.16904579 0.19627441
0.38070852 -0.2592686 -0.24339026 0.31026563 0.2259832 0.030662593 0.31287393 -0.031924892
0.01947564 0.2880681 -0.17999163 0.0131535465 0.5725195 0.52739674 0.08469555 0.16034278
-0.08188282 -0.26939073 -0.20467193 -0.2594252 0.19540142 -0.30801806 0.26901335 0.30025256
-0.06449134 0.38241887 -0.20219019 -0.31676635 0.34503883 0.52498394 0.091993995 -0.3800038
0.18441191 0.10770694 -0.1720014 0.10322578 0.08050041 0.50982344 -0.20441265 0.12206773
0.25999364 0.068189 -0.5016091 -0.21374097 -0.43865964 -0.1752247 -0.41095623 -0.43633544
-0.22054674 -0.14706461 -0.32158133 0.26497346 -0.59028304 0.10402406 0.45009455 -0.05906903
-0.08578001 -0.39318806 0.14291278 -0.4750605 0.32307616 -0.07910327 -0.083445154 -0.24057305
-0.24677043 -0.30300313 -0.047801845 0.58735836 0.17867412 -0.12499596 -0.24360704 -0.05969738
-0.07800037 -0.011493645 -0.30906886 0.48134133 0.0911276 -0.20348127 0.19271462 0.28729814
0.1129473 -0.32396603 -0.05575856 0.16557363 0.20878987 -0.11540153 -0.18480393 0.063677594
-0.38800028 0.114717044 -0.25110263 -0.054341953 -0.21511905 -0.14018136 -0.20390047 -0.06341039
0.05677104 0.21968949 0.3995298 0.015945481 -0.23159258 0.22362235 -0.34702304 0.27172762
-0.07574981 -0.11569945 0.23872459 -0.15571508 -0.07452251 0.23994525 -0.040512864 0.298778
-0.34554493 0.09297394 -0.19292933 0.2909038 0.13879143 -0.20765561 -0.021782732 -0.19476256
-0.32339498 -0.19341293 0.07175327 0.105166525 0.32734126 -0.17406455 0.0960673 0.18341054
0.17808288 0.34125844 0.09005717 -0.16916867 0.27059245 0.32723755 -0.1674906 -0.43528298
-0.3955631 -0.20327544 -0.42295173 -0.23556125 -0.18030885 0.1977403 0.11466382 0.27560115
-0.21588312 -0.23713258 0.009692587 -0.12180713 0.36963135 0.24031219 0.1965484 -0.16463752
-0.35254925 -0.15882899 -0.029495405 -0.04329913 0.4382677 -0.31352592 -0.18345137 0.23710893
-0.32150218 0.17937648 -0.4697735 -0.28819966 -0.23149285 -0.016665727 0.064543776 0.3194788
0.11361033 0.10785894 -0.018793335 -0.110196516 -0.15596129 -0.10322871 0.075827025 0.24684054
0.1715298 -0.36288816 0.07768402 0.16329643 0.085384145 0.30034694 0.36727953 -0.038584463
0.14381771 0.34653023 0.021038413 0.0743052 -0.2816748 -0.050806496 -0.1078111 0.16818586

bias f4 [128]
00000000: 9964 f5bd 8057 083d 4809 903e 1a7e 2cbe
00000010: a06b 5a3e 5e41 953e bb5e 8bbe 0e1c e1bd
00000020: 856c c8be f569 1a3d afe6 4fbe fe7e 7ebe
00000030: 0788 fd3d 5bfa 4ebc da54 4cbe accf bbbd
00000040: 9471 683e 6204 243e fd9b a9be 744a 2e3d
00000050: da06 9f3e 53ae cebc 46bf 383e 4881 ad3d
00000060: 1da3 54be 251b a0bd 59b1 c2be 00c3 c9bd
00000070: 5dee 9fbe 4766 433e 781d 96bd e7ad 383e
00000080: 1a87 953e ef51 943e ba32 463e 8612 bbbc
00000090: e8d6 90bd 17bc 03be 5cea 41be 26d0 6a3e
000000a0: 8efc ad3e 8f59 ae3c 5778 9a3e 5093 0e3e
000000b0: 5e45 543e 05cb e1bc aa83 29bd b9ae 853d
000000c0: eb78 0f3e fac3 533e 6078 aa3d 588a 243d
000000d0: 4c53 853e d124 853e da03 793e 9c9e ce3b
000000e0: 7b4c 0d3d f00d 9c3e 72f1 b3be 4514 2bbe
000000f0: bb03 81be 3f0d fd3b 581a 433e 855a ad3e
00000100: 6401 ea3d 0455 03be 303a 94bd c8c7 25be
00000110: f6a5 283e 9786 0c3e c705 833c e618 fb3d
00000120: b076 5a3e cc44 aabe 47f4 9a3e 73e8 36bb
00000130: dd06 8abe b94e 603e e731 883e 7c93 aabb
00000140: b07d e3bd 3a66 953e 72e5 32be fafd 8d3d
00000150: e538 803e 8bbe ccbd a7c0 1abc 73be d13d
00000160: 7014 fbbd 1758 a8be e2ca cb3d 1927 713e
00000170: a5bc 933e 8040 62bd 6a1e 063d b575 b6be
00000180: cb8b 91be 26a9 663c 14f0 7f3e bbe8 41bd
00000190: d210 15be 970e 053e c900 233e efbf 38bc
000001a0: 2000 aebe d2fe 023d 65c8 103e ac27 82be
000001b0: 341c 46bd 0059 863e b455 5a3e 6f2a 143e
000001c0: 2ba3 a53e 3199 923e e428 a4bd 761b db3d
000001d0: b491 a5be 18b8 8cbe 226e 46be f105 263e
000001e0: 29d3 b83d 2da5 84be c6cc b03e 08a6 f9bd
000001f0: 6490 9939 d61f 453e 611d 8bbe bbc6 073e
-0.11982078 0.03328657 0.2813208 -0.16844979 0.21330118 0.29151434 -0.2722071 -0.10991679
-0.39145294 0.037698705 -0.20302843 -0.24853131 0.12379461 -0.012632932 -0.19954243 -0.0917047
0.22699577 0.16017297 -0.33126822 0.042551473 0.31059915 -0.025229609 0.18041715 0.08471924
-0.20765348 -0.078176774 -0.3802593 -0.098516464 -0.31236544 0.19081984 -0.073298395 0.18035088
0.29204637 0.2896876 0.19355288 -0.022835981 -0.0707224 -0.1286472 -0.18937057 0.22930965
0.33981746 0.02128294 0.30169937 0.13923383 0.20729586 -0.027562628 -0.04138533 0.06527466
0.1401097 0.20680228 0.08323741 0.040170997 0.26040113 0.2600465 0.24317876 0.006305529
0.034496766 0.30479383 -0.35145146 -0.16706951 -0.2519816 0.0077225263 0.19053018 0.33858123
0.114260465 -0.128254 -0.07237661 -0.16189492 0.16469559 0.13723217 0.015993966 0.122606084
0.21334338 -0.33255613 0.30264494 -0.0027909547 -0.2695836 0.2190503 0.26600572 -0.00520557
-0.11107957 0.29179555 -0.17470339 0.06933208 0.25043407 -0.09997281 -0.009445346 0.102414034
-0.122597575 -0.32879707 0.09950806 0.23550071 0.28854862 -0.055237293 0.03274385 -0.35636678
-0.28426966 0.014078414 0.24993926 -0.04734109 -0.14557198 0.12993847 0.15918268 -0.011276229
-0.3398447 0.031981297 0.14138944 -0.25420892 -0.04836674 0.26239777 0.21321756 0.14469312
0.3235105 0.286325 -0.08015612 0.10698597 -0.32337725 -0.27484202 -0.1937795 0.16213204
0.090246506 -0.2590727 0.3453123 -0.12189871 0.00029290013 0.19250426 -0.27170852 0.13259403

weight f4 [2, 128]
00000000: 7a0c 1e3e cf6d 23bb bb6a 8abe 98c7 a4be
00000010: 0c6a 17be 1079 82be 9725 66be 7270 b23e
00000020: 1444 863e c2be 14be 43ab 873d 38d7 83bd
00000030: 5f37 5abd a96b 70be cb1f 28be 1205 d63e
00000040: 972b 03be d21b 1dbe 1d46 963b 1539 1e3e
00000050: 8d7c 993d 4ee5 fbbc d0c7 12be c138 e6bc
00000060: 0ff5 873d a262 f53d 4ab9 2abc d410 60be
00000070: 6829 dd3c f13a 513d d8ca 173e 81cd 2b3d
00000080: 4593 4b3d 5de5 96ba e7db 07be 338c ea3d
00000090: 1324 39be 34c0 afbe e6a6 3bbd e1c3 b0bd
000000a0: f350 563d 9e9e 5fbe aac5 32be 03bb b1bc
000000b0: c073 a4bc 3060 93bd b961 dd3c d106 18be
000000c0: d27c 9a3d 3312 a83e 070d 5dbc 994d 313c
000000d0: 5368 0a3d 9ff3 9e3d b55c 9fbe 5ee7 873d
000000e0: fe28 063d d8a8 013e 1a46 e5bc 6c18 9e3e
000000f0: b468 e3bd 8000 1e3e 3ab8 293d 24b9 b23d
00000100: 8ded d0bd ab8c 9f3d fe2c 543e 5f26 a53d
00000110: 068b e73d bd14 fdbd 1ddc 313e 4420 33bd
00000120: 842e ba3c 13fd 48be 0ca9 183e a0b8 b9bd
00000130: 689f 3d3e e676 9bbd 2776 bb3d 12f8 b7bd
00000140: 3e99 ab3d 8a42 0b3e fec8 133e aae6 fe3d
00000150: 84da ae3d 2361 e2bd 7d79 123e 3a3c b7bd
00000160: 1ea3 753e bdb0 36bd cd8b cfbd a61a b8bc
00000170: d0d4 e73c 98a7 d3bc 8899 703d 86f1 0b3e
00000180: db58 d03c 259e 8abc e5eb 1bbe b7cc 1c3d
00000190: b1e1 17bb e1a6 1bbe 131a bc3d ac6b c43d
000001a0: 6ef5 8e3d 4b70 fabd ce83 853e fcd3 ae3d
000001b0: df9f c3bd 9d8e c1be 5b4c bb3d 57a1 e63c
000001c0: 7323 2c3d ce3a d8bb 04b6 393e ac3d 34be
000001d0: f33e 04bd e00f a23d 6042 013e 5154 50bb
000001e0: f16f 383e e65a 5fbe 4978 e83c e1cc 79bd
000001f0: 7d1c 08ba 432b 78bd abbe 12be 73f7 c9be
00000200: 1836 ce3d 7414 02be f7e0 78bd 6bef 4dbc
00000210: 7418 c53d c43b 023e 2197 b9bd 02a8 1e3d
00000220: 38f6 d63c 94de 693e 7bb9 34be b205 893e
00000230: 1420 073e 1fe0 78be 3356 c93e ec82 3b3c
00000240: 99fc bc3d 7308 abbc c4eb 8c3d 1824 59be
00000250: ea88 8cbd e5e8 e8bd 80ce 9ebd b23c 6b3d
00000260: 21f8 5a3e 4197 1fbe 7090 cabd 1642 6a3e
00000270: 8e71 32be 2634 e73b 4ff9 f4bd 2587 05bd
00000280: 08d1 8c3e 1c73 4a3d 9f84 9d3e ed35 813e
00000290: 6f3f 3b3e 82c1 de3c fe11 ba3d 59aa 703d
000002a0: 00a0 fdbd 1e80 b1be 489e b43c 20ca 423e
000002b0: 3a30 44bd 0853 403e c6e9 5abe 6de3 063e
000002c0: 9dcf 18be 4493 aebc 5ae6 9fbd dc78 283d
000002d0: da68 223e e51d d2bb 91d9 88bd 1316 3bbe
000002e0: d1b8 afbd 7c32 c13c 7c02 15bd e480 8b3e
000002f0: 6d7d f63c d611 a93c 3f58 813c f902 f5bd
00000300: 055f 373d 3d72 c53d 8f35 29be 49d1 163e
00000310: 0db3 0b3e 9072 00be b95f 14be b453 8bbc
00000320: d5f0 4e3d 010f 8f3e 4f2d 25bd ec50 503e
00000330: b9a1 993d 7b0e fabc e67e 9c3d 5bd2 c2bc
00000340: 8717 923e 9cef 673d ffd1 823e ff73 debd
00000350: de09 b23c b554 4f3c bb3e 76bc ab53 e63d
00000360: a7fc 8e3d 6d0d 923d 6418 f6bd db28 0c3d
00000370: 59ad c73d 338a 06be 86a4 a73d 4a61 7f3d
00000380: b254 30be e2ca eebd 2154 0d3e 1b97 bb3d
00000390: d29d 6ebe 3f1c de3d c2bc b03d b1f3 1abe
000003a0: 266c 3cbd 24ee 75bc bf04 bd3d 54b1 19be
000003b0: 5c2e 36bd aa27 653e 5ad9 433d ee18 d53d
000003c0: 5d56 97bd 4716 f5bd cc1c 62be e3e8 82be
000003d0: 142e 9abc fe8c 483e 37b2 3e3e 4f07 75be
000003e0: 4424 afbd 9fd4 cebd 17bc 0c3e 2b8b 30be
000003f0: 2eae 86bd 4690 343e 51a3 bb3c 5ba6 d73e
0.15434447 -0.0024937277 -0.27034554 -0.32183528 -0.14786547 -0.25482988 -0.22475277 0.34851414
0.26223814 -0.14525893 0.066244625 -0.06437534 -0.053275462 -0.23478569 -0.16418378 0.41800743
-0.12809597 -0.15342644 0.004585995 0.15451463 0.07494459 -0.03074899 -0.14334035 -0.028103234
0.06638538 0.11981703 -0.010420153 -0.2188142 0.026997283 0.0510816 0.14823472 0.04194403
0.049700994 -0.0011512447 -0.1326748 0.11452522 -0.18080167 -0.34326327 -0.045813464 -0.08631111
0.052323293 -0.21837851 -0.17458215 -0.02169562 -0.020074725 -0.07196081 0.027024137 -0.1484635
0.07543339 0.32826385 -0.0134918755 0.010821723 0.033790898 0.07761311 -0.31125417 0.06635927
0.032753937 0.12662065 -0.027987529 0.30878007 -0.11103955 0.15429878 0.041435458 0.08726719
-0.10201559 0.07790502 0.20720288 0.08063959 0.113058135 -0.12357471 0.17369123 -0.043731943
0.022727259 -0.1962779 0.14908236 -0.090684175 0.1851784 -0.075910375 0.09153395 -0.089828625
0.08378838 0.13599601 0.14432141 0.124463394 0.08537772 -0.110536836 0.14304157 -0.08947034
0.23988006 -0.044602145 -0.10134087 -0.022473644 0.02829972 -0.02583675 0.05874017 0.13666353
0.025432995 -0.016921112 -0.15226705 0.03828117 -0.0023175294 -0.15200378 0.09184661 0.09590849
0.06980406 -0.122284494 0.26077121 0.085365266 -0.09551977 -0.37804118 0.09145423 0.028153105
0.042025995 -0.006598807 0.1813584 -0.17601651 -0.032286596 0.07913184 0.12622976 -0.0031788538
0.18011452 -0.21812019 0.028377669 -0.060986403 -0.00051922334 -0.060588133 -0.14330547 -0.394466
0.10068911 -0.12703115 -0.06076142 -0.012569289 0.09623805 0.12718111 -0.09062029 0.038734443
0.026240453 0.22838813 -0.1764888 0.26762158 0.1319583 -0.24304245 0.39323577 0.011444788
0.09227867 -0.020878052 0.06880906 -0.21205175 -0.06862052 -0.11372546 -0.077542305 0.05743093
0.21383716 -0.15585043 -0.098908305 0.22876772 -0.1742613 0.007055777 -0.11961614 -0.032599587
0.27503228 0.049426183 0.30765244 0.25236455 0.18285917 0.027191881 0.09085463 0.058756206
-0.12384033 -0.34668058 0.02204813 0.19022417 -0.047897555 0.18781674 -0.2137824 0.13172694
-0.14922948 -0.021310456 -0.07807608 0.041130885 0.1586031 -0.006412255 -0.066821225 -0.1827014
-0.08580173 0.023583643 -0.036379322 0.27246773 0.030089105 0.020638388 0.01578915 -0.119634576
0.044768352 0.0964093 -0.16524337 0.14728273 0.13642521 -0.12543702 -0.1448964 -0.017007686
0.050522644 0.27941135 -0.040326413 0.20343369 0.07501549 -0.030524483 0.076413915 -0.023781946
0.28533575 0.056624994 0.2555084 -0.10861968 0.02173322 0.012654473 -0.015029605 0.11246427
0.06981783 0.07131467 -0.12016371 0.03421865 0.0974986 -0.13138656 0.08185677 0.06234864
-0.17219809 -0.116597906 0.13801624 0.091596805 -0.23302391 0.10845231 0.08629753 -0.15132023
-0.046001576 -0.01501039 0.09229421 -0.15009052 -0.044477805 0.22378412 0.047814704 0.104051456
-0.07389519 -0.1196714 -0.22081298 -0.25568303 -0.0188208 0.19585034 0.18622671 -0.2392857
-0.08551839 -0.10099148 0.13743626 -0.17240588 -0.06576191 0.17633161 0.022905024 0.42119107

bias f4 [2]
00000000: bc36 963d 0e7d 23bd
0.073346585 -0.039914183
