lunar_landing_continuous_ppo/train1/reward_160.pth (torch, 15114 bytes, 8 tensors)

log_std f4 [1, 2]
000000 a5 a1 29 c0 98 f6 30 c0
       -2.650491 -2.765051

weight f4 [128, 8]
000000 21 4d d9 3f 79 25 99 c0 23 d6 0b be f0 a6 0f bd
       1.6976663 -4.7858243 -0.13655905 -0.035071313
000010 ed 06 2c bf 7d 4a c6 be e4 69 5f bf d9 8b 18 3f
       -0.6719807 -0.38728705 -0.8727095 0.5958839
000020 0e 03 22 40 8b 8c 8d c0 17 17 cb bd f7 8c 7c bf
       2.5314364 -4.423406 -0.099165134 -0.98652595
000030 62 f3 e9 bf c9 6f 4f bf 67 6b 76 bd 03 91 e5 3e
       -1.82774 -0.81029946 -0.06016102 0.44837198
000040 49 8f 0b 40 ab 5e 89 c0 6a ac a3 be 4e 00 21 3e
       2.1806204 -4.292806 -0.3196748 0.15722772
000050 57 f3 f8 be bc af 2b bf d9 44 1b bf 01 8e 6d 3f
       -0.48623154 -0.67065024 -0.6065193 0.92794806
000060 dc 92 ec 3f 27 24 5d 3f 9f a8 e1 be 59 00 e2 3f
       1.8482318 0.8638329 -0.4407396 1.7656356
000070 a4 16 b4 3f de d3 0e bf e7 ed d2 be d0 00 db 3e
       1.4069409 -0.55792034 -0.4119713 0.42774057
000080 d5 a2 01 40 9a eb df c0 05 b3 f1 3f 7a 10 37 c0
       2.0255635 -6.99751 1.8882757 -2.8603806
000090 38 e1 5d 3f 09 d7 52 bf 51 86 39 be 6b c4 06 3e
       0.8667178 -0.8235937 -0.18117644 0.13160865
0000a0 24 bf 20 3f 42 de 1c bf 7d b9 84 bf 7c 40 72 3e
       0.6279166 -0.6127664 -1.0369107 0.23657411
0000b0 dc 8c aa 3e 8b 7e e4 be b0 54 3d bf 4d c2 a2 be
       0.33310592 -0.44627795 -0.7395735 -0.31788865
0000c0 76 d2 b7 3f c2 af a8 bf 85 4f 31 c0 ec 5e 03 40
       1.4361103 -1.3178637 -2.7704785 2.0526686
0000d0 03 67 37 be fe 99 9c 3f 05 3a 73 3f e1 ed 92 be
       -0.1791039 1.2234495 0.95010406 -0.28697112
0000e0 3a f4 f3 3f b6 63 25 3f 8a 24 7d bf 3c 53 b6 3e
       1.9058907 0.6460527 -0.9888388 0.35610378
0000f0 f0 21 e9 bf 39 50 4d bf 2a 5c c2 be 87 d8 1f bf
       -1.8213482 -0.80200535 -0.3796094 -0.6243977
000100 40 ff 7a 3f bd 89 15 bf 45 36 48 bf 07 2c 85 3f
       0.9804573 -0.58413297 -0.7820781 1.0404061
000110 ed f6 5a 3f 96 cf bd be 41 e9 29 be fc 1e ad bd
       0.8553303 -0.37072438 -0.16592886 -0.084531754
000120 b1 70 01 40 0d 02 64 bd 08 7f ce 3f 37 53 a0 bd
       2.0225031 -0.05566602 1.6132517 -0.07828372
000130 c6 50 ee bf 23 3d 08 bf 34 19 cc 3e 4d 4b c0 3e
       -1.86184 -0.5321829 0.39862978 0.3755745
000140 c4 80 e8 3e a1 fd 38 bf f3 ee 37 c0 9e 29 08 3d
       0.4541074 -0.72262007 -2.8739593 0.033242814
000150 09 f7 ef 3f 53 93 36 3f 46 07 57 bd e6 c8 32 3d
       1.8747264 0.7131855 -0.05249717 0.043648623
000160 89 d5 fd 3f aa 38 e9 be 72 4b 9f bf 92 de 9e 3f
       1.9830791 -0.45551044 -1.2444899 1.2411673
000170 a1 32 ae bf 79 5d 2b be e6 67 4b bf 85 a1 85 be
       -1.3609201 -0.16734876 -0.7945541 -0.26099792
000180 23 7b db 3e 8c fc 8b bf 22 88 8b be 22 73 ba be
       0.42867383 -1.0936446 -0.272523 -0.36415964
000190 67 5f 73 bf d5 8b 3f 3e 3d 4a b8 3c 5d af 02 be
       -0.9506745 0.18705685 0.022496337 -0.12762208
0001a0 85 f9 bf 3f 6f e7 34 c0 ea 1f ad 3f 08 d2 12 3f
       1.4998022 -2.8266256 1.3525364 0.5735173
0001b0 41 14 cc bf 2e 09 31 be b9 65 0f 3f be 07 17 3f
       -1.5943681 -0.17288658 0.5601459 0.5899619
0001c0 22 47 1d 40 a8 9f a4 c0 be 7a 20 3f ac 00 17 bf
       2.4574666 -5.1444893 0.6268729 -0.589854
0001d0 c0 cb 7a bf f4 65 2e bf 56 c6 71 bf cc 0e 97 3e
       -0.9796715 -0.6812432 -0.9444326 0.29503477
0001e0 4f 37 0e 40 dc c8 ff 3f c1 45 8b c0 38 50 95 c0
       2.2221258 1.9983172 -4.352265 -4.6660423
0001f0 fb 93 98 c0 eb b8 40 be 5d 79 b8 bf 28 9f be be
       -4.768064 -0.1882054 -1.4412037 -0.37230802
000200 93 b2 d1 3f bc 20 5c 3f 32 70 de be ba e0 00 3f
       1.6382622 0.8598745 -0.43444973 0.50342906
000210 8e 0c 66 3f 94 2c dc bf e8 09 26 bf 9c 35 9a 3f
       0.89862907 -1.7201104 -0.64858866 1.204761
000220 fc f2 e3 3f be e1 0b 3f b7 c8 c1 be 6d 46 af 3e
       1.7808528 0.5464133 -0.37848446 0.34233418
000230 1c ae aa bf 12 9f 41 bf 46 95 c3 be 8e 56 15 bf
       -1.3334384 -0.7563335 -0.38199824 -0.58335197
000240 85 b0 5e 3f d7 9c 83 bf 0c 0a 62 bf 82 5a 46 3f
       0.869881 -1.0282239 -0.8829658 0.77481854
000250 dc 41 de 3d 41 d2 59 3f 38 15 5f be bb a5 3f bf
       0.108524054 0.85086447 -0.21785438 -0.7486226
000260 a6 fb 1d bf dd 28 83 3d d8 9c 33 c0 f0 b3 86 3f
       -0.6171211 0.064042784 -2.806448 1.0523663
000270 da 47 52 40 ce d6 ff be 7f 17 87 bf 55 12 3d 3d
       3.2856355 -0.4996857 -1.0554045 0.04616006
000280 ae 84 27 be 6c 19 9f 3f 6e 44 c7 bf 89 aa 9d 40
       -0.16359207 1.2429633 -1.5567758 4.9270673
000290 dd 9d 91 40 fb 6e 7a 3f 74 b0 e3 bf 00 75 a6 bf
       4.5505204 0.9782559 -1.7788224 -1.3004456
0002a0 26 36 81 3f 36 db 71 bf c0 8f 58 bf 27 ef 55 3f
       1.009465 -0.94475114 -0.84594345 0.8356804
0002b0 8c d4 35 bd ef aa 52 3f 4a 98 77 bd c2 df 3e bf
       -0.044392154 0.82292074 -0.06044797 -0.7456018
0002c0 d3 67 fe 3f ed 03 3d 3f 0f b9 9e c0 2e ca 00 41
       1.9875435 0.73834115 -4.96009 8.04936
0002d0 38 57 3f c0 a7 d6 c4 3f 3e 19 a9 3e 1c 6c 22 3c
       -2.9896984 1.5378007 0.3302707 0.009913471
0002e0 25 d5 06 40 08 fb 61 c0 82 91 ef 3f 8b 6e 8f 3f
       2.1067593 -3.5309467 1.871628 1.120561
0002f0 2a 9c b1 bf 91 71 1b 3f b7 7f 00 bf 41 b8 f4 3e
       -1.3875782 0.60720164 -0.5019488 0.47796825
000300 bb be ab bd 11 d2 7a c0 8a 82 6a 40 99 ea 7d c0
       -0.08385988 -3.9190714 3.6642175 -3.9674437
000310 35 8a 82 3f cf b0 3d bf 2b ad 33 3f 14 5e b1 3e
       1.0198427 -0.74097914 0.7018611 0.34642088
000320 a3 28 96 3e 2b 53 a8 bf 70 3f 3a 3f 47 0c 76 bf
       0.29327878 -1.3150381 0.7275305 -0.96112484
000330 fd f6 16 bf 36 4f 31 bd 80 99 29 bd b1 18 1f be
       -0.58970624 -0.043288432 -0.041406155 -0.15536763
000340 2a a6 9d 3f 24 5d 5f 3e ae b0 e6 bf f5 90 e1 3f
       1.2316334 0.21812874 -1.8022668 1.7622362
000350 ff 6c c3 be a4 46 2e 40 e7 a1 72 3f 4d 84 a2 be
       -0.38169095 2.7230616 0.94778293 -0.31741562
000360 25 1d f5 bf 4e 26 f0 bf 02 98 58 c0 7d 8c d3 bd
       -1.9149519 -1.876169 -3.3842778 -0.103295304
000370 c0 3b 8b bf 9f 0b 79 3f 5a 2f be 3f c1 25 46 3f
       -1.0877609 0.9728336 1.48582 0.7740136
000380 52 7c 33 bf 73 27 0f bf 56 81 a1 bf 2e be 5b 3d
       -0.7011157 -0.5591957 -1.2617595 0.053648166
000390 73 89 39 3f d6 ff df 3e 2a 1f 9b bd 68 a9 3c 3e
       0.72475356 0.43749875 -0.075743034 0.18423998
0003a0 22 3b af 3f fd 39 b6 bf 15 48 18 c0 64 88 00 40
       1.3689921 -1.4236447 -2.3793995 2.0083246
0003b0 79 d3 fb be 56 58 9c 3f de 66 53 3f 06 ca 43 bf
       -0.49184778 1.2214458 0.8257884 -0.7648014
0003c0 14 e3 c1 3f 1c dc 70 bf 85 db eb bd 73 a7 b8 bf
       1.5147424 -0.9408586 -0.115164794 -1.4426101
0003d0 2f 4b ab bf 3e bd 23 40 55 7a bf 3f 07 d3 91 3e
       -1.3382319 2.5584254 1.4959208 0.28481314
0003e0 30 30 1a 40 8f 96 d7 bf 29 d4 97 3e ad d9 17 3f
       2.4091911 -1.6842822 0.29654053 0.5931652
0003f0 d7 e3 1d 3f 12 56 b2 bd f9 00 24 bf df e8 2e bf
       0.6167578 -0.08707823 -0.64063984 -0.68324083

bias f4 [128]
000000 ac 3f d1 be 2f 4b 67 bd 2c 27 86 bd 48 c9 e1 3e
       -0.4086889 -0.056468185 -0.0655044 0.44098878
000010 46 ef 2b 40 8f 40 4b bf 24 ba a6 bf a1 ee 07 3e
       2.686479 -0.79395384 -1.3025556 0.13274623
000020 29 36 80 bf 14 61 86 bd 60 e3 c6 bf 78 bb af 3d
       -1.0016528 -0.06561485 -1.5538139 0.08580679
000030 5f 1a 88 bf 16 24 6f be 06 77 bf be 6c e8 9c bf
       -1.0633048 -0.2335361 -0.37395495 -1.225843
000040 c5 1b db bf df 2c f1 3d 5e cb 79 bf 02 1c c8 bf
       -1.711785 0.117761366 -0.9757594 -1.5633547
000050 03 27 1b 3f 40 16 82 bf 2f 85 13 3f 22 f4 78 be
       0.606064 -1.016304 0.576251 -0.2431188
000060 a9 3e 56 40 da 3b a2 bf 20 8c a8 bf 41 ef 51 bf
       3.3475745 -1.2674515 -1.3167763 -0.820057
000070 41 90 43 bf 8e ba b7 bf 1f 4b 57 bf 19 58 36 3c
       -0.7639199 -1.4353807 -0.84099 0.011129403
000080 17 ef b4 bc 18 9d 4e 3e 3f ba 72 bf a1 07 aa bf
       -0.022086663 0.20177114 -0.9481544 -1.3283578
000090 37 4f 0e bd 9b 0d 68 3e b4 0d 40 bf 40 fc 17 bf
       -0.034743514 0.2266144 -0.7502091 -0.5936928
0000a0 46 4a 43 bf 6b c4 87 bc ba 8a 95 3d 61 90 84 3d
       -0.7628521 -0.016573152 0.073018506 0.064728506
0000b0 9a d9 10 be 18 33 70 bd bc e3 be 3d 69 6b c2 bd
       -0.14145508 -0.058642477 0.09320781 -0.09493143
0000c0 0e 7a be bc 43 68 07 3d b9 36 3f be 4f f2 24 3f
       -0.02325156 0.033058416 -0.18673219 0.64432234
0000d0 86 6a 52 bf 09 f4 ba bd 4e 2e 23 bd 4e 2b 8f bd
       -0.8219379 -0.09128577 -0.03983908 -0.069906816
0000e0 82 bd 1e bf da c4 00 bd 48 1f cc bf f5 b8 c2 be
       -0.62007916 -0.031437732 -1.5947046 -0.38031736
0000f0 ba 9a 87 3d 88 2f 62 bd bb 22 d1 bf b1 d5 2b 3e
       0.066213086 -0.05522111 -1.6338724 0.16780736
000100 0b 72 8a bf 3a 70 53 bf 98 13 70 bf 8c dc 71 bf
       -1.0816053 -0.8259312 -0.937799 -0.9447715
000110 ae 98 d6 bb 11 c0 00 3d dc 59 dc be 18 f1 6c bf
       -0.0065489626 0.03143317 -0.43037307 -0.9255538
000120 f3 d6 72 bf 5b b0 16 3e 1c e0 2a 40 f0 16 81 bd
       -0.94859236 0.14715712 2.6699286 -0.06303203
000130 cd f4 fc be 1b c5 39 be 1e 32 cc 3d c1 52 0c bd
       -0.49405518 -0.18141596 0.099704966 -0.034258608
000140 ac 5d 27 40 2f b9 a5 bf e0 e2 66 bf 7a 89 4c be
       2.6150923 -1.2947139 -0.90189934 -0.19974318
000150 92 40 44 bd af 55 61 bf 20 ec 64 bf 85 e3 16 bf
       -0.04791314 -0.8802137 -0.894228 -0.5894092
000160 35 e2 fe be 1a b6 c1 3f 35 2e ff 3f 8b 8f c8 3e
       -0.49781957 1.5133698 1.9935976 0.39172015
000170 cd 2b 4e bf 05 56 e7 3f 8d ae ac bf 11 c1 6b bf
       -0.80535585 1.8073126 -1.3490769 -0.9209147
000180 91 10 65 bf c7 b8 4d bc 4d 65 b3 3f d8 a1 32 bf
       -0.89478403 -0.012556261 1.401529 -0.69778204
000190 a6 bf ab bf fb 9f 68 bf 3d fd 27 3f cb f9 a8 bf
       -1.3417861 -0.9086911 0.65620786 -1.3201231
0001a0 fd 40 67 be 8b 01 5f bf 6c d6 12 3f 49 f2 62 bf
       -0.22583385 -0.8711173 0.5735843 -0.8865095
0001b0 af 4c b0 bd 03 8c 7b bf 0b ae 60 be a4 c1 77 be
       -0.08608376 -0.98260516 -0.21941392 -0.24194962
0001c0 b9 02 15 be 82 27 36 bf a6 41 62 3e 19 9c 92 3e
       -0.1455182 -0.71154034 0.22095355 0.28634718
0001d0 4f 58 50 bd c7 58 ab be 76 82 15 bd 97 0a 4c 3f
       -0.050865468 -0.3346617 -0.03650137 0.7970366
0001e0 22 48 aa be 18 c4 2c bf 8e 14 26 3f 9e 1b c1 3e
       -0.33258158 -0.67486715 0.64875114 0.37716383
0001f0 03 00 9c bf 6b 45 72 3d 99 fd 0c bd 11 f9 c4 3e
       -1.2187504 0.059148233 -0.034421537 0.38471273

weight f4 [1, 128]
000000 f3 46 5c c0 11 b7 57 c0 03 b6 5b c0 91 31 e8 bf
       -3.4418304 -3.3705485 -3.432984 -1.8140126
000010 fa ed 9e 40 32 d1 8e bf db 23 56 c0 62 c3 0b c0
       4.96655 -1.1157591 -3.3459384 -2.1838002
000020 2a c3 ca bf c7 42 f0 bf 95 5c 0c c0 a4 87 e9 bf
       -1.5840809 -1.8770379 -2.1931508 -1.8244519
000030 d5 40 10 c0 e8 36 14 c0 60 df 75 c0 99 7c dd 40
       -2.253957 -2.3158512 -3.8417587 6.9214597
000040 e5 b0 90 c0 e0 58 90 bf 68 63 ae bf d8 c1 d3 bf
       -4.5215936 -1.1277122 -1.3624086 -1.6543531
000050 40 8b 60 c0 4a 98 83 bf 72 bf c3 40 d9 12 39 c0
       -3.5084991 -1.028085 6.11712 -2.8917754
000060 cf 85 7d 40 1c 5b df bf e4 fb 73 c0 b0 fa 75 c0
       3.961292 -1.7449679 -3.8122492 -3.8434258
000070 f3 8f 86 bf 12 8f 5e c0 42 eb 84 c0 02 ad f7 bf
       -1.051268 -3.4774823 -4.153718 -1.9349673
000080 c3 39 3a c0 43 0b 36 c0 30 32 06 c0 c5 a1 88 bf
       -2.9097755 -2.8444374 -2.0968132 -1.0674368
000090 08 38 fc bf e9 27 64 bf 69 d7 2b c0 03 b5 45 bf
       -1.9704599 -0.891234 -2.6850226 -0.77229327
0000a0 77 8e 8a bf c3 2d 17 c0 6c b0 08 c0 c3 c5 eb bf
       -1.0824727 -2.362168 -2.135768 -1.8419727
0000b0 9a 45 86 c0 b8 6a 1f c0 05 9d b7 bf 0f d0 48 c0
       -4.1959963 -2.4908886 -1.4344794 -3.137699
0000c0 de 17 17 c0 c3 37 0a c0 03 88 34 c0 74 14 20 c0
       -2.3608317 -2.1596534 -2.8208015 -2.5012484
0000d0 a9 7f 27 c0 4f fe 2f c0 dd 8e 99 bf 08 7c 91 c0
       -2.6171668 -2.7498968 -1.1996723 -4.5463905
0000e0 2f dc c1 bf 81 59 c6 bf b6 1c 05 41 06 8b 05 c0
       -1.514532 -1.5496064 8.3195095 -2.0866103
0000f0 c5 06 47 c0 6e 70 e2 bf 3c 58 8a c0 63 f0 f1 bf
       -3.1097882 -1.7690561 -4.323271 -1.8901485
000100 3f fd d8 bf fe a5 8e c0 31 65 6b bf 38 96 02 c0
       -1.6952285 -4.4577627 -0.9195128 -2.0404186
000110 2c 82 0c c0 cd 65 f5 bf 34 39 67 c0 ce 52 61 bf
       -2.195445 -1.9171692 -3.6128664 -0.88016975
000120 1f 69 57 bf e9 0b fb bf 30 7f dd 40 f5 5e 61 c0
       -0.8414478 -1.961301 6.921776 -3.5214207
000130 b5 32 c3 bf d8 db 25 41 fe d2 fe bf 9c 80 0c c0
       -1.524985 10.366173 -1.990814 -2.1953497
000140 c8 69 a9 40 7d bc bc bf f7 61 ba c0 4a 37 73 c0
       5.2941628 -1.4745022 -5.8244586 -3.8002496
000150 54 11 5b c0 5a 1d 8f bf 00 e8 84 bf f8 9a 2c c0
       -3.4229326 -1.1180832 -1.0383301 -2.6969585
000160 8e 93 6e bf d7 1b 59 40 47 19 ad 3f b0 6b 0a c0
       -0.931939 3.3923242 1.3523339 -2.1628227
000170 e6 88 a9 bf d3 61 53 3f f7 2d c8 bf cd d8 f6 bf
       -1.3244903 0.8257114 -1.5639027 -1.9284912
000180 2c 79 80 c0 16 86 9d bf 27 0e 81 40 69 29 18 c0
       -4.0147915 -1.2306545 4.0329776 -2.3775275
000190 d7 cf 91 c0 08 bd a3 bf 86 b2 6b 40 58 67 fa bf
       -4.556621 -1.2792063 3.6827712 -1.9562788
0001a0 d5 62 06 c0 e3 4c f6 bf 53 f8 b0 bf a4 07 89 c0
       -2.0997822 -1.9242214 -1.3825783 -4.2821827
0001b0 64 46 c3 bf 90 64 cb c0 af 6b 82 c0 77 7e c5 c0
       -1.5255857 -6.3560257 -4.075645 -6.1716876
0001c0 51 66 ec bf 26 30 95 c0 8e fb c3 bf 82 52 fe bf
       -1.8468724 -4.6621275 -1.5311143 -1.9868929
0001d0 c5 14 ff bf 23 c0 ab bd c7 21 df bf 5e 87 91 40
       -1.9928213 -0.083862565 -1.7432183 4.5477743
0001e0 22 a9 13 c0 85 62 ca bf 9d 9b fb bf ff 96 50 c0
       -2.307198 -1.5811316 -1.9656864 -3.259216
0001f0 f8 3f 0b c0 51 27 09 c0 ad b1 bb bf f0 5a 39 c0
       -2.1757793 -2.1430247 -1.4663597 -2.8961754

weight f4 [128, 8]
000000 62 ee 05 3f 96 39 8e be 3d 2e ef be 1f f1 07 bb
       0.5231687 -0.2777831 -0.46714965 -0.0020743085
000010 1e 1d eb 3e 36 ca 63 bf 18 a5 2b be e4 23 92 3d
       0.45920652 -0.88980424 -0.16762197 0.07135752
000020 34 21 c0 bc 77 cf 01 3e 4d f4 23 3f 2a 58 ac 3d
       -0.023453332 0.12676798 0.6404465 0.084152535
000030 35 7d ee be 88 58 81 be 47 34 f5 bd b7 9b 1d 3e
       -0.465799 -0.25262856 -0.11972862 0.15391432
000040 df 75 ae 3c be 1c 0a be 0a 6a 3a 3f a0 68 9f 3f
       0.02129644 -0.13487527 0.7281805 1.2453804
000050 9f aa 93 bf 80 5b 2d bf 0d 16 8b be 56 90 71 bf
       -1.1536444 -0.6771774 -0.2716526 -0.94360864
000060 40 25 1f 3e ca 5d d5 3e 35 95 9f be f9 3d 90 3f
       0.15541553 0.41673118 -0.31168523 1.1268913
000070 d6 b5 57 3f 84 2d 06 3f 6a 49 60 bd 86 4f 82 3e
       0.84261835 0.524132 -0.054757513 0.25451297
000080 75 ae 5c bd 95 6c fa bd 97 da 5f bf 88 e6 d8 3f
       -0.053877313 -0.12227742 -0.87442917 1.6945353
000090 d9 26 89 3f 6d f7 9a 3e ce 2f 31 3e 70 67 2d 3e
       1.071498 0.30266896 0.17303392 0.1693399
0000a0 22 a9 e4 bc a1 1a 0a bf 7b 2e ec be 67 25 9b 3f
       -0.02791268 -0.5394688 -0.46129212 1.2120789
0000b0 a4 b9 81 3d c4 81 ae be dd 9b 61 be 22 b2 98 be
       0.06334236 -0.34083378 -0.22032113 -0.29823405
0000c0 8c 53 ab bd 5a a2 c0 3e 4d c6 0b 3f ec 3d 05 3f
       -0.08365545 0.37623864 0.5459946 0.5204761
0000d0 c6 04 27 3f 39 f9 cd bb e4 ea 11 bf 3a 38 b5 3e
       0.6524166 -0.006285813 -0.5699904 0.3539446
0000e0 7c 78 b9 3e da 0d a1 be 1c 09 28 3e ce 50 7f be
       0.36224735 -0.3145588 0.16409725 -0.24933168
0000f0 1e 91 e6 3d e8 7b 20 3f 70 9b b1 bd 19 b7 60 3e
       0.11258148 0.62689066 -0.086722255 0.21944846
000100 1e 01 b3 3e 61 5b ec be ec 13 90 bf 7a fe c5 3e
       0.3496179 -0.46163467 -1.125608 0.38670713
000110 d0 20 81 3e cd d8 15 bf 15 40 a2 3e 72 59 f2 bc
       0.25220346 -0.58533937 0.31689516 -0.029583666
000120 70 cb a7 bd ca ad 6c 3e 84 5d 0a be 4f f8 be 3e
       -0.081930995 0.2311317 -0.13512236 0.3729882
000130 bf c1 a7 3f 8c 41 5c 3f 5e 54 d1 3c a2 e5 12 be
       1.3106002 0.86037517 0.025552925 -0.1434541
000140 f9 a1 41 be c0 fe e4 be 60 33 ca 3e 07 62 68 bf
       -0.18909444 -0.4472561 0.3949232 -0.9077458
000150 e4 87 83 3e a2 88 88 bb c4 65 8f 3d 0d 3d f0 3d
       0.25689614 -0.0041666785 0.07001832 0.117303945
000160 f8 0e c7 3d 45 50 ea 3e 9a 64 f7 bd 75 3f 86 be
       0.09719652 0.45764366 -0.12079735 -0.2622029
000170 31 71 ac 3f 7a db cd 3f b3 67 99 bd 90 1b 4d be
       1.3472043 1.6082604 -0.07490482 -0.20030046
000180 6a 94 83 bc e8 a6 1c 3c 7f 4b 79 3b b6 f9 84 3d
       -0.01606198 0.009561278 0.0038039384 0.06492941
000190 f3 ab 9a 3f a2 ee d2 3f 57 3b 55 be ca 8c 29 be
       1.2083725 1.6479075 -0.20823418 -0.16557613
0001a0 f7 dd dc 3e 6c 50 2b 3e 81 17 b8 be b7 81 a4 3d
       0.43138096 0.16729897 -0.35955432 0.08032554
0001b0 3b a0 ad bf 78 27 2c bf e7 c6 7d bf aa 2f fd be
       -1.3564523 -0.67247725 -0.99131626 -0.49450427
0001c0 7e 69 a5 3d 8d 3c 42 ba 3d 2c c7 be 9c e1 43 3f
       0.08076762 -0.00074095355 -0.3890094 0.7651613
0001d0 82 c5 1e bf 1c 1d 86 3e a4 95 00 3f 24 23 49 be
       -0.62020123 0.26194084 0.50228333 -0.19642311
0001e0 5b 39 5c be 51 39 3a bf 33 07 a6 3c 32 b6 5d bf
       -0.21506254 -0.7274371 0.020267105 -0.86606133
0001f0 60 b5 a5 3e ea 98 38 3f 06 45 36 3e 31 03 f2 be
       0.3236494 0.7210833 0.17799768 -0.4726806
000200 e2 98 73 be 84 8c 02 bf b1 95 e6 bc 28 2b c3 3f
       -0.23788789 -0.5099566 -0.02814755 1.5247545
000210 0e aa 14 3f 73 d3 ff be 78 da b7 be 73 bf 6b bc
       0.5807198 -0.4996601 -0.35908866 -0.014388907
000220 26 04 44 be ae 41 4c bd 14 e6 22 bf 7b 07 ab 3f
       -0.19142208 -0.049867325 -0.6363232 1.3361658
000230 af f6 b1 bd 4b 42 53 be 0d 2d 9f 3e e0 8b af 3e
       -0.08689629 -0.20630758 0.3108906 0.34286404
000240 ea 50 e7 3d e0 de a5 be 16 63 64 bd 22 8c 29 3e
       0.1129473 -0.32396603 -0.05575856 0.16557363
000250 03 cd 55 3e a3 57 ec bd 3e 3d 3d be 66 69 82 3d
       0.20878987 -0.11540153 -0.18480393 0.063677594
000260 8f 44 f1 be 3e 34 50 3e 68 3b 4c be b9 84 18 bf
       -0.4712262 0.20332429 -0.19944537 -0.5957752
000270 77 72 81 bf 66 f6 29 bf 57 40 3f 3d 95 4c d7 be
       -1.0113057 -0.663916 0.04669222 -0.42050615
000280 e0 39 b5 3d ef 4b 23 3d 23 82 04 3f a3 a4 ca bd
       0.088489294 0.039867338 0.5176107 -0.09894683
000290 8f 4c 85 bf f2 24 33 3e 5a 3f 1c bf 32 5f 4b 3e
       -1.0413989 0.17494562 -0.61034167 0.19860533
0002a0 c2 33 ca be 1f 82 5a be f1 43 79 3f 9a 4e c6 be
       -0.39492613 -0.213387 0.97369295 -0.38731843
0002b0 25 46 17 3d ae 1d 89 3f 82 f0 e5 bd 90 45 7a 3e
       0.03693213 1.0712183 -0.11227514 0.24440598
0002c0 5d 6c df bd 84 5d 6e be 7d c5 19 be 52 98 9f 3f
       -0.109093405 -0.23277861 -0.15016742 1.246836
0002d0 f8 88 2a bd 55 c4 4a bf 6c 46 12 be 9b 51 5e be
       -0.04163453 -0.7920583 -0.14284676 -0.21710818
0002e0 c8 f4 bc be 11 80 0c bd 66 16 24 3f 16 c3 1a 3f
       -0.36905503 -0.03430182 0.6409668 0.6045393
0002f0 ed 3f 4b 3f 88 47 f7 be 2a 12 38 be 01 4b 96 3b
       0.7939442 -0.48296762 -0.17975679 0.004586578
000300 b8 c0 bc 3b 66 a3 ca 3e 23 27 00 3e c2 60 bd be
       0.0057602786 0.39577788 0.1251493 -0.36987883
000310 58 02 a9 3f a4 b6 b5 3f 7a 49 89 3e 1c f5 2e bf
       1.320384 1.4196362 0.2681387 -0.6834276
000320 ae 7a 1d bf cf da 30 be 72 33 58 3c 11 45 2d bf
       -0.6151532 -0.17270969 0.013195859 -0.6768351
000330 9f 0a c1 bd 6a 60 ed bd 07 d6 c5 3d c4 d8 e7 3d
       -0.09425854 -0.11590655 0.09659963 0.11320642
000340 97 90 46 be 45 6a 66 be 34 96 3d bc 0b 28 a5 bd
       -0.19391094 -0.22501476 -0.011571456 -0.08064278
000350 3e 0d c6 3e 0d ac 5b 3e 17 01 c6 3d 40 44 35 be
       0.38681978 0.21452351 0.096681766 -0.17701817
000360 d2 61 84 bd b8 ca a6 be 40 19 01 3f ae dc 83 be
       -0.0646397 -0.32576537 0.50429153 -0.25754303
000370 fa 6c 0c 3f 40 1e 36 bf 7a ba 84 be 45 32 80 3e
       0.54853785 -0.7113991 -0.2592352 0.25038353
000380 7e 45 bd 3e eb 48 17 3e 17 a5 40 bf db 31 20 bf
       0.3696708 0.1477391 -0.7525191 -0.62576073
000390 5d ad f2 bd ed 8a a6 3e 5c c7 80 bd 95 12 cd 3d
       -0.11849473 0.32527867 -0.06288025 0.1001331
0003a0 87 67 d0 3b a1 9a 86 bc 8a 23 26 bd ed 0c 86 be
       0.0063599977 -0.016431155 -0.040561236 -0.26181737
0003b0 e1 95 2d be 57 09 18 3d fa d2 fe bd 48 9b e9 bc
       -0.16951706 0.037118282 -0.12442584 -0.028516427
0003c0 db 2e e1 bd e1 f1 c0 be 84 76 22 3f 9d c8 d3 3e
       -0.10995265 -0.3768454 0.6346209 0.41363993
0003d0 a6 cc b4 3d 2b bf dc 3e 64 63 54 3d 72 2b 61 be
       0.08828096 0.431146 0.0518526 -0.2198923
0003e0 34 c7 88 3e 29 7f 70 3c 3c 02 c6 bd bb 01 9e 3d
       0.2671448 0.014678755 -0.09668395 0.07715174
0003f0 6e 21 8c bf 8e 0e 68 be dc e7 d7 be 27 ab a7 bd
       -1.0947702 -0.22661802 -0.42169082 -0.081869416

bias f4 [128]
000000 34 ec 04 be ac a4 d2 be 2e 40 39 3e 0d 21 82 be
       -0.1298073 -0.4114126 0.18090889 -0.2541584
000010 ce 33 b1 3c ae 7b fd 3d 42 f0 a9 be fc 03 29 be
       0.021631148 0.12377106 -0.33191115 -0.16505426
000020 68 b6 ed be c4 94 c3 bd ac 8a f6 be 06 9b 1a bd
       -0.46428227 -0.09549859 -0.48152673 -0.037745498
000030 5b 8e cd 3d 60 7c 48 3a 34 9b 50 be 06 7b 61 3d
       0.10036918 0.0007647928 -0.20371705 0.055048965
000040 77 78 99 bc 6d 25 06 3e fd 9b a9 be c1 5d a2 bd
       -0.0187342 0.13100214 -0.33126822 -0.079280384
000050 4a 36 82 3d f3 68 19 be 7d c8 64 bc 47 9f 93 bd
       0.06358011 -0.14981441 -0.013963816 -0.07208114
000060 06 9f 08 be 3f 9e b9 be bb 61 d3 be 93 da 73 3c
       -0.13341913 -0.36253545 -0.412855 0.014883655
000070 9b 3a 09 bf 22 54 3d be 6d 89 c5 be 96 46 28 be
       -0.5360505 -0.18489125 -0.3858141 -0.16433176
000080 7e f2 22 3e 96 3e e9 3d ff ea 5f 3c fc d3 5c bd
       0.15912816 0.113888904 0.013666867 -0.0539131
000090 0b cc d6 3d 0d ed e5 bd 2d 46 58 be 07 13 37 be
       0.10488137 -0.112268545 -0.2112052 -0.17878352
0000a0 59 0a a3 bd 83 dd 22 3e 29 e9 98 3e e4 27 0d bc
       -0.07960958 0.15904813 0.29865387 -0.008615468
0000b0 ee 99 0c be 48 17 a7 3d e3 38 f3 bd c0 26 5e be
       -0.13730595 0.081587374 -0.11876085 -0.2169447
0000c0 29 63 36 bd 75 f9 c9 3d eb 0c 35 be 64 32 c5 be
       -0.04452816 0.09862033 -0.17680709 -0.38515007
0000d0 50 81 f9 3c 5f d4 56 3d 1f 62 8f 3e 13 0e 33 bd
       0.030457169 0.052448627 0.28004548 -0.043714594
0000e0 f1 8e e1 be 32 6e 20 3e 72 f1 b3 be 61 01 36 be
       -0.44054368 0.15667036 -0.35145146 -0.17773964
0000f0 23 4a b4 be 5c f9 e4 bc 46 b9 a7 bb 5c 61 69 3c
       -0.35212812 -0.027950935 -0.005118522 0.014244404
000100 c7 b5 0f 3d c6 3f cc be 71 c2 5b be 59 c1 4d be
       0.035085466 -0.39892405 -0.21460892 -0.20093288
000110 ee 61 8f bb 9c f9 d5 3d f3 56 9c bd 68 a9 8f bd
       -0.004375688 0.10448 -0.07633772 -0.070147336
000120 84 2f 30 bc 5d 43 b5 be 45 dc 59 3d 39 33 76 3d
       -0.010753516 -0.35402957 0.05318858 0.060107443
000130 e6 fd 02 bf 79 00 ce 3c 6d 68 c7 3d db 44 1b bd
       -0.5116867 0.02514671 0.097367145 -0.037907463
000140 72 9d 2b be 7c a6 18 bb c3 d8 74 bc 46 a3 a9 bc
       -0.1675928 -0.0023292592 -0.014944258 -0.020707738
000150 a7 6e 1f be ae 7e ef bc bb 79 4e be ff 85 a2 3c
       -0.15569554 -0.02923521 -0.20163624 0.019839285
000160 d3 33 83 be eb 5a c3 be ba 1c d5 bc e5 34 40 bd
       -0.25625476 -0.38155302 -0.026014674 -0.046925444
000170 97 41 bc 3d 8f 9a 50 be 31 6a 2d 3e 2e 99 d2 be
       0.09192198 -0.2037146 0.1693504 -0.41132492
000180 75 72 91 be 4c 05 f2 3d fd 2b ed bd b6 55 d4 bd
       -0.28407636 0.118174165 -0.11580656 -0.103679106
000190 72 e0 c8 bc 84 91 b6 3d 53 28 43 3d bb 07 6c bd
       -0.024521086 0.08914474 0.047645878 -0.05762456
0001a0 18 31 45 be 90 55 2a bc f1 c0 a0 bd 86 63 bb be
       -0.19257009 -0.010396376 -0.07849301 -0.36599368
0001b0 b3 65 d0 be 8a 83 55 3e b6 96 a6 bd 1f 63 28 3d
       -0.4070259 0.2085096 -0.081342146 0.041110154
0001c0 aa e0 63 3d 31 3d 02 bb fe d6 0e be 9a 6f 0d 3e
       0.05563418 -0.0019872899 -0.139492 0.13812104
0001d0 4a 98 95 be 40 2b 9c be 01 c2 c6 be 32 16 32 3e
       -0.2921775 -0.30501747 -0.38819888 0.1739128
0001e0 8d de 72 be 1a c3 94 be 60 f7 02 3e bc 3e 80 be
       -0.23717709 -0.290551 0.12789679 -0.25047863
0001f0 64 a1 1f bd aa 34 b6 3d 24 56 9a be a2 7d 9b 3d
       -0.038972273 0.088967636 -0.30143845 0.07592322

weight f4 [2, 128]
000000 fd 73 d0 3e f2 30 27 be 5d c6 a4 be 91 56 0f bf
       0.40713492 -0.16327265 -0.3218259 -0.55991465
000010 95 de d8 be 90 bd 83 be bd 13 b7 be 0e bc bc 3d
       -0.42357317 -0.25730562 -0.35757247 0.09215556
000020 d3 25 41 3e 37 46 4b bd a8 c8 83 3d 77 37 84 3c
       0.18862085 -0.04962751 0.064347565 0.016139729
000030 3b d6 f6 3c 99 18 93 bc d2 b5 7f be 4b a2 42 3f
       0.03013145 -0.017956065 -0.24971703 0.7602889
000040 f8 14 21 bf 00 bb c5 be 1d 46 96 3b a1 af 81 3e
       -0.6292262 -0.38619232 0.004585995 0.25329307
000050 7c c1 a4 3c 8d 13 42 be f4 24 59 be 75 ff 2e 3e
       0.020111792 -0.1895277 -0.21205503 0.17089637
000060 b1 e0 f3 3d 7c 20 ed 3d 0c 7e db bc c2 a4 f9 be
       0.11908091 0.115784615 -0.026793502 -0.48758513
000070 a5 a0 cc 3e 83 4b ae 3c 43 1e f5 bd b3 f1 07 be
       0.39966312 0.021276241 -0.119686626 -0.13275795
000080 e4 36 2b 3e 88 fa bd bc 1d c5 16 be e5 62 28 3e
       0.16720158 -0.023190752 -0.1472363 0.16443975
000090 5f 0c 4c be fb 1a 03 bf 93 77 af 3d c3 ff 06 bf
       -0.19926594 -0.51213044 0.08567729 -0.5273401
0000a0 51 1b 5c 3d a0 97 c0 be 54 91 8b be 82 5f 62 bc
       0.05373699 -0.3761568 -0.27259314 -0.013816716
0000b0 dc e9 94 be 12 5e de bd 05 6e fd bc 5b 49 6d be
       -0.2908467 -0.10857786 -0.03093625 -0.23172514
0000c0 5a cc 23 3c 4c c6 40 3e 26 c2 53 3e 26 55 9f be
       0.009997452 0.18825644 0.2067953 -0.3111965
0000d0 62 25 d4 3d ca 56 91 3e 8c 8b cf be 86 62 73 3d
       0.10358693 0.28386527 -0.40536153 0.05942013
0000e0 97 97 72 3e 66 96 49 3e 1a 46 e5 bc bd d7 a2 3e
       0.2369064 0.19686279 -0.027987529 0.3180522
0000f0 c6 d4 80 be 28 33 1c 3e 2f 44 62 bd de 07 9a bd
       -0.25162333 0.1525389 -0.055240806 -0.07521032
000100 43 46 7a be 53 17 b0 3d a4 f7 f7 3e 3b 88 f2 3d
       -0.24440865 0.08598199 0.48431122 0.1184239
000110 fb cb b1 3e 0d 5a 90 be 05 00 b3 3d 45 07 9e 3e
       0.34725937 -0.28193703 0.08740238 0.3086492
000120 e5 d8 94 3d 31 7a 47 be 4d cb 15 3e 04 0b 2d be
       0.07267932 -0.19480206 0.14628334 -0.16898733
000130 2e 69 70 bd d7 19 52 bd 1c 9d e5 3d d2 54 5c be
       -0.058694057 -0.051294174 0.11211607 -0.21516731
000140 4d 85 ae 3d 18 9a c6 3c 29 21 79 3e cb 15 20 3d
       0.08521519 0.0242434 0.24329056 0.039083283
000150 1a 9c 28 bd d6 91 02 bf 06 5f c3 3d 82 bc 35 be
       -0.041164495 -0.5100378 0.09539609 -0.17747691
000160 79 22 ae 3e a5 b0 30 bd 98 e9 b7 bd 12 6b b3 bc
       0.34010676 -0.04313721 -0.08980101 -0.021901641
000170 96 80 a3 3c 8c 4e e3 3c 11 40 b7 bd 24 90 4c 3f
       0.019958775 0.027747415 -0.089477666 0.7990744
000180 57 34 cb 3c 74 13 2a be 06 8a 4e be 35 8d 52 bd
       0.024805231 -0.16608983 -0.2016984 -0.051404197
000190 e5 41 7c 3d a5 1c 14 be 65 8e 46 3e 6a 49 ff 3d
       0.06158628 -0.14464052 0.19390257 0.124651745
0001a0 9d aa 67 bc 5c 48 75 be 82 8c d4 3e 38 a6 34 bc
       -0.0141397985 -0.23953384 0.4151345 -0.011025958
0001b0 a8 6d 14 3c cd ae 86 be b3 2d 8c 3d d2 b9 7d 3d
       0.009059347 -0.26305237 0.06844654 0.06194479
0001c0 6d 64 67 3c da 61 86 bd 14 f3 b6 3e 54 c5 be be
       0.0141230645 -0.065616325 0.3573233 -0.37259924
0001d0 4f d6 46 be 66 ef 11 3e 78 6f 9f 3e a7 7c 15 bd
       -0.1941769 0.1425148 0.3113973 -0.03649583
0001e0 46 a8 82 3e 39 e8 12 bf 94 ec 54 3d 02 27 f7 bd
       0.25519007 -0.57385594 0.05198343 -0.12067987
0001f0 d4 c2 2b bd 8a 77 b7 bd d6 97 87 3e f2 08 01 bf
       -0.04193385 -0.08958347 0.2648303 -0.50404274
000200 b5 a9 88 3e 45 e1 e3 bd a7 cb 12 bf c6 81 19 3e
       0.26691976 -0.11126951 -0.57342 0.14990911
000210 85 bc cf 3d 98 e6 ea bd e4 8b 5d be 61 1d 17 be
       0.10143379 -0.114697635 -0.21635395 -0.14757301
000220 fe 3c ec 3d 73 93 a7 3e 5b 8d 11 be d2 2b 11 3f
       0.11535071 0.32729682 -0.14214079 0.5670749
000230 7d 72 f0 3e 24 83 1b bf 3a 76 9e 3e a6 2b b5 3e
       0.46962348 -0.6074698 0.30949575 0.35384864
000240 85 a0 c4 bc 26 b4 04 be c4 eb 8c 3d 5a 71 ce be
       -0.024002323 -0.12959346 0.06880906 -0.40320855
000250 fa b6 c9 bd 85 1d 21 bf ad c9 03 be 23 d3 4f bd
       -0.09849353 -0.6293567 -0.12869902 -0.050738465
000260 17 09 17 3f 39 84 94 bd 2a a2 bd bd 6b 55 cd 3e
       0.58998245 -0.07251782 -0.09259446 0.4010423
000270 6d c4 77 bf e9 6b 97 bc 8f f3 92 3d bb e2 22 be
       -0.96784097 -0.018484073 0.07175361 -0.15906803
000280 14 10 0f 3f d8 d6 d4 3e 89 8b cc 3e f4 32 a6 3e
       0.5588391 0.41570163 0.39950207 0.3246075
000290 50 14 f6 3e 1c 5a 5a be bd f5 4c 3f cf e4 b2 3c
       0.48062372 -0.21323436 0.80062467 0.02183762
0002a0 0f 2f 15 bd e3 ea f9 be 56 e2 0d be 0a 7a 1a 3f
       -0.03642183 -0.48812017 -0.13855872 0.60342467
0002b0 ed 5f 67 be 8f b2 c3 3e 03 b8 a1 be 50 d3 cd 3d
       -0.22595187 0.38222167 -0.31585702 0.1005007
0002c0 27 c0 c4 bd 0b 4c 25 3d 51 bf 37 be 09 42 9e 3e
       -0.09606963 0.040355723 -0.17944075 0.30909756
0002d0 7c f0 d0 3e 50 b2 af bd fc 7e 2d be af e0 da bd
       0.40808475 -0.08578932 -0.16942972 -0.10687386
0002e0 b3 98 76 be f7 d0 44 bc 7c 02 15 bd eb b4 d4 3e
       -0.24081688 -0.012012712 -0.036379322 0.4154428
0002f0 29 d7 64 be 15 a8 2f 3e c8 85 da 3e 1d 8d e7 3c
       -0.22347702 0.17153962 0.42680192 0.02826553
000300 f1 90 1c 3e 33 c9 ac bd 55 fc d7 be be 2f a6 3e
       0.15289666 -0.08436813 -0.42184702 0.324583
000310 8a e7 b4 3e e2 9b 09 bf ce ac 4c be 71 af 80 3d
       0.353329 -0.53753483 -0.19987795 0.06283463
000320 e1 b5 8e 3e 40 ed 41 3f 10 db af bd 29 16 b2 3e
       0.27873138 0.7575264 -0.08586705 0.34782532
000330 a3 9b ca 3c 0f 53 86 bc f7 2a 79 3e 69 40 5e 3e
       0.024732416 -0.016397027 0.24332796 0.21704258
000340 a9 83 ad 3e 2c 68 db 3c e1 58 f3 3e d4 b3 5b be
       0.3388951 0.026783071 0.47528747 -0.21455318
000350 fd fe 9c 3e 79 d1 9c 3b b3 58 b2 3c a7 f7 f1 3d
       0.3066329 0.0047857133 0.02177081 0.11814814
000360 32 1c 40 3e e8 d1 84 3d d2 20 70 be 54 17 90 3e
       0.18760756 0.06485349 -0.2345002 0.28142798
000370 a4 41 a6 3e 49 1a 3f be 92 43 ec 3e 94 2e 19 be
       0.32471955 -0.1866237 0.46145302 -0.14959174
000380 95 96 30 be 08 a1 92 be aa c3 b8 3e f2 e5 04 3e
       -0.17244942 -0.28638482 0.3608678 0.12978342
000390 9c 85 15 bf 15 85 36 3d 96 19 fa 3c bd 1a 89 be
       -0.58406997 0.04456051 0.030529778 -0.26778212
0003a0 d8 97 8d be 2e a6 15 be 37 e3 8f 3e 4f e3 34 be
       -0.2765491 -0.14614174 0.2810304 -0.17664836
0003b0 89 a8 ea be 40 a3 95 3d 8e e9 23 3d 03 07 e9 3e
       -0.45831707 0.07306528 0.040017657 0.45513162
0003c0 00 06 88 bd 73 bb 13 be 8d 61 a1 be a9 02 c3 be
       -0.066417694 -0.14426975 -0.31519738 -0.38087967
0003d0 93 3a 84 be 58 5e 3f 3e 12 a9 a8 3e bc f1 8e be
       -0.2582594 0.18688333 0.3294149 -0.27918804
0003e0 56 7e 3a bd 96 71 c9 be 33 fa 8e 3e eb f4 4e be
       -0.04553064 -0.39344472 0.27925262 -0.20210616
0003f0 9b 66 56 be 77 93 76 3e 4d 84 19 3e 14 72 ca 3e
       -0.20937578 0.24079691 0.14991875 0.3954016

bias f4 [2]
000000 40 d9 aa 3d fa 25 b7 bd
       0.083422184 -0.0894279
