car_racing_ppo/models/reward_-18.pth (torch, 885789 bytes, 23 tensors)

conv_net.0.weight f4 [12, 3, 3, 3]
0.03421991 -0.06998935 0.016235825 -0.09828556 0.12515275 -0.18220153 0.054980576 -0.14156206
-0.055818938 0.05887541 0.04506993 -0.10670527 -0.16659969 0.15831955 -0.08239142 -0.15266833
0.16591063 -0.00777281 -0.0071789604 -0.13509488 0.15101108 0.06568377 -0.16169362 -0.059140276
0.12780823 0.056136705 -0.15560052 -0.06073517 0.087844275 -0.12493823 -0.075589 0.18757156
-0.058269653 -0.017739456 -0.065709256 0.06069392 0.19139929 0.069324456 -0.17510717 0.10292441
0.14115746 0.10515107 -0.12498037 0.16322559 0.101442665 -0.06654062 0.07774241 0.09437658
0.05373963 0.0774854 0.025012087 -0.1635693 0.13675672 -0.013700499 0.10079093 -0.0011200894
0.09985477 0.004834442 0.08008136 -0.12251818 -0.1803335 -0.17299666 0.09312195 0.077360705
0.04780439 0.05627518 0.0009803965 -0.12366931 -0.18137336 -0.032421798 0.045933574 0.15788482
-0.08787569 -0.07371302 -0.0029478658 0.16054496 0.06211044 -0.15810063 0.16061987 0.056729272
-0.01339457 0.18170659 -0.056804497 0.058523003 0.03993403 0.16245078 0.026397407 -0.16347186
-0.049541753 0.13735811 -0.04024152 0.17107685 -0.15300715 -0.12921122 -0.002773026 -0.17559408
0.18580678 0.02014578 0.09019761 0.08013442 -0.042109996 0.0001992728 0.059098016 0.08853859
-0.17427306 0.13549884 0.12356224 -0.16838865 0.047812536 -0.14963964 0.14261602 -0.108262286
-0.028508676 -0.17583472 -0.0183512 -0.124711215 -0.0040223924 -0.18767516 -0.18498962 0.0027996385
0.1755979 -0.16972694 0.034968432 -0.09588798 -0.021817872 -0.0048026447 -0.19177684 0.020940805
-0.15373865 0.11490427 -0.18690126 0.12688261 0.05216435 -0.038274854 -0.055390317 -0.18122885
-0.17238933 -0.10060072 -0.08222013 0.072442204 0.12657763 0.13361976 0.10535776 -0.11929823
0.021867862 0.06525714 -0.18403344 0.15502234 -0.11155758 0.10119267 -0.16659835 0.017961005
0.05134957 0.1660528 -0.07852154 0.18770914 0.18632166 0.14903298 -0.06589098 0.06893559
0.07150634 -0.09064142 -0.112408355 0.018722445 0.10150293 0.15260555 -0.036914404 -0.013691941
-0.10296107 -0.09306345 -0.010147863 0.06209626 0.0049232957 -0.041605163 0.037994 0.01946186
-0.0036529372 -0.15234503 0.046999544 0.040413037 0.1668216 -0.08648073 0.1169212 -0.052199565
-0.14737718 -0.059058443 0.026272787 -0.088829584 -0.031666048 0.0070623467 -0.020094411 0.16381887
-0.16585277 -0.016617073 0.0026462264 0.026478024 0.0940704 -0.15714696 -0.012703653 -0.09463451
-0.1722228 0.028587503 0.14929682 -0.1008085 0.09111558 -0.0032855924 0.119390726 -0.13185328
0.028969303 -0.108552545 0.14835338 0.018598743 -0.023817047 0.13200922 0.07586806 0.093426466
-0.031972043 -0.08698348 -0.17278145 -0.16034482 -0.18219166 0.007190156 0.16976461 -0.17030652
-0.13911021 -0.15675364 -0.12364325 -0.17695463 0.050891466 0.011055535 0.04937852 0.13002095
-0.15520655 -0.012320249 -0.16658881 -0.0503767 -0.09392088 0.101326875 -0.17469613 -0.055064175
0.11408095 0.1138683 0.11093427 0.057261407 0.013239482 0.06207598 0.07883238 -0.048049916
-0.12404758 -0.13364986 -0.15808147 -0.043897763 0.17383581 -0.12157151 0.10443258 -0.11543934
00000000: 2d2a 0c3d 9456 8fbd fe00 853c f149 c9bd
00000010: 0b28 003e 0a93 3abe 5033 613d a5f5 10be
00000020: 66a2 64bd 5827 713d 3f9b 383d 4b88 dabd
00000030: 1c99 2abe 851e 223e d5bc a8bd 1655 1cbe
00000040: 7ae4 293e 0eb3 febb 7c3d ebbb 5056 0abe
00000050: a6a2 1a3e 3685 863d 0393 25be 133d 72bd
00000060: 29e0 023e 9aef 653d be55 1fbe 71c5 78bd
00000070: b3e7 b33d 9ddf ffbd 68ce 9abd c212 403e
00000080: 29ac 6ebd 5652 91bc 9392 86bd 309a 783d
00000090: 2dfe 433e fbf9 8d3d 4b4f 33be 08ca d23d
000000a0: 958b 103e 7259 d73d b5f5 ffbd 9c24 273e
000000b0: 2cc1 cf3d 7346 88bd 6a37 9f3d 8248 c13d
000000c0: 161e 5c3d aab0 9e3d 26e6 cc3c b67e 27be
000000d0: f409 0c3e 0f78 60bc 7a6b ce3d f7cf 92ba
000000e0: a880 cc3d 3d6a 9e3b b201 a43d d0ea fabd
000000f0: 58a9 38be 0926 31be b9b6 be3d 4a6f 9e3d
00000100: 89ce 433d ce80 663d a680 803a 5646 fdbd
00000110: f0b9 39be b8cc 04bd d824 3c3d 8fac 213e
00000120: 2bf8 b3bd daf6 96bd fb30 41bb e665 243e
00000130: 8467 7e3d 22e5 21be 8979 243e f45c 683d
00000140: e674 5bbc 4b11 3a3e d5ab 68bd d1b5 6f3d
00000150: de91 233d 7f59 263e 603f d83c 2b65 27be
00000160: 4bec 4abd 9ba7 0c3e 4bd4 24bd c52e 2f3e
00000170: e8ad 1cbe f24f 04be a8bb 35bb efce 33be
00000180: 2244 3e3e c308 a53c 86b9 b83d 841d a43d
00000190: 887b 2cbd e3f3 5039 c310 723d b853 b53d
000001a0: a374 32be 35c0 0a3e 330e fd3d 136e 2cbe
000001b0: 14d7 433d 223b 19be ef09 123e 9eb8 ddbd
000001c0: 078b e9bc 040e 34be 4155 96bc 9868 ffbd
000001d0: 46ce 83bb eb2d 40be eb6d 3dbe 247a 373b
000001e0: f0cf 333e e6cc 2dbe 0f3b 0f3d eb60 c4bd
000001f0: 65bb b2bc 815f 9dbb 2661 44be 0d8c ab3c
00000200: aa6d 1dbe ee52 eb3d 0b63 3fbe 84ed 013e
00000210: 49aa 553d 18c6 1cbd f5e0 62bd 0e94 39be
00000220: d486 30be c007 cebd 0763 a8bd 945c 943d
00000230: 919d 013e 9ed3 083e cfc5 d73d a152 f4bd
00000240: 3b24 b33c 89a5 853d 4373 3cbe 2dbe 1e3e
00000250: 4d78 e4bd 1a3e cf3d c298 2abe f522 933c
00000260: ed53 523d bf09 2a3e e7cf a0bd d336 403e
00000270: 1bcb 3e3e 1a9c 183e daf1 86bd 1a2e 8d3d
00000280: ea71 923d 35a2 b9bd 5a36 e6bd d05f 993c
00000290: c5e0 cf3d a144 1c3e 8f33 17bd 2a54 60bc
000002a0: 41dd d2bd 0d98 bebd 3943 26bc a658 7e3d
000002b0: 9953 a13b 2d6a 2abd 999f 1b3d 7b6e 9f3c
000002c0: 1e66 6fbb 5600 1cbe 9882 403d 2488 253d
000002d0: 48d3 2a3e cf1c b1bd 6274 ef3d 36cf 55bd
000002e0: 0bea 16be 44e7 71bd 073a d73c 49ec b5bd
000002f0: 42b4 01bd 426b e73b 099d a4bc 22c0 273e
00000300: 4fd5 29be 8720 88bc 506c 2d3b 71e8 d83c
00000310: fba7 c03d 22eb 20be fc22 50bc bdcf c1bd
00000320: 2c5b 30be 5730 ea3c 44e1 183e b074 cebd
00000330: ce9a ba3d 1853 57bb 2083 f43d 8c04 07be
00000340: 0851 ed3c cc50 debd f3e9 173e 645c 983c
00000350: f81b c3bc 6d2d 073e b760 9b3d 6056 bf3d
00000360: 1ef5 02bd 6524 b2bd 9fed 30be 6f31 24be
00000370: 7390 3abe 669b eb3b c6d6 2d3e d564 2ebe
00000380: e872 0ebe 0784 20be ac38 fdbd 9833 35be
00000390: 9273 503d 4622 353c 2241 4a3d 3624 053e
000003a0: 77ee 1ebe dfda 49bc 4296 2abe cc57 4ebd
000003b0: 9759 c0bd 7784 cf3d 8be3 32be f98a 61bd
000003c0: 46a3 e93d c933 e93d 8231 e33d f08a 6a3d
000003d0: 6aea 583c 6243 7e3d df72 a13d fdcf 44bd
000003e0: a80c febd 82db 08be 1ce0 21be 24ce 33bd
000003f0: 0402 323e 7cfa f8bd c0e0 d53d 766b ecbd

conv_net.0.bias f4 [12]
0.124327466 -0.16368936 -0.14132671 0.19126311 -0.0839532 -0.1003331 0.12298163 -0.09526027
0.062902756 -0.09328741 -0.1021086 -0.1482902
00000000: 669f fe3d 2f9e 27be f3b7 10be 7ada 433e
00000010: a8ef abbd 717b cdbd cbdd fb3d d117 c3bd
00000020: 29d3 803d 780d bfbd 501e d1bd 63d9 17be

conv_net.3.weight f4 [12, 12, 3, 3]
0.09463853 0.06740009 0.0028826192 0.003688279 0.008163509 0.02543791 0.013089328 -0.050005123
-0.04284783 0.00036010658 -0.06171614 -0.032587722 -0.04002252 0.07229926 -0.0055487244 0.013117753
-0.0018912449 0.057301488 0.028909057 -0.012355844 -0.0518911 0.085160635 -0.033785414 -0.015740648
-0.02957515 0.004613053 -0.021435317 0.06384141 0.031741377 0.09058028 -0.08741162 0.0048952377
0.06759966 0.04695341 -0.058589302 0.09584869 -0.02062141 0.044534788 0.09077598 -0.06280771
0.08554014 -0.08301461 0.06986433 0.06536039 0.086576626 -0.08080091 -0.026717883 0.012946056
0.025867393 -0.017735796 -0.07309077 -0.003384793 -0.0896934 -0.067273796 0.029229727 -0.07793302
0.014126885 0.06294865 0.04255094 0.09255551 -0.024679683 -0.018276937 -0.051164303 -0.08382465
-0.046261884 0.05269082 -0.032038692 0.05180586 -0.07716534 0.043170072 0.018990451 0.0023890254
-0.051556528 -0.04207282 -0.009927828 -0.05989787 0.057392392 -0.037566617 -0.01252317 -0.061924394
-0.017417777 0.054513134 0.07841681 0.09216633 -0.011712199 0.029498788 -0.022381335 -0.07372548
-0.09028532 -0.061973535 -0.0010473294 0.054371193 0.07481117 0.088806264 -0.050483447 -0.06576321
-0.029261352 -0.058755953 0.0049048504 -0.047283128 -0.069502175 0.08684569 -0.05717574 -0.06983333
0.004469483 -0.084724024 0.07348001 -0.08102118 0.07229984 0.07277978 -0.029681085 -0.022845047
-0.063882925 0.038586497 -0.04344831 -0.03178297 0.00011867813 -0.034156945 0.005840292 -0.095648475
0.069833145 0.05581901 0.070672125 0.04636425 -0.0629853 -0.08751105 -0.041823946 -0.06359941
-0.09288533 0.0407006 0.06462192 0.07082087 0.021308701 -0.034108892 0.043503117 0.048702244
-0.046762224 0.047404125 0.07150725 0.032773588 0.0508733 -0.011420333 0.069525905 0.041222677
0.08792975 0.017224032 0.016514614 -0.03492535 0.0761699 -0.06285943 0.028959861 0.07795091
-0.093106836 -0.07887945 -0.014633876 0.084401846 0.051141463 0.04911525 0.0034157415 0.087256126
-0.09391501 -0.048687283 -0.009724197 0.08609258 -0.085538596 0.073973335 0.0055915224 0.031451035
-0.008531679 0.054982215 -0.060713053 -0.058453936 -0.04296264 -0.07489444 -0.037315186 0.07559449
0.07624397 0.05555238 0.0037657996 0.06556334 0.030151851 0.055555187 0.08152756 0.05993343
-0.061806094 0.050080933 0.038063698 0.0064054416 0.03297007 -0.015798312 0.058350284 0.017030496
0.033194777 0.05171525 -0.09382098 -0.0116984565 0.036968857 -0.082459606 0.0935763 -0.020214891
0.083388895 -0.053424638 0.02111327 -0.076484844 0.06971612 0.073042825 -0.011101774 0.028198399
-0.07946548 0.040410362 -0.0039809598 0.050510976 -0.012864624 0.00063425006 0.06668675 0.034748845
-0.07417491 0.09183619 0.060586598 0.06822426 -0.035069756 0.05365379 0.06894846 -0.047332857
0.011903373 -0.023562564 0.045823526 -0.06389725 -0.081064105 -0.016214374 0.019916281 0.024299342
0.0074522663 -0.05060099 -0.0717424 -0.024962556 0.071431756 0.031866316 -0.052952494 0.07728805
0.0031364246 0.051357474 -0.021588236 0.085976526 0.080171205 0.066917636 0.042672347 -0.08088954
-0.057666022 -0.09060692 -0.048311785 0.08408024 0.05429068 0.001333047 -0.002798388 0.04027028
00000000: d8d1 c13d 0f09 8a3d 53ea 3c3b 0eb7 713b
00000010: 3dc0 053c 2a63 d03c 9f74 563c 2cd2 4cbd
00000020: 3581 2fbd b0cc bc39 10ca 7cbd b47a 05bd
00000030: a7ee 23bd a211 943d 13d2 b5bb d8eb 563c
00000040: a6e3 f7ba f7b4 6a3d b0d2 ec3c 2a70 4abc
00000050: c38b 54bd b368 ae3d 9362 0abd 88f2 80bc
00000060: 9647 f2bc 1829 973b 1e99 afbc 49bf 823d
00000070: 3f03 023d 2782 b93d dd04 b3bd 3b68 a03b
00000080: b171 8a3d 3852 403d 56fb 6fbd 514c c43d
00000090: 3bee a8bc 1c6a 363d c2e8 b93d 54a1 80bd
000000a0: ab2f af3d 9003 aabd 0815 8f3d abdb 853d
000000b0: 164f b13d f37a a5bd 76df dabc b21b 543c
000000c0: dbe7 d33c a94a 91bc 9db0 95bd 67d3 5dbb
000000d0: 2cb1 b7bd d8c6 89bd 2e73 ef3c 599b 9fbd
000000e0: 7374 673c 39eb 803d e549 2e3d be8d bd3d
000000f0: 0c2d cabc 84b9 95bc a991 51bd 42ac abbd
00000100: 1a7d 3dbd 54d2 573d 013b 03bd 6232 543d
00000110: dd08 9ebd 1ad3 303d dd91 9b3c 3291 1c3b
00000120: f02c 53bd 8d54 2cbd 54a8 22bc 7857 75bd
00000130: 4914 6b3d 74df 19bd fb2d 4dbc 6fa4 7dbd
00000140: baaf 8ebc 2a49 5f3d fe98 a03d b3c1 bc3d
00000150: 86e4 3fbc 71a7 f13c 1059 b7bc 62fd 96bd
00000160: 83e7 b8bd f6d7 7dbd 8b46 89ba 54b4 5e3d
00000170: 9936 993d 0fe0 b53d bbc7 4ebd ddae 86bd
00000180: 81b5 efbc 15aa 70bd deb8 a03b f4ab 41bd
00000190: 2857 8ebd 27dc b13d 1c31 6abd c704 8fbd
000001a0: be74 923b ca83 adbd b07c 963d 6fee a5bd
000001b0: f011 943d 910d 953d bf25 f3bc 8925 bbbc
000001c0: 0dd5 82bd e00c 1e3d dbf6 31bd dc2e 02bd
000001d0: d6e2 f838 27e8 0bbd ec5f bf3b 59e3 c3bd
000001e0: ae04 8f3d 79a2 643d 8cbc 903d 71e8 3d3d
000001f0: 70fe 80bd fe38 b3bd 964f 2bbd 6840 82bd
00000200: aa3a bebd acb5 263d 7f58 843d 880a 913d
00000210: 968f ae3c c4b5 0bbd 5330 323d 017c 473d
00000220: bf89 3fbd d42a 423d 6572 923d 993d 063d
00000230: 8560 503d 591c 3bbc 9963 8e3d 1cd9 283d
00000240: 8314 b43d 6a19 8d3c a849 873c e20d 0fbd
00000250: f7fe 9b3d 72bc 80bd 3b3d ed3c baa4 9f3d
00000260: ccae bebd 8d8b a1bd edc2 6fbc e0da ac3d
00000270: b679 513d 132d 493d a2da 5f3b 57b3 b23d
00000280: 8356 c0bd 516c 47bd 3d52 1fbc 4e51 b03d
00000290: dc2e afbd 557f 973d 1739 b73b cdd2 003d
000002a0: 75c8 0bbc 0835 613d 40ae 78bd 656d 6fbd
000002b0: 98f9 2fbd 4262 99bd cfd7 18bd 49d1 9a3d
000002c0: cc25 9c3d e48a 633d a2cb 763b 1346 863d
000002d0: 0401 f73c d68d 633d ecf7 a63d c27c 753d
000002e0: 6328 7dbd aa21 4d3d aee8 1b3d bde4 d13b
000002f0: a00b 073d 766b 81bc b500 6f3d 8a83 8b3c
00000300: 3ff7 073d 5fd3 533d 3725 c0bd e2aa 3fbc
00000310: a86c 173d 95e0 a8bd eea4 bf3d b399 a5bc
00000320: ccc7 aa3d cbd3 5abd bdf5 ac3c 16a4 9cbd
00000330: 53c7 8e3d 7a97 953d 37e4 35bc 5400 e73c
00000340: ccbe a2bd 5685 253d b672 82bb 99e4 4e3d
00000350: 25c6 52bc cd43 263a 1093 883d ce54 0e3d
00000360: 04e9 97bd 9d14 bc3d a729 783d 29b9 8b3d
00000370: 4ea5 0fbd 14c4 5b3d da34 8d3d 19e0 41bd
00000380: 5d06 433c 4706 c1bc 73b1 3b3d 90dc 82bd
00000390: f004 a6bd 02d4 84bc 7827 a33c 6a0f c73c
000003a0: 2432 f43b fc42 4fbd aeed 92bd 467e ccbc
000003b0: d04a 923d 4186 023d b7e4 58bd 3249 9e3d
000003c0: 798c 4d3b 375c 523d d0d9 b0bc 7614 b03d
000003d0: cd30 a43d 1d0c 893d 33c9 2e3d 6aa9 a5bd
000003e0: 3533 6cbd 1f90 b9bd 94e2 45bd 4332 ac3d
000003f0: e75f 5e3d a3b9 ae3a 2965 37bb 73f2 243d

conv_net.3.bias f4 [12]
0.048315145 -0.0034499248 0.047544792 -0.020221418 -0.07280474 0.039024044 0.082777 -0.06306865
-0.059092004 -0.01471758 -0.05733606 -0.06243259
00000000: 1ae6 453d 2218 62bb 54be 423d 63a7 a5bc
00000010: a71a 95bd add7 1f3d fd86 a93d 232a 81bd
00000020: 750a 72bd 0122 71bc 37d9 6abd 51b9 7fbd

conv_net.6.weight f4 [12, 12, 3, 3]
-0.08270268 -0.033109993 -0.022411194 0.051577393 0.04983113 -0.07308873 0.013698595 -0.062297735
0.0027477555 0.04873576 -0.028216902 -0.04777686 -0.007647249 -0.09003969 0.018373637 0.07778654
-0.09338815 -0.01960762 -0.028377712 0.078744635 0.06446499 0.029693782 0.018123318 -0.073069
0.059435595 0.08782746 0.016801134 0.08449411 -0.07189075 0.001865963 -0.007818659 -0.0930671
0.032019086 -0.059358794 0.06925549 -0.058311224 -0.08069309 -0.011808406 -0.037834924 -0.054528035
0.036374193 0.08834953 -0.08961393 0.05358451 -0.004744705 -0.09513386 -0.07776019 -0.077322476
-0.0054596527 0.015518089 0.09197945 -0.044719998 -0.073728465 -0.048423108 0.061568886 0.090971455
-0.0020684935 -0.08190405 0.003344553 -0.09301761 0.02481489 -0.07096412 0.0053195013 0.08050149
0.08208361 -0.04549198 -0.015631307 -0.03980868 0.07679817 -0.06375323 -0.03162348 0.06538089
-0.0036080056 0.074119024 0.0339234 -0.03786205 -0.08006282 -0.054158546 0.04363245 -0.09275705
-0.044185866 0.0250281 0.04715633 0.0124961445 -0.017641218 -0.049963113 0.057788197 0.007956379
0.054664128 -0.06409467 0.074298166 -0.0257082 0.07057138 0.013391725 -0.057852503 0.0064799455
0.08577155 -0.03263519 0.055544727 0.075334415 0.08061862 -0.03085495 0.0025332035 -0.0724342
-0.03691724 -0.04980742 -0.0008706657 -0.07268322 -0.061448075 0.04333492 -0.059553158 0.032751597
0.0030291944 0.08456802 0.039857704 0.08782434 -0.08318319 0.081531934 -0.060727485 -0.09457851
-0.07555029 0.031530473 0.009062428 -0.055570766 -0.09176085 0.09366561 0.032739505 0.013830235
-0.06465013 -0.007968974 0.08785227 -0.020824134 0.052117053 -0.05343511 -0.023501035 -0.08678876
-0.05043012 0.049237303 -0.07956902 0.006507682 -0.071819 -0.0552927 0.0755292 0.02192345
-0.087614045 -0.05199552 -0.089711994 -0.076618426 -0.065573886 -0.04647654 -0.076882735 -0.0874787
-0.009304464 0.00043404812 0.025042256 0.047308654 -0.023527704 -0.017904958 0.05924606 -0.06769861
-0.019291092 -0.07263956 -0.070747964 -0.09325362 -0.012668483 -0.095432185 -0.081913844 0.043582506
-0.065336615 -0.008539113 -0.045024574 0.08583961 0.0078051 0.048241433 0.0060660173 0.08865916
0.08838676 -0.033446644 0.08692672 0.0097495355 0.07791711 -0.010954831 0.01985912 0.0056382897
-0.07984283 -0.073486745 0.039885752 0.050122503 -0.024351696 0.028885404 0.038282633 0.027146434
0.07710764 -0.0068463036 0.08429072 -0.03344196 0.056090936 0.0934571 0.0562232 0.093891494
0.045234296 -0.07913733 0.034532607 -0.03568548 -0.08523563 0.06302898 0.08044822 0.07547531
-0.059454072 0.017122332 0.00227614 -0.023649767 -0.054704573 0.042563066 0.06660104 0.065528326
-0.08621778 -0.014235801 0.009610921 -0.04859952 0.07035567 0.04223346 0.07736077 0.07294912
0.04474472 0.05983781 0.024154969 -0.09054822 0.057111666 -0.0366401 -0.031470582 0.02747291
-0.013710949 -0.058672387 0.006146566 -0.034902714 0.061040856 -0.030734368 0.041561216 0.07240203
0.014414954 0.003116729 0.062473424 -0.07096685 -0.008307182 -0.054339636 0.023577305 0.027405644
0.048604075 -0.09096125 -0.021544542 0.0834167 0.023940187 0.06992851 -0.021461299 0.026549753
00000000: 0660 a9bd 589e 07bd ae97 b7bc d142 533d
00000010: ba1b 4c3d 8baf 95bd 1270 603c e92b 7fbd
00000020: b013 343b 269f 473d 2227 e7bc abb1 43bd
00000030: c695 fabb bb66 b8bd 4f84 963c 8d4e 9f3d
00000040: 4942 bfbd 29a0 a0bc 6078 e8bc de44 a13d
00000050: 3806 843d 6040 f33c 5a77 943c 33a5 95bd
00000060: bd72 733d e2de b33d 88a2 893c 3f0b ad3d
00000070: 753b 93bd 5493 f43a d519 00bc f799 bebd
00000080: 7226 033d 3522 73bd d3d5 8d3d c0d7 6ebd
00000090: 6b42 a5bd 0b78 41bc cbf8 1abd ca58 5fbd
000000a0: 1bfd 143d 99f0 b43d 8287 b7bd 6e7b 5b3d
000000b0: 7879 9bbb 8bd5 c2bd bc40 9fbd 3f5b 9ebd
000000c0: e3e6 b2bb 953f 7e3c b95f bc3d 512c 37bd
000000d0: f3fe 96bd 4f57 46bd a82f 7c3d 3e4f ba3d
000000e0: 908f 07bb 50bd a7bd 4a30 5b3b 0480 bebd
000000f0: 9948 cb3c a355 91bd 364f ae3b f7dd a43d
00000100: 741b a83d cc55 3abd 3a0d 80bc 6d0e 23bd
00000110: 5c48 9d3d 0e91 82bd 9f87 01bd 6be6 853d
00000120: 4a74 6cbb b7cb 973d 43f3 0a3d 3d15 1bbd
00000130: faf7 a3bd 5ad5 5dbd f1b7 323d 69f7 bdbd
00000140: 3dfc 34bd bb07 cd3c ff26 413d a1bc 4c3c
00000150: 5184 90bc 1fa6 4cbd 51b3 6c3d 795b 023c
00000160: 7ee7 5f3d 1144 83bd a329 983d 019a d2bc
00000170: ba87 903d f768 5b3c bff6 6cbd b955 d43b
00000180: ffa8 af3d 7aac 05bd de82 633d ee48 9a3d
00000190: 601b a53d 85c3 fcbc 1a04 263b 6258 94bd
000001a0: 8836 17bd dd02 4cbd 633d 64ba f1da 94bd
000001b0: fab0 7bbd f57f 313d 03ee 73bd 8a26 063d
000001c0: 7385 463b 0032 ad3d d541 233d 3fdd b33d
000001d0: f35b aabd 37fa a63d 62bd 78bd 61b2 c1bd
000001e0: 1cba 9abd 1926 013d 947a 143c 2c9e 63bd
000001f0: 1ded bbbd c1d3 bf3d dc19 063d 3698 623c
00000200: 4a67 84bd 4d90 02bc e4eb b33d 6097 aabc
00000210: b178 553d c6de 5abd 3e85 c0bc 4ebe b1bd
00000220: d08f 4ebd 0ead 493d 15f5 a2bd 653e d53b
00000230: d715 93bd 997a 62bd 0eaf 9a3d cf98 b33c
00000240: fe6e b3bd 41f9 54bd ecba b7bd 1fea 9cbd
00000250: 9a4b 86bd 2f5e 3ebd b274 9dbd 0828 b3bd
00000260: c071 18bc f490 e339 6b25 cd3c b8c6 413d
00000270: 2cbd c0bc 6bad 92bc ffab 723d 92a5 8abd
00000280: 5a08 9ebc 0dc4 94bd 4fe4 90bd c1fb bebd
00000290: 788f 4fbc f371 c3bd 72c2 a7bd 9283 323d
000002a0: 34cf 85bd a3e7 0bbc b06b 38bd adcc af3d
000002b0: edc1 ff3b cf98 453d 71c5 c63b ef92 b53d
000002c0: 1e04 b53d 59ff 08bd a306 b23d 84bc 1f3c
000002d0: 0193 9f3d e47b 33bc 98af a23c 67c1 b83b
000002e0: a384 a3bd 3880 96bd 3e5f 233d 414d 4d3d
000002f0: 357d c7bc 15a1 ec3c 40ce 1c3d 3362 de3c
00000300: 9cea 9d3d f556 e0bb 9da0 ac3d 70fa 08bd
00000310: 9cbf 653d 7066 bf3d 4c4a 663d 2f4a c03d
00000320: 9947 393d c112 a2bd 1072 0d3d f02a 12bd
00000330: 0590 aebd 5615 813d 09c2 a43d cd92 9a3d
00000340: 1d86 73bd 2244 8c3c 4b2b 153b 28bd c1bc
00000350: e711 60bd 9c56 2e3d 2066 883d b733 863d
00000360: f392 b0bd 473d 69bc 2077 1d3c 4a10 47bd
00000370: a216 903d fefc 2c3d 536f 9e3d 5966 953d
00000380: 3d46 373d 7e18 753d a4e0 c53c 5871 b9bd
00000390: eced 693d ee13 16bd 4ce7 00bd de0e e13c
000003a0: e3a3 60bc 7552 70bd 2269 c93b 26f6 0ebd
000003b0: fa05 7a3d a4c6 fbbc 183c 2a3d 8447 943d
000003c0: b32c 6c3c 0942 4c3b 22e4 7f3d 1157 91bd
000003d0: d91a 08bc 3d93 5ebd 3125 c13c cd81 e03c
000003e0: 1115 473d e449 babd 2e7e b0bc 60d6 aa3d
000003f0: 361e c43c ae36 8f3d 9bcf afbc de7e d93c

conv_net.6.bias f4 [12]
-0.036044244 0.05891253 -0.095041685 -0.051695086 0.08777255 0.034140415 0.045503873 0.06670633
-0.023324737 0.078933865 0.02380771 -0.07670789
00000000: 21a3 13bd 444e 713d 37a5 c2bd 3abe 53bd
00000010: 18c2 b33d d2d6 0b3d 4562 3a3d 549d 883d
00000020: 8513 bfbc 14a8 a13d 6308 c33c 0719 9dbd

mu_net.0.weight f4 [128, 432]
0.039898824 0.009913679 0.013416129 -0.03196341 -0.046303626 -0.039861698 0.038390134 0.011554996
-0.02697589 -0.040344663 0.0332479 0.028520875 -0.020834705 0.033966627 0.04611573 0.028939862
-0.029248636 -0.04511491 0.016115088 0.0051522898 0.038564354 0.009020095 0.010077914 0.0323789
-0.0020510291 0.023001757 0.021239812 0.038662143 0.034428142 -0.026960324 -0.009755375 0.004913408
0.017896252 -0.01256758 -0.011939902 0.013319343 -0.04130451 -0.019818107 -0.027463084 0.010229353
-0.018585356 0.045885656 0.040411405 0.021795785 0.036341764 0.016457478 -0.008632458 -0.034273513
-0.020813003 -0.024059778 0.0024459958 8.735105e-06 -0.0011627842 -0.014379996 0.0034291798 -0.03892601
0.02861138 -0.019293662 -0.01436825 0.03624268 0.03564947 0.02135801 -0.025509696 0.044404905
-0.0032943506 -0.04547449 0.03539044 -0.02494414 0.023129256 0.03313029 0.037180096 0.004124971
0.027200464 0.03737224 -0.031888507 0.04662893 0.04166461 -0.033099193 -0.038962934 0.018122062
-0.03134112 -0.034017354 -0.0017054045 -0.021199686 -0.01747333 -0.009184415 -0.014171163 -0.012218003
-0.040357705 0.009624417 0.035519574 -0.032122962 -0.0053511034 -0.041351117 -0.013058099 -0.035016175
0.026407123 -0.0045570293 -0.042195983 -0.017818209 -0.0287636 -0.015458148 0.036889758 -0.0034164814
-0.025172433 0.022824308 -0.026343953 -0.024616363 -0.03214197 -0.027711092 -0.020094791 0.013594623
0.019924734 -0.006604588 0.0023090444 -0.029818637 0.033827495 -0.010633811 -0.003154262 0.033379354
0.036195602 -0.013125244 0.022683302 -0.027578814 0.0289209 0.040913694 0.028611869 -0.03171255
-0.018306136 -0.025082083 -0.037211575 0.019481951 -0.044347882 -0.033964545 -0.008757863 0.0096098315
0.019640611 -0.02342855 -0.0354533 -0.029827034 0.0056012557 0.028552162 -0.03995732 -0.036753267
-0.02094899 -0.04794454 0.012782613 0.0115078725 -0.03928711 -0.039023947 -0.0009252845 -0.00093823514
-0.041178368 -0.025772013 -0.022673247 -0.006192622 -0.028639732 0.0210221 0.04792574 0.016920082
-0.012443132 0.02393565 -0.03643226 -0.0058785076 -0.03491889 0.035192613 0.0075684553 -0.02983227
-0.03201494 -0.043679215 -0.014558191 -0.02040344 0.020387294 -0.011622783 -0.028358757 0.045640018
-0.004283339 0.044393364 -0.035305448 0.0048321304 -0.010174666 -0.03790782 0.021945583 -0.0029578684
-0.015130028 -2.3693185e-05 0.03374411 -0.0285406 0.044703394 0.0043711485 -0.04604458 -0.0030889236
-0.045027222 -0.0015337365 0.03048683 0.009955835 0.033803917 -0.024707155 -0.02214376 0.036259685
-0.006162281 -0.03834869 0.03486538 0.018095702 0.023369767 -0.015552375 0.022910591 0.017458264
-0.037243567 0.02017031 0.007728962 0.0058447546 0.038130615 -0.0425465 0.01648175 -0.010368312
0.047694758 0.028732605 -0.03510189 0.034459185 0.008691797 0.032665204 0.04149961 0.04101543
0.037080526 -0.03368646 -0.020478804 -0.012113687 0.03066775 -0.046974022 -0.020188428 -0.046337564
-0.037671745 0.01255612 0.016336143 0.044707667 -0.026823048 -0.03437873 0.0037801382 0.033714414
-0.044464838 -0.03823671 -0.032068223 0.042009115 -0.022101479 -0.017972574 -0.018937279 0.023093225
-0.022069648 0.009895326 -0.0038148435 0.0048819087 0.04584826 -0.019104093 0.004493687 0.016845109
00000000: f36c 233d fc6c 223c 53cf 5b3c 11ec 02bd
00000010: dfa8 3dbd 0546 23bd f93e 1d3d 2a51 3d3c
00000020: 8bfc dcbc 7240 25bd f32e 083d 9ca4 e93c
00000030: 8bad aabc 9720 0b3d d9e3 3c3d 4a13 ed3c
00000040: d69a efbc 69ca 38bd ca03 843c 8ad4 a83b
00000050: a8f5 1d3d 05c9 133c d61d 253c bd9f 043d
00000060: 8f6a 06bb 2e6e bc3c 1dff ad3c 325c 1e3d
00000070: 8604 0d3d e6db dcbc 02d5 1fbc a700 a13b
00000080: 299b 923c 40e8 4dbc 949f 43bc 6039 5a3c
00000090: eb2e 29bd 9559 a2bc 43fa e0bc 0499 273c
000000a0: 5140 98bc 99f2 3b3d 6e86 253d 138d b23c
000000b0: 1adb 143d d5d1 863c 276f 0dbc 6262 0cbd
000000c0: 0880 aabc 0319 c5bc 004d 203b fe8c 1237
000000d0: 9068 98ba 139a 6bbc 17bc 603b e170 1fbd
000000e0: 6a62 ea3c be0d 9ebc cf68 6bbc 3473 143d
000000f0: 2e05 123d fef6 ae3c b6f9 d0bc ebe1 353d
00000100: 08e6 57bb 7543 3abd 91f5 103d a757 ccbc
00000110: 9179 bd3c a1b3 073d 284a 183d c42a 873b
00000120: 82d3 de3c a213 193d 869d 02bd fafd 3e3d
00000130: 83a8 2a3d 0593 07bd 9997 1fbd b874 943c
00000140: 8c5f 00bd c855 0bbd e187 dfba f7aa adbc
00000150: 3b24 8fbc 3b7a 16bc 2a2e 68bc 052e 48bc
00000160: 1f4e 25bd bbaf 1d3c f97c 113d 5e93 03bd
00000170: 4f58 afbb ca5f 29bd a3f1 55bc 1f6d 0fbd
00000180: c053 d83c 2253 95bb b2d5 2cbd 7ef7 91bc
00000190: a4a1 ebbc 2c44 7dbc b719 173d 0ce7 5fbb
000001a0: 6b36 cebc 0bfa ba3c 46cf d7bc 41a8 c9bc
000001b0: 4ca7 03bd 5f02 e3bc d59d a4bc fbbb 5e3c
000001c0: 3239 a33c 4d6b d8bb 5653 173b 3746 f4bc
000001d0: b38e 0a3d 7039 2ebc bcb7 4ebb cab8 083d
000001e0: d741 143d 430b 57bc 55d2 b93c f7ec e1bc
000001f0: 86eb ec3c 1e95 273d 7063 ea3c 05e5 01bd
00000200: c0f6 95bc f178 cdbc 2a6b 18bd 9d98 9f3c
00000210: 20a6 35bd 681e 0bbd 247d 0fbc 8e72 1d3c
00000220: 59e5 a03c 3bed bfbc 7b37 11bd d357 f4bc
00000230: bd8a b73b 39e6 e93c 49aa 23bd 988a 16bd
00000240: 379d abbc 7e61 44bd 2a6e 513c 848b 3c3c
00000250: 85eb 20bd 93d7 1fbd cb8e 72ba e5f3 75ba
00000260: a6aa 28bd d41f d3bc 3fbd b9bc 7aeb cabb
00000270: df9d eabc 8a36 ac3c c84d 443d fc9b 8a3c
00000280: 47de 4bbc b214 c43c fe39 15bd 7fa0 c0bb
00000290: 1c07 0fbd 2126 103d ce00 f83b ce62 f4bc
000002a0: 1922 03bd fae8 32bd 7b85 6ebc 1d25 a7bc
000002b0: 4103 a73c 7c6d 3ebc a050 e8bc 07f1 3a3d
000002c0: 405b 8cbb d1d5 353d 729c 10bd d956 9e3b
000002d0: a4b3 26bc 3b45 1bbd 39c7 b33c ccd8 41bb
000002e0: f0e3 77bc bac0 c6b7 4437 0a3d facd e9bc
000002f0: e81a 373d da3b 8f3b 3e99 3cbd 8a6f 4abb
00000300: 776e 38bd a807 c9ba 84bf f93c cc1d 233c
00000310: fa75 0a3d a966 cabc d566 b5bc 0985 143d
00000320: f6ec c9bb 8413 1dbd 00cf 0e3d 703d 943c
00000330: f471 bf3c 64cf 7ebc feae bb3c a204 8f3c
00000340: b68c 18bd 353c a53c 3c43 fd3b 5b85 bf3b
00000350: d92e 1c3d 3d45 2ebd bc04 873c dadf 29bc
00000360: 945b 433d a460 eb3c 00c7 0fbd 1325 0d3d
00000370: 0a68 0e3c f3cb 053d 7ffb 293d ccff 273d
00000380: c0e1 173d d0fa 09bd 2ac3 a7bc 7c78 46bc
00000390: ef3a fb3c d567 40bd 3462 a5bc 75cc 3dbd
000003a0: b04d 1abd 2fb8 4d3c 60d3 853c 631f 373d
000003b0: 02bc dbbc b6d0 0cbd 32bc 773b 2018 0a3d
000003c0: c320 36bd 199e 1cbd f859 03bd c011 2c3d
000003d0: 290e b5bc 383b 93bc 5a22 9bbc 012e bd3c
000003e0: 68cb b4bc 0120 223c 7402 7abb 6bf8 9f3b
000003f0: 63cb 3b3d 3080 9cbc c73f 933b c1fe 893c

mu_net.0.bias f4 [128]
0.014074778 -0.02686608 0.040021207 -0.0039908187 -0.025534868 0.042061716 -0.026397211 -0.005087341
-0.04747753 -0.04566855 0.023802605 -0.03517095 0.0026348874 -0.043721404 0.0037909898 -0.04050309
0.00733454 0.015776036 0.04706979 -0.028708832 -0.001645469 -0.019951949 0.0017578208 -0.031348974
0.018863354 0.039457485 -0.0024394516 -0.046148036 0.009461822 0.040780336 -0.019636918 -0.0022825007
-0.044498827 -0.040198293 -0.045024455 0.03368982 -0.038963255 -0.02114766 -0.010488917 0.026904771
-0.03443569 -0.032377947 0.041193895 -0.03772428 -0.044968225 0.011019315 0.009969761 -0.027712233
-0.0037941327 -0.03462228 0.04091135 -0.025804555 0.004694537 0.0068446286 0.005767085 -0.020113878
0.024565449 0.014920678 0.010931448 0.042190414 0.046716277 -0.016146345 0.0110974545 -0.03264058
0.039207224 -0.04238496 -0.009573124 0.0049455147 0.033955824 -0.020031981 0.0032739264 0.021173574
-0.012434047 -0.045992553 -0.0008056141 0.047165006 -0.04190747 -0.028065445 0.0013974448 0.038458597
-0.04551885 -0.014499529 -0.0067348117 -0.041241042 -0.0022263734 0.028051084 0.024311328 0.003518544
-0.04246067 -0.024857562 -0.042668667 -0.04717375 0.025511583 0.034139056 -0.044942696 -0.024967844
0.010200509 -0.0384151 0.030949906 0.024021413 0.02909807 -0.017157897 0.011417299 -0.004573146
0.03070171 0.0026328915 -0.0036361439 -0.043067675 -0.013093091 -0.03195578 -0.029872596 0.04552619
-0.011981283 0.02905886 -0.006914257 -0.03087851 0.032752417 -0.047707714 -0.03928103 0.019746477
-0.021872325 0.036741946 0.034671083 0.0154472105 -0.047668144 -0.007503857 -0.019501738 -0.04601678
00000000: e699 663c 4116 dcbc 47ed 233d 6ac5 82bb
00000010: 802e d1bc e848 2c3d f73e d8bc b6b3 a6bb
00000020: cc77 42bd f20e 3bbd aefd c23c 6a0f 10bd
00000030: 13ae 2c3b 3715 33bd 4172 783b 91e6 25bd
00000040: 9556 f03b bf3c 813c 41cc 403d c92e ebbc
00000050: c7ac d7ba 4572 a3bc ae66 e63a c867 00bd
00000060: 5287 9a3c 2c9e 213d 35df 1fbb b905 3dbd
00000070: c205 1b3c 4809 273d 9add a0bc 0296 15bb
00000080: 6744 36bd f7a6 24bd 906b 38bd 56fe 093d
00000090: ef97 1fbd dc3d adbc b5d9 2bbc 6567 dc3c
000000a0: 700c 0dbd bd9e 04bd eeba 283d c684 1abd
000000b0: 9a30 38bd 5b8a 343c 3558 233c c404 e3bc
000000c0: fca6 78bb 18d0 0dbd a992 273d 1364 d3bc
000000d0: a1d4 993b e848 e03b d1f9 bc3b dcc5 a4bc
000000e0: 7b3d c93c dc75 743c d119 333c dbcf 2c3d
000000f0: 9159 3f3d 5745 84bc 19d2 353c 21b2 05bd
00000100: c197 203d da9b 2dbd 98d8 1cbc fc0d a23b
00000110: 4315 0b3d 1c1a a4bc 5f8f 563b 3474 ad3c
00000120: 2cb8 4bbc b062 3cbd d92f 53ba 1830 413d
00000130: 2ba7 2bbd 81e9 e5bc 772a b73a c386 1d3d
00000140: f971 3abd 6f8f 6dbc b2af dcbb 5eec 28bd
00000150: 59e8 11bb 63cb e53c 8d28 c73c 5f97 663b
00000160: 3deb 2dbd 16a2 cbbc 57c5 2ebd 4339 41bd
00000170: abfd d03c 65d5 0b3d d515 38bd 5d89 ccbc
00000180: 0920 273c 2759 1dbd a88a fd3c 8ec8 c43c
00000190: 135f ee3c b88e 8cbc 9f0f 3b3c 54da 95bb
000001a0: 2782 fb3c 978c 2c3b 5f4c 6ebb bb67 30bd
000001b0: 6784 56bc 10e4 02bd 60b7 f4bc ac79 3a3d
000001c0: 254d 44bc d90c ee3c fe90 e2bb eef4 fcbc
000001d0: 6627 063d 2a69 43bd 25e5 20bd 5dc3 a13c
000001e0: 972d b3bc b97e 163d 4403 0e3d 4c16 7d3c
000001f0: ac3f 43bd eae2 f5bb 1cc2 9fbc 177c 3cbd

mu_net.2.weight f4 [128, 128]
0.082514025 -0.08235198 -0.07392808 -0.009673165 -0.07917355 0.035615686 -0.04924993 -0.013736764
-0.049105894 -0.045972917 0.03205746 0.05343111 -0.013094699 0.0018098067 -0.009852626 -0.012943866
-0.007239427 0.03504301 0.059220567 0.05752773 0.06042932 -0.0018813404 0.013628046 0.01575722
0.05671398 -0.022134766 -0.060891878 0.06673889 -0.003556056 -0.0061514378 -0.08238867 -0.020007182
-0.022572502 -0.061465856 -0.04842107 -0.033161372 0.061582204 0.08726005 0.077306345 0.015465796
0.08161984 0.04331681 -0.014811076 -0.044738814 -0.0019385442 -0.03853245 -0.06673247 0.05132105
0.0125674 -0.071564786 -0.0013232108 -0.06707326 -0.03487229 0.08746335 -0.015356552 -0.024432654
0.025664901 0.08319512 -0.05056172 -0.0709152 -0.0066514155 0.029946622 0.08330815 0.045614816
-0.06973966 -0.074596584 -0.079258956 -0.028636992 -0.08457613 0.05152177 0.0133474115 0.063881285
0.014093136 0.077212416 0.03111254 0.021196757 0.04420624 -0.0351259 0.032771662 0.06104719
-0.0142913 0.03443608 0.020832723 0.0011104852 -0.01240013 0.041994087 -0.018200884 0.014085613
-0.007669546 0.03448081 0.040293492 0.026070818 0.054586828 -0.021585213 -0.060769886 -0.0038707033
-0.08445031 -0.074579164 0.033144943 0.0539861 -0.017405499 0.07961468 0.051006243 -0.06285212
0.0037959875 0.06499654 -0.039975114 0.07961617 0.0533756 -0.0059658126 0.0010158444 -0.009450145
-0.06761674 0.0076871742 0.0209524 0.07944609 -0.0036955515 -0.041215822 -0.020676201 -0.07639495
0.08764177 0.042974062 0.08767186 -0.03953954 -0.04098956 -0.08577539 0.059049018 0.011644416
-0.0048298705 -0.062261567 0.021698505 -0.06668611 -0.008308144 0.057338923 0.08255679 0.015710795
0.04256306 0.00514299 -0.07964941 -0.041064613 0.019928506 0.04533801 -0.07583142 0.03221604
-0.0877045 0.024113381 0.05082284 -0.001445521 -0.0054927035 0.015956407 -0.07316462 0.04553576
0.020671174 0.0243128 -0.032350887 0.057172198 -0.037201274 0.06790882 -0.02276483 -0.031757176
-0.0006765833 -0.0619463 -0.016524779 0.06039161 0.00879807 0.065108925 -0.025194217 -0.06269406
0.05296918 0.038138714 -0.04476584 0.059521087 0.072960354 -0.08090697 -0.063319296 0.03717411
0.06734959 -0.00042340724 0.07042742 -0.0054012556 0.06806575 -0.07513615 0.07920833 -0.055439014
-0.0077875047 0.03376772 0.052461226 0.048658136 -0.016038172 0.008949925 0.019252712 0.0014367439
0.013440335 -0.0053958395 0.063941956 0.013031826 0.057645 0.021383425 0.007927348 -0.049685538
-0.018418089 -0.050973684 -0.07156483 -0.025146294 -0.0613631 0.08784761 0.024745079 -0.088344626
-0.014280353 -0.085631765 -0.022786567 -0.08322658 -0.016199235 0.009787584 0.030919539 -0.08098359
-0.005215135 0.08075149 0.013306698 0.04722686 0.014853687 0.03374988 -0.010432367 -0.0011581216
0.07298368 0.076694675 0.06219489 0.035437196 0.039823946 -0.0544259 -0.051654987 0.064236045
-0.054948173 0.052576687 -0.0045147073 -0.068945035 0.0868785 -0.027087031 0.014116854 -0.055213254
0.07059403 0.025998442 0.070164494 -0.0025601997 0.08420504 -0.08169857 -0.07159899 -0.045939274
-0.082014844 -0.029932786 0.05847436 0.058051087 -0.003838777 -0.0027668984 0.014437182 0.08523267
00000000: 1dfd a83d 28a8 a8bd 9b67 97bd 327c 1ebc
00000010: be25 a2bd c1e1 113d 4bba 49bd 2a10 61bc
00000020: 4323 49bd 194e 3cbd af4e 033d 94da 5a3d
00000030: 268b 56bc 0937 ed3a e96c 21bc 8212 54bc
00000040: b738 edbb 4289 0f3d 4491 723d 32a2 6b3d
00000050: bc84 773d 4f97 f6ba 2b48 5f3c 4915 813c
00000060: eb4c 683d f853 b5bc c369 79bd 66ae 883d
00000070: b80c 69bb 0092 c9bb 64bb a8bd 1ae6 a3bc
00000080: f8e9 b8bc 9fc3 7bbd 2c55 46bd 38d4 07bd
00000090: 9f3d 7c3d 66b5 b23d ca52 9e3d 4064 7d3c
000000a0: 4d28 a73d f86c 313d 28aa 72bc 0c40 37bd
000000b0: c016 feba 34d4 1dbd 09ab 88bd 0536 523d
000000c0: 7fe7 4d3c 8f90 92bd 966f adba b55d 89bd
000000d0: 3fd6 0ebd fc1f b33d 0c9a 7bbc fd26 c8bc
000000e0: 333f d23c 3462 aa3d ce19 4fbd fd3b 91bd
000000f0: 1ef4 d9bb 9e52 f53c 779d aa3d 9ad6 3a3d
00000100: abd3 8ebd 18c6 98bd 8552 a2bd 2098 eabc
00000110: 4036 adbd 7e08 533d 1aaf 5a3c 31d4 823d
00000120: e6e6 663c 8b21 9e3d badf fe3c d2a4 ad3c
00000130: 9a11 353d 2de0 0fbd 943b 063d 9e0c 7a3d
00000140: 0f26 6abc d90c 0d3d 63a9 aa3c b38d 913a
00000150: ea29 4bbc fe01 2c3d 051a 95bc 58c7 663c
00000160: d150 fbbb c03b 0d3d ca0a 253d 7892 d53c
00000170: 7096 5f3d 79d3 b0bc d8e9 78bd a0ab 7dbb
00000180: 49f4 acbd f6bc 98bd fec2 073d 8720 5d3d
00000190: fa95 8ebc 050d a33d eceb 503d 9db8 80bd
000001a0: 1ac6 783b e81c 853d f2bc 23bd cd0d a33d
000001b0: 60a0 5a3d dd7c c3bb 1526 853a c8d4 1abc
000001c0: a57a 8abd b1e4 fb3b 5ea4 ab3c a2b4 a23d
000001d0: 1131 72bb ecd1 28bd 2361 a9bc f574 9cbd
000001e0: 877d b33d 9205 303d 4e8d b33d 36f4 21bd
000001f0: abe4 27bd 02ab afbd 62dd 713d 38c8 3e3c
00000200: e443 9ebb fc05 7fbd 10c1 b13c ba92 88bd
00000210: e21e 08bc 38dc 6a3d 8913 a93d edb3 803c
00000220: 9a56 2e3d 8786 a83b 3b1f a3bd 5e33 28bd
00000230: 1b41 a33c 59b4 393d 814d 9bbd f7f4 033d
00000240: 6b9e b3bd 6d89 c53c 9c2b 503d a377 bdba
00000250: 23fc b3bb 03b7 823c 55d7 95bd b483 3a3d
00000260: 9856 a93c a32b c73c 5d82 04bd 652d 6a3d
00000270: 5d60 18bd c813 8b3d 4f7d babc d013 02bd
00000280: bd5c 31ba 67bb 7dbd f95e 87bc 315d 773d
00000290: c825 103c d457 853d 1a64 cebc be65 80bd
000002a0: 36f6 583d 5737 1c3d 635c 37bd 62cc 733d
000002b0: 3d6c 953d 8eb2 a5bd 8cad 81bd e143 183d
000002c0: 95ee 893d c2fc ddb9 403c 903d 04fd b0bb
000002d0: 0e66 8b3d fbe0 99bd fa37 a23d 0514 63bd
000002e0: 532e ffbb 0550 0a3d 95e1 563d c14d 473d
000002f0: 7c62 83bc b5a2 123c ddb7 9d3c 2051 bc3a
00000300: da34 5c3c 95cf b0bb 00f4 823d 7183 553c
00000310: 2a1d 6c3d 4b2c af3c b5e1 013c 1083 4bbd
00000320: 88e1 96bc c8c9 50bd 9590 92bd 9aff cdbc
00000330: e057 7bbd 73e9 b33d 31b6 ca3c 07ee b4bd
00000340: 24f8 69bc b55f afbd e5aa babc b272 aabd
00000350: 42b4 84bc 1a5c 203c f94a fd3c b9da a5bd
00000360: b9e3 aabb 0a61 a53d 5604 5a3c f470 413d
00000370: e15c 733c 503d 0a3d 85ec 2abc 1dcc 97ba
00000380: 7878 953d 1912 9d3d 12c0 7e3d 9826 113d
00000390: 6f1e 233d b1ed 5ebd 2e94 53bd 308e 833d
000003a0: 5611 61bd a75a 573d 1cf0 93bb 0e33 8dbd
000003b0: 5bed b13d 9fe5 ddbc 614a 673c 4b27 62bd
000003c0: 9a93 903d affa d43c 67b2 8f3d 06c9 27bb
000003d0: b173 ac3d 9451 a7bd 7ea2 92bd d22a 3cbd
000003e0: 66f7 a7bd 9a35 f5bc cf82 6f3d fac6 6d3d
000003f0: fe93 7bbb da54 35bb ee89 6c3c 778e ae3d

mu_net.2.bias f4 [128]
-0.0006168718 -0.009711835 0.04385834 0.049915418 -0.048507944 -0.049842272 0.036390156 -0.07263444
0.034852702 -0.059221294 0.046574607 -0.008639113 0.029677534 0.014551916 0.028258303 -0.05147579
-0.08058705 -0.06259124 0.08791804 -0.07012878 0.04312517 -0.07166467 0.07341739 -0.028457941
-0.030470727 0.04668637 -0.06472546 -0.03297518 -0.0060769645 -0.03289471 0.032018464 0.021972805
0.01750938 -0.005108377 -0.08106717 -0.017001048 -0.073127 0.06263379 -0.057257693 0.07340267
-0.00027420738 0.06497067 -0.071943216 0.070762955 0.02205181 -0.05695043 0.014367429 -0.08001692
0.009468616 -0.07747129 -0.00080857676 0.011261543 -0.05070029 0.0116797555 -0.075702 0.036300827
-0.04883805 0.08723917 0.019539384 -0.031127565 -0.053970315 -0.03867461 -0.046206728 -0.03254056
0.010266172 -0.007244369 -0.042034335 -0.07140098 0.026537467 0.06792947 0.039975896 0.0855491
0.03590882 -0.007405538 0.08736599 0.044690914 0.048281036 -0.07102736 0.029003322 0.07313445
-0.043234184 -0.08702587 0.08329961 0.058976684 0.055903643 -0.05835211 -0.0243562 -0.044981867
-0.00652744 -0.013566617 -0.08800213 -0.03469126 0.0039889356 0.004651147 0.064197734 -0.07480061
0.06488652 0.0055589057 -0.04061208 0.018503867 0.08032869 0.03723672 0.036203858 0.014964975
-0.02382378 0.07347579 0.03385102 0.08688339 0.081952386 -0.08158776 -0.060831472 -0.055405226
0.00698231 0.07109102 -0.026417129 0.035681438 0.006510613 -0.030185213 -0.06507275 0.035839457
0.07201569 0.062479362 -0.02659996 0.015046319 -0.035197254 -0.012798049 0.08043646 -0.046769768
00000000: 91b5 21ba 631e 1fbc cda4 333d 1c74 4c3d
00000010: 44b0 46bd 6927 4cbd d80d 153d 5ec1 94bd
00000020: b5c1 0e3d 0792 72bd 04c5 3e3d 118b 0dbc
00000030: 4d1e f33c 296b 6e3c f57d e73c 47d8 52bd
00000040: d30a a5bd d62f 80bd 600e b43d ae9f 8fbd
00000050: 05a4 303d edc4 92bd db5b 963d a120 e9bc
00000060: bf9d f9bc 353a 3f3d c88e 84bd fb10 07bd
00000070: 4621 c7bb 9abc 06bd cb25 033d 5000 b43c
00000080: d56f 8f3c 2c64 a7bb 8b06 a6bd c845 8bbc
00000090: 9cc3 95bd 2546 803d 0b87 6abd 2454 963d
000000a0: 7ec3 8fb9 580f 853d f756 93bd 2bec 903d
000000b0: ffa5 b43c db44 69bd 5d65 6b3c e9df a3bd
000000c0: 4122 1b3c 45a9 9ebd abf6 53ba 5682 383c
000000d0: 1bab 4fbd 725c 3f3c a609 9bbd 2db0 143d
000000e0: 680a 48bd 73aa b23d 0f11 a03c 3cff febc
000000f0: fa0f 5dbd 4569 1ebd 4443 3dbd 4049 05bd
00000100: 7233 283c 2c62 edbb 322c 2cbd ad3a 92bd
00000110: 1a65 d93c 9b1e 8b3d c4bd 233d 5e34 af3d
00000120: 2015 133d 28aa f2bb f1ec b23d d20d 373d
00000130: 56c2 453d cb76 91bd 6098 ed3c 84c7 953d
00000140: 5416 31bd 9f3a b2bd fc98 aa3d 8991 713d
00000150: 38fb 643d 9f02 6fbd a786 c7bc e83e 38bd
00000160: 23e4 d5bb 8446 5ebc 763a b4bd 6c18 0ebd
00000170: 9eb5 823b a668 983b 1a7a 833d 1031 99bd
00000180: 39e3 843d 7b27 b63b da58 26bd 6c95 973c
00000190: 5e83 a43d 8885 183d 7f4a 143d a82f 753c
000001a0: 162a c3bc 7a7a 963d 5ea7 0a3d ebef b13d
000001b0: a7d6 a73d 7c17 a7bd 6c2a 79bd 97f0 62bd
000001c0: ddcb e43b 2b98 913d bc68 d8bc b326 123d
000001d0: fb56 d53b fb46 f7bc dd44 85bd 65cc 123d
000001e0: f67c 933d 5cea 7f3d 29e8 d9bc d684 763c
000001f0: ff2a 10bd e8ae 51bc dfbb a43d a891 3fbd

mu_net.4.weight f4 [3, 128]
-0.06693351 -0.03259027 0.050693408 0.0225163 -0.027188394 0.009305381 0.028951965 -0.032097545
0.018574221 0.039141115 0.077586986 0.0090979235 -0.06471208 -0.068895705 0.080596596 0.0007131352
-0.022395454 0.007815164 -0.035651397 -0.0171083 0.08449564 0.043664146 -0.03070557 0.03528021
-0.012696812 0.020357328 -0.012749569 0.000998638 0.016990343 0.04108522 -0.036910765 0.043819096
0.036688935 0.012838625 -0.010717965 0.0764628 0.075562894 0.08662864 -0.088089146 0.042983294
-0.016262708 0.07777599 -0.006702961 -0.043200593 -0.008654613 -0.033186648 -0.054591455 -0.025066322
0.056546275 -0.017758626 -0.071847275 0.07270036 0.06770201 0.004313087 0.06239926 -0.053009186
0.0033291164 0.07140702 0.019192947 0.021252621 0.023273678 -0.03388601 -0.058305632 0.0626103
0.0019913227 0.07630259 -0.088170215 0.057920158 0.007823962 0.082072094 0.08786052 -0.012720782
-0.067262344 0.07253048 0.08776525 0.06584494 -0.03065985 0.08162344 0.029728975 -0.022062896
0.032337252 0.0006972669 -0.05406128 0.038090467 -0.07784512 -0.028799973 -0.002902369 -0.08190958
0.00078333076 0.072368674 -0.006860727 0.05125356 -0.013716913 -0.06369148 -0.029145347 -0.009079833
-0.053729117 0.0004975225 0.03816059 -0.042892743 -0.062034763 -0.0204418 0.005282865 -0.043003008
0.04015641 0.06686571 0.04550417 -0.055368926 0.019966131 0.026161665 0.020510279 -0.019674223
0.00062185567 -0.014279131 0.0593516 0.033994015 -0.06592068 -0.04579569 0.07185752 0.05745218
-0.058670845 -0.041874558 0.015243672 -0.07029683 0.009296172 0.018629592 -0.043269776 -0.035626825
0.014989526 -0.056931816 0.081617504 -0.014365785 -0.087662876 0.051346924 0.04157405 -0.0026007134
0.08798281 -0.028720401 0.070537366 0.06977011 0.006294769 0.024237556 0.017780669 -0.042340145
0.0045188162 0.045843 0.06533151 0.05294721 0.026907401 -0.05337618 -0.035282463 0.07721152
-0.04987988 0.07140274 0.03829157 -0.037345245 0.05600415 -0.035045937 0.009464064 0.07543243
-0.06748556 -0.005560539 0.061415818 0.07739297 -0.013258987 0.06338724 0.05179581 -0.0011080722
-0.073594116 0.0268481 0.026825245 0.048709206 -0.042430677 -0.07719505 -0.06358176 -0.058121324
0.04398872 0.020910326 0.014082547 -0.040931143 0.015579909 0.018559333 0.0680082 0.026319241
0.07257642 0.057919156 -0.038352285 -0.028193133 -0.046284087 -0.06176172 -0.0632923 0.023476552
-0.05123114 0.04905679 0.061920505 -0.059592787 -0.054094005 -0.025556384 0.0035206105 -0.08276241
-0.012258579 -0.05238435 -0.068454236 -0.062278364 0.07403111 0.0626093 0.038470622 0.042066928
-0.08513463 -0.026874568 0.05920514 -0.052847017 -0.043556437 -0.028033555 0.016934603 0.035376556
-0.058466516 0.05457745 0.025420228 -0.01939207 -0.030190166 0.0149252 0.084562905 0.04793539
0.036648013 0.07618303 -0.07204286 0.027798733 0.009021027 0.081986085 0.013850898 0.059772406
-0.033587065 -0.06578851 0.014990138 -0.066568725 0.025715731 -0.053114794 -0.07948835 0.079023905
0.009845999 0.031650502 0.07840213 -0.03852127 0.086382374 -0.036352858 -0.06280833 0.06082636
0.041936968 -0.0016894143 -0.07460181 -0.03336885 -0.003546415 0.057899855 0.020682838 -0.03878121
00000000: 7014 89bd 607d 05bd e4a3 4f3d 1b74 b83c
00000010: 32ba debc 9975 183c ac2c ed3c b778 03bd
00000020: f728 983c 6f52 203d ede5 9e3d 750f 153c
00000030: c487 84bd 3119 8dbd d40f a53d b1f1 3a3a
00000040: ac76 b7bc 2c0b 003c 3307 12bd b526 8cbc
00000050: 0d0c ad3d 2dd9 323d 3f8a fbbc fb81 103d
00000060: 4a06 50bc 69c4 a63c 91e3 50bc bbe4 823a
00000070: 552f 8b3c fa48 283d be2f 17bd a77b 333d
00000080: 2347 163d 1959 523c 679a 2fbc 8798 9c3d
00000090: b8c0 9a3d 5b6a b13d 1568 b4bd 400f 303d
000000a0: 5f39 85bc 0549 9f3d 83a4 dbbb 1bf3 30bd
000000b0: 14cc 0dbc b9ee 07bd 4a9b 5fbd e357 cdbc
000000c0: 119d 673d 8a7a 91bc aa24 93bd ede3 943d
000000d0: 5aa7 8a3d cc54 8d3b 5e96 7f3d 2920 59bd
000000e0: 4e2d 5a3b d83d 923d 873a 9d3c fa19 ae3c
000000f0: 71a8 be3c 0fcc 0abd e3d1 6ebd d439 803d
00000100: da80 023b 8844 9c3d 9692 b4bd b03d 6d3d
00000110: 1330 003c 6a15 a83d 37f0 b33d d46a 50bc
00000120: d7c0 89bd dc8a 943d 44be b33d b6d9 863d
00000130: 5e2a fbbc 312a a73d 2e8a f33c 3fbd b4bc
00000140: 1174 043d cac8 363a 5c6f 5dbd c004 1c3d
00000150: 436d 9fbd eced ebbc ac35 3ebb 36c0 a7bd
00000160: 7058 4d3a 0736 943d f3cf e0bb 41ef 513d
00000170: e7bc 60bc ae70 82bd 39c2 eebc 94c3 14bc
00000180: 1013 5cbd 2b6c 023a 474e 1c3d 4db0 2fbd
00000190: 2a18 7ebd 9075 a7bc e21b ad3b ec23 30bd
000001a0: 0c7b 243d e4f0 883d 9562 3a3d 87ca 62bd
000001b0: 0390 a33c fd50 d63c 2c05 a83c d62b a1bc
000001c0: 0704 233a 04f3 69bc aa1a 733d 4f3d 0b3d
000001d0: 6c01 87bd 4394 3bbd 092a 933d fa52 6b3d
000001e0: d750 70bd a884 2bbd 98c0 793c c9f7 8fbd
000001f0: f94e 183c 169d 983c a63b 31bd 6fed 11bd
00000200: a196 753c 5631 69bd 1427 a73d 785e 6bbc
00000210: 9888 b3bd 2751 523d 8d49 2a3d bb70 2abb
00000220: 5530 b43d 0c47 ebbc e575 903d a2e3 8e3d
00000230: 5944 ce3b d78d c63c c4a8 913c dc6c 2dbd
00000240: 9412 943b dfc5 3b3d 87cc 853d 2cdf 583d
00000250: e96c dc3c fba0 5abd 5884 10bd 1321 9e3d
00000260: d84e 4cbd 9a3b 923d 9fd7 1c3d 54f7 18bd
00000270: 9c64 653d 548c 0fbd 290f 1b3c 517c 9a3d
00000280: df35 8abd 2f35 b6bb 278f 7b3d 3580 9e3d
00000290: 393c 59bc 2bd1 813d d827 543d bc3c 91ba
000002a0: 83b8 96bd 8cf0 db3c 9ec0 db3c 4e83 473d
000002b0: cacb 2dbd 7018 9ebd 2737 82bd a010 6ebd
000002c0: 842d 343d 224c ab3c 7cba 663c 6aa7 27bd
000002d0: e042 7f3c be09 983c e247 8b3d 739b d73c
000002e0: f2a2 943d a33c 6d3d 4917 1dbd 49f5 e6bc
000002f0: 6294 3dbd dbf9 7cbd 659f 81bd e651 c03c
00000300: bed7 51bd c6ef 483d 5ba0 7d3d 9117 74bd
00000310: ad91 5dbd 9f5b d1bc 0bba 663b 577f a9bd
00000320: 35d8 48bc f990 56bd bc31 8cbd 9917 7fbd
00000330: 9f9d 973d 4e39 803d 5f93 1d3d 5f4e 2c3d
00000340: 115b aebd 0e28 dcbc 1781 723d 1d76 58bd
00000350: 3c68 32bd a0a6 e5bc 70ba 8a3c 02e7 103d
00000360: 967a 6fbd 9b8c 5f3d 153e d03c 1edc 9ebc
00000370: 5e51 f7bc d388 743c 512f ad3d e657 443d
00000380: 3a1c 163d d905 9c3d 358b 93bd 2bba e33c
00000390: eecc 133c 52e8 a73d e0ee 623c e9d3 743d
000003a0: 9792 09bd 20bc 86bd 3299 753c 2f55 88bd
000003b0: cca9 d23c e68e 59bd caca a2bd 49d7 a13d
000003c0: 1d51 213c f5a3 013d 4c91 a03d 7bc8 1dbd
000003d0: 3ee9 b03d bce6 14bd a7a1 80bd 1025 793d
000003e0: 19c6 2b3d 566f ddba d5c8 98bd c6ad 08bd
000003f0: f86a 68bb 6628 6d3d 0e6f a93c 0cd9 1ebd

mu_net.4.bias f4 [3]
0.0799216 -0.08118043 0.01839887
00000000: f0ad a33d ed41 a6bd 3ab9 963c
