car_racing_ppo/models/reward_513.pth (torch, 885789 bytes, 23 tensors)

conv_net.0.weight f4 [12, 3, 3, 3]
-0.04822264 -0.16027388 0.11037221 -0.084888935 0.11631808 -0.056984447 0.18373784 -0.17569916
-0.0008224782 -0.19730292 0.087292016 0.14067885 -0.46897936 0.36055705 0.17817813 -0.471362
0.20953819 0.18894798 -0.3930595 -0.19989082 0.22780252 -0.5188556 -0.12778431 -0.0098782405
-0.0322566 -0.0527925 -0.23027109 -0.055412885 0.09986399 -0.3897335 -0.17054364 0.03697685
-0.305036 0.10602041 -0.06011047 0.026603866 0.3609553 0.25609976 -0.13465802 0.23180819
0.22340798 0.20742472 0.0076642707 0.3091721 0.26205128 -0.04766032 0.088161886 -0.0977351
-0.095326595 -0.07598417 -0.14869557 -0.24827828 0.11739027 -0.0063241147 0.17430799 -0.2077682
0.39059374 0.05474739 -0.09826963 -0.15775822 -0.2236263 -0.33859736 0.16417919 -0.07922931
-0.2112674 0.19360088 -0.2148152 -0.4097473 -0.18160956 0.019031106 0.16276912 0.487922
0.23812455 0.12410641 0.50085026 0.18498139 -0.066298984 -0.13681836 0.12970595 -0.022631163
0.060043104 0.35199666 -0.13062355 -0.01987435 0.29121462 0.27971688 0.077446885 -0.029946242
0.020929053 0.16255794 -0.021221986 0.32153472 -0.19462001 -0.22117524 -0.12387872 -0.50189406
0.11407597 -0.037927985 0.17959298 0.05378916 -0.055592198 -0.35628358 0.01583216 0.06322705
-0.538175 0.020792129 0.051951095 -0.27768457 0.04272324 -0.14963964 0.14267951 -0.11744764
-0.028508676 -0.17578189 -0.030826911 -0.12006218 -0.0040223924 -0.19276449 -0.18498962 0.0027996385
0.1666142 -0.16972694 0.034968432 -0.10799691 -0.01693312 -0.0048026447 -0.19686617 0.020940805
-0.15373865 0.10571892 -0.18690126 0.12688261 0.039688624 -0.033625785 -0.055390317 -0.023504438
-0.15247855 -0.37067214 0.13345137 0.0963286 0.09958841 0.21109636 0.21587987 -0.29357132
0.083536685 -0.18125151 -0.47757176 0.399528 -0.25489724 -0.046989027 -0.1174802 -0.010425061
-0.35351607 0.5158131 0.0688224 0.075873226 0.32887378 0.031983346 -0.18320082 0.008299312
-0.045068435 -0.7184761 0.01776525 0.22298358 0.2854498 0.24449942 0.13068397 0.19313008
0.08746623 0.1672918 0.19809671 -0.08332618 -0.13434681 -0.22417007 -0.18963988 -0.09824962
-0.29738173 -0.2784222 -0.07188908 -0.072746165 0.06543283 -0.14032339 0.004516698 -0.3928707
-0.26446185 -0.2295332 -0.2323835 -0.24446252 -0.08591164 0.18205102 0.07117811 0.2661984
-0.073103376 0.08773993 0.0573778 0.17136002 -0.10899437 -0.16982673 0.130218 -0.19000311
-0.40424508 0.19137198 0.19842224 -0.10412153 0.3425592 -0.04584369 0.10736088 -0.07388473
0.0010107493 -0.13071176 0.10519042 -0.061973255 -0.08356652 0.20426287 -0.16409253 0.07400684
0.23221236 -0.5674382 -0.5734821 -0.030920876 -0.14389914 0.08676488 0.35146388 0.07859329
-0.1813142 -0.10950505 -0.6820013 -0.70386875 -0.21162996 -0.19631378 -0.04088756 0.008174525
-0.28480586 -0.1991985 -0.08182468 -0.74885297 -0.30598062 0.2542585 0.014757242 0.2115666
0.31271005 0.3446294 0.25644723 0.1556453 -0.24926625 0.041300543 0.08842953 -0.012927992
-0.482022 -0.13524957 -0.38066643 0.35818937 0.24000771 -0.3046984 0.06828591 -0.05920174
00000000: 1a85 45bd d61e 24be d30a e23d 40da adbd
00000010: 2c38 ee3d 8668 69bd c625 3c3e 7bea 33be
00000020: 949b 57ba c709 4abe 28c6 b23d 1e0e 103e
00000030: 101e f0be ef9a b83e 5474 363e 5c56 f1be
00000040: 2e91 563e 947b 413e 183f c9be 2eb0 4cbe
00000050: 1045 693e b8d3 04bf e4d9 02be 58d8 21bc
00000060: 7f1f 04bd f33c 58bd 2fcc 6bbe 9ff8 62bd
00000070: 7e85 cc3d 268b c7be fea2 2ebe 0a75 173d
00000080: ae2d 9cbe 3b21 d93d 6536 76bd 5af0 d93c
00000090: 22cf b83e 821f 833e cbe3 09be 205f 6d3e
000000a0: 10c5 643e 2567 543e 9024 fb3b ce4b 9e3e
000000b0: 962b 863e 7837 43bd 388e b43d 5729 c8bd
000000c0: 973a c3bd 979d 9bbd a743 18be a93c 7ebe
000000d0: 4f6a f03d 853a cfbb cb7d 323e 30c1 54be
000000e0: e7fb c73e cd3e 603d 9641 c9bd 5f8b 21be
000000f0: 4bfe 64be a25c adbe 971e 283e fa42 a2bd
00000100: 7b56 58be 4f3f 463e 84f8 5bbe 66ca d1be
00000110: dbf7 39be 1fe7 9b3c f3ac 263e ead0 f93e
00000120: ecd6 733e 802b fe3d b937 003f c36b 3d3e
00000130: c3c7 87bd 1d1a 0cbe a3d1 043e fd64 b9bc
00000140: c2ef 753d e838 b43e 2ec2 05be 88cf a2bc
00000150: 151a 953e 0d37 8f3e 799c 9e3d d251 f5bc
00000160: 6873 ab3c 9775 263e bbd9 adbc 33a0 a43e
00000170: 784a 47be c37b 62be 20b4 fdbd 217c 00bf
00000180: aaa0 e93d 605a 1bbd 39e7 373e 0652 5c3d
00000190: a5b4 63bd cd6a b6be 72b2 813c 2f7d 813d
000001a0: d6c5 09bf 4154 aa3c acca 543d ac2c 8ebe
000001b0: 90fe 2e3d 223b 19be 941a 123e 6388 f0bd
000001c0: 078b e9bc 2b00 34be b888 fcbc 29e3 f5bd
000001d0: 46ce 83bb 0e64 45be eb6d 3dbe 247a 373b
000001e0: ea9c 2a3e e6cc 2dbe 0f3b 0f3d 7c2d ddbd
000001f0: 54b7 8abc 815f 9dbb 4997 49be 0d8c ab3c
00000200: aa6d 1dbe 2983 d83d 0b63 3fbe 84ed 013e
00000210: 8a90 223d 31bb 09bd f5e0 62bd 618c c0bc
00000220: 5623 1cbe bdc8 bdbe 7aa7 083e ee47 c53d
00000230: 02f5 cb3d a529 583e 9d0f 5d3e fb4e 96be
00000240: 4815 ab3d ff99 39be 4984 f4be ef8e cc3e
00000250: e481 82be 9177 40bd 7699 f0bd e0cd 2abc
00000260: 0f00 b5be 540c 043f c2f2 8c3d 6c63 9b3d
00000270: 2562 a83e f800 033d ff98 3bbe d6f9 073c
00000280: ae99 38bd 0dee 37bf 6e88 913c cf55 643e
00000290: 7a26 923e 0e5e 7a3e 05d2 053e e4c3 453e
000002a0: 7f21 b33d 8b4e 2b3e ddd9 4a3e eba6 aabd
000002b0: 3692 09be d78c 65be f530 42be 1937 c9bd
000002c0: 6b42 98be 5b8d 8ebe 953a 93bd f1fb 94bd
000002d0: a601 863d efb0 0fbe cf00 943b 5926 c9be
000002e0: 8b67 87be c00a 6bbe f1f5 6dbe 6254 7abe
000002f0: 71f2 afbd 956b 3a3e d4c5 913d 284b 883e
00000300: 39b7 95bd feb0 b33d fc04 6b3d 0079 2f3e
00000310: 7138 dfbd 0fe7 2dbe de57 053e 2d90 42be
00000320: 36f9 cebe 04f7 433e 332f 4b3e ab3d d5bd
00000330: eb63 af3e 98c6 3bbd 05e0 db3d e150 97bd
00000340: 1e7b 843a 4ed9 05be 136e d73d abd7 7dbd
00000350: ec24 abbd 492a 513e df07 28be e690 973d
00000360: 14c9 6d3e a143 11bf b9cf 12bf c74d fdbc
00000370: 4c5a 13be c9b1 b13d 13f3 b33e 85f5 a03d
00000380: 6eaa 39be 2f44 e0bd a397 2ebf be30 34bf
00000390: 86b5 58be 7b06 49be b779 27bd 71ee 053c
000003a0: 13d2 91be b1fa 4bbe b393 a7bd d4b4 3fbf
000003b0: 7ea9 9cbe 2c2e 823e 5cc8 713c eaa4 583e
000003c0: 881b a03e 4473 b03e 0d4d 833e 7b61 1f3e
000003d0: a73f 7fbe c22a 293d 8b1a b53d eecf 53bc
000003e0: 96cb f6be dd7e 0abe b6e6 c2be 9964 b73e
000003f0: 95c4 753e 6e01 9cbe 7cd9 8b3d 867d 72bd

conv_net.0.bias f4 [12]
0.12898268 -0.24971165 -0.17313711 -0.06322322 -0.09144046 -0.23443832 -0.2822544 -0.2860992
0.17695123 -0.17586337 -0.006628069 -0.34928286
00000000: 0914 043e 69b4 7fbe db4a 31be 2d7b 81bd
00000010: 2345 bbbd 9910 70be a683 90be 987b 92be
00000020: b432 353e 8715 34be 4630 d9bb 34d5 b2be

conv_net.3.weight f4 [12, 12, 3, 3]
-0.44791004 -0.046097964 -0.14497508 -0.26903614 -0.2720492 -0.082676835 -0.1915796 0.096335836
-0.10323533 -0.16950864 -0.18236223 0.0012881776 -0.44483173 -0.106763855 0.029821826 -0.44679728
0.07144916 0.12596917 -0.40371862 0.21865755 0.2872912 -0.22688143 0.22671089 0.11855939
0.41269544 0.43133464 0.087243035 -0.14191633 -0.19505927 0.36028484 -0.03313483 -0.044164192
0.000860194 0.026787553 0.034872703 -0.058923546 -0.02062141 0.044534788 0.045429505 -0.06280771
0.08879384 -0.08301461 0.06986433 0.06536039 0.09426964 0.11097222 -0.08831429 -0.11711497
-0.061468653 -0.032181073 0.067807786 -0.22792472 0.14354253 -0.06497549 -0.32843527 -0.21631186
0.25677875 0.065331176 -0.104574434 0.08872954 0.02409724 -0.09058081 -0.158196 -0.1488205
-0.03715066 0.20699543 -0.017466433 -0.4588909 -0.06338517 -0.13222046 0.020321157 0.08611426
-0.30184862 0.38507682 -0.3799089 -0.36403814 0.13360672 0.03546748 -0.010467174 -0.11254572
-0.32055792 -0.42615655 -0.358103 0.18634902 -0.09329539 0.18549179 0.20398891 0.05012173
-0.10138471 -0.123255 -0.5543857 -0.036475375 -0.039618466 0.0984908 -0.37616622 -0.044923935
-0.33808106 -0.2167352 0.2852571 -0.16149864 -0.08651165 0.25725168 -0.07522991 -0.26456255
0.13695098 -0.25996432 0.039608683 -0.11247697 0.050632853 0.09849081 -0.10318098 0.16727804
0.029566549 -0.30619302 0.13969308 0.04946667 -0.2521862 0.08333809 -0.052429393 -0.3717906
0.12200889 0.29903707 -0.022015624 0.0047179125 0.21658957 -0.088751025 -0.253314 0.07084342
-0.31173775 0.043526012 0.47172046 0.45145288 -0.048150934 -0.33197618 -0.14397717 0.06881352
-0.3657511 0.035516437 0.27146736 0.030703463 0.14313844 -0.5275611 -0.0014313601 -0.22667816
0.08792975 0.017224032 0.016514614 -0.03492535 0.0761699 -0.05891866 0.028959861 0.07795091
-0.106935814 -0.072709404 -0.28981858 -0.11607701 -0.051954024 -0.21131273 -0.0390897 -0.37382534
-1.0009023 0.080646716 -0.010675905 0.10540851 0.0039138463 0.19692877 0.022321554 0.1575067
-0.14499094 -0.29471132 -0.3506371 0.17991868 0.13901195 0.09008767 -0.18024357 -0.027177235
0.195297 -0.46464327 -0.16606683 0.09919694 0.027687201 0.08208577 -0.26447192 -0.24743336
-0.35882142 0.19137737 -0.23503074 -0.20748314 -0.050064113 -0.23138003 -0.07124612 -0.0954638
0.042234506 0.25111753 0.1164846 -0.036165968 -0.27110982 -0.12002453 -0.05991287 -0.040828362
-0.18204987 0.05238497 0.1823805 0.28123906 0.20350772 0.31177288 0.17804703 0.11480597
-0.026117899 -0.032548856 0.06548405 0.09611407 -0.16564137 0.10433528 0.1838153 -0.2112588
-0.2407829 -0.2019959 0.14477785 0.081166685 -0.346684 -0.36977336 0.06766855 0.07168679
0.10686197 -0.19984043 -0.15110275 -0.10237678 -0.12946478 -0.021781519 -0.3059258 0.08642818
0.12673903 -0.15495738 -0.24704382 0.015114268 0.2984437 -0.1215256 -0.01748363 0.14383279
0.38925028 0.19750659 0.0047199065 0.090578325 0.3170708 0.23222806 0.30517265 -0.1274254
0.061986577 -0.043520182 -0.077823505 0.2582896 0.051640842 0.026339548 -0.002798388 0.04027028
00000000: 7754 e5be 38d1 3cbd 5974 14be 1bbf 89be
00000010: 084a 8bbe 7952 a9bd 712d 44be b94b c53d
00000020: 0b6d d3bd ac93 2dbe 2abd 3abe 11d8 a83a
00000030: fcc0 e3be 02a7 dabd e74c f43c 9dc2 e4be
00000040: f053 923d 10fe 003e 35b4 cebe c4e7 5f3e
00000050: d517 933e 9b53 68be e626 683e 44cf f23d
00000060: d14c d33e e5d7 dc3e 7aac b23d 8452 11be
00000070: 9ebd 47be 4177 b83e 63b8 07bd 83e5 34bd
00000080: a47e 613a 9271 db3c aed6 0e3d d159 71bd
00000090: 3bee a8bc 1c6a 363d 4a14 3a3d 54a1 80bd
000000a0: 8bd9 b53d 9003 aabd 0815 8f3d abdb 853d
000000b0: 7110 c13d 6745 e33d 1fde b4bd f9d9 efbd
000000c0: 8ec6 7bbd 4dd0 03bd cfde 8a3d 1965 69be
000000d0: d0fc 123e df11 85bd ab28 a8be db80 5dbe
000000e0: 8178 833e 5acc 853d 1f2b d6bd d5b7 b53d
000000f0: 9367 c53c 6f82 b9bd 22fe 21be 6764 18be
00000100: 4a2b 18bd 9cf6 533e c415 8fbc bff3 eabe
00000110: 16d0 81bd cd64 07be 8e78 a63c ac5c b03d
00000120: e78b 9abe ca28 c53e 6b83 c2be 3563 babe
00000130: 33d0 083e 5946 113d 837e 2bbc 5f7e e6bd
00000140: 2b20 a4be 3131 dabe 4759 b7be 47d2 3e3e
00000150: a711 bfbd 8ff1 3d3e 78e2 503e 714c 4d3d
00000160: c9a2 cfbd 1e6d fcbd 39ec 0dbf 3467 15bd
00000170: f946 22bd 8bb5 c93d dc98 c0be 2902 38bd
00000180: f618 adbe d5ef 5dbe 380d 923e e65f 25be
00000190: 052d b1bd 7eb6 833e 2412 9abd be74 87be
000001a0: e13c 0c3e 0b1a 85be b73c 223d 535a e6bd
000001b0: 6564 4f3d 8db5 c93d 8d50 d3bd ef4a 2b3e
000001c0: 8c35 f23c 55c5 9cbe b40b 0f3e 909d 4a3d
000001d0: 8d1e 81be 29ad aa3d 34c0 56bd 565b bebe
000001e0: ccdf f93d 631b 993e 1c5a b4bc b898 9a3b
000001f0: a8c9 5d3e 19c3 b5bd 5fb2 81be 5b16 913d
00000200: 179c 9fbe 5548 323d 5885 f13e d524 e73e
00000210: ea39 45bd c8f8 a9be c06e 13be 1aee 8c3d
00000220: ba43 bbbe af79 113d c5fd 8a3e d485 fb3c
00000230: e292 123e 3f0e 07bf 7a9c bbba 521e 68be
00000240: 8314 b43d 6a19 8d3c a849 873c e20d 0fbd
00000250: f7fe 9b3d b154 71bd 3b3d ed3c baa4 9f3d
00000260: 2a01 dbbd abe8 94bd 1a63 94be c9b9 edbd
00000270: becd 54bd 5d62 58be 851c 20bd 0966 bfbe
00000280: 911d 80bf 1b2a a53d fee9 2ebc 6be0 d73d
00000290: b93f 803b b2a7 493e b1db b63c 7049 213e
000002a0: 8178 14be 67e4 96be b586 b3be 9a3c 383e
000002b0: 2659 0e3e e27f b83d c591 38be cba2 debc
000002c0: f0fb 473e b9e5 edbe 6c0d 2abe c427 cb3d
000002d0: 45d0 e23c 961c a83d dd68 87be 2c5f 7dbe
000002e0: 71b7 b7be 6ef8 433e e6ab 70be 7676 54be
000002f0: 0710 4dbd e3ee 6cbe 7ce9 91bd 8682 c3bd
00000300: 17fe 2c3d 7a92 803e 7a8f ee3d c422 14bd
00000310: e8ce 8abe 6ccf f5bd 3367 75bd a43b 27bd
00000320: 486b 3abe 9f91 563d f4c1 3a3e 91fe 8f3e
00000330: 5464 503e b2a0 9f3e f651 363e 641f eb3d
00000340: 34f5 d5bc f351 05bd 801c 863d 74d7 c43d
00000350: e49d 29be bcad d53d 143a 3c3e 3a54 58be
00000360: cb8f 76be 03d8 4ebe a540 143e b83a a63d
00000370: 9180 b1be ef52 bdbe cf95 8a3d 86d0 923d
00000380: 73da da3d f8a2 4cbe aeba 1abe ebaa d1bd
00000390: 6a92 04be 286f b2bc 4ea2 9cbe 4201 b13d
000003a0: e0c7 013e 26ad 1ebe 0ef9 7cbe d6a1 773c
000003b0: 9dcd 983e 6ae2 f8bd d439 8fbc e748 133e
000003c0: d04b c73e 2b3f 4a3e 72a9 9a3b 2181 b93d
000003d0: 1b57 a23e 31cd 6d3e 973f 9c3e ce7b 02be
000003e0: a3e5 7d3d 3842 32bd ee61 9fbd 893e 843e
000003f0: 5985 533d 09c6 d73c 2965 37bb 73f2 243d

conv_net.3.bias f4 [12]
0.2693448 -0.28428409 0.051468194 0.06376394 -0.3225669 0.32377684 0.3215114 -0.02145942
-0.25149658 -0.097568 -0.11186729 -0.36993802
00000000: 90e7 893e af8d 91be 50d0 523d ab96 823d
00000010: 7d27 a5be 14c6 a53e 249d a43e aacb afbc
00000020: 29c4 80be bbd1 c7bd ae1a e5bd 8468 bdbe

conv_net.6.weight f4 [12, 12, 3, 3]
-0.090507224 -0.10456058 -0.062093977 0.038970094 0.04166209 -0.112756975 -0.027984336 -0.07033226
-0.036814507 0.008677563 -0.06779758 -0.05593941 -0.06268302 -0.15212137 -0.018150665 0.023789436
-0.12830628 -0.08288976 -0.06828165 0.007228739 0.024795434 -0.013342825 -0.02178067 -0.112715065
0.027673764 0.047923487 -0.022792418 0.09376573 -0.09151533 -0.0049531693 -0.018290626 -0.0930671
-0.004677647 -0.06981745 0.06925549 -0.0666669 -0.12237032 -0.043432113 -0.069304354 -0.10867524
-0.023515413 0.02844111 -0.10983468 -0.0062654307 -0.06460911 -0.13497362 -0.14110582 -0.11585407
-0.06897478 -0.044092864 0.031715117 -0.052743923 -0.105483755 -0.08790456 0.042038668 0.039842263
-0.03744736 -0.11366697 -0.028361887 -0.13272907 -0.006948089 -0.13391352 -0.03440427 0.048748415
0.05046587 -0.04549198 -0.08195691 -0.067513674 0.048364155 -0.10508774 -0.03162348 0.06538089
-0.03530266 0.042499635 0.0339234 -0.03786205 -0.08006282 -0.054158546 0.04363245 -0.09275705
-0.044185866 0.0250281 0.04715633 0.0124961445 -0.017641218 -0.049963113 0.057788197 0.007956379
0.054664128 -0.06409467 0.03410269 -0.06568676 0.062351093 -0.02660944 -0.09783102 -0.0032120897
0.04575995 -0.07217064 0.04732444 0.03515049 0.04077954 -0.039077252 -0.037620842 -0.080656424
-0.058945887 -0.0907073 -0.007870531 -0.080905445 0.10845029 0.18903475 0.007850026 0.08381728
-0.07351772 -0.124869324 0.053554457 0.009159366 -0.22018944 -0.09460931 -0.61147827 0.32496804
-0.16248536 0.4717096 -0.17262673 -0.16075335 -0.0017815208 0.2893141 0.12718643 0.06030905
0.07617017 -0.08209679 0.16097866 -0.041282132 0.21757916 0.055837497 -0.16261314 -0.18486759
0.12688372 0.17806587 -0.11079288 -0.01604677 0.12067767 -0.0005181166 0.30709758 -0.1497223
-0.0118712615 -0.07970749 0.05285547 -0.3184331 0.04396135 -0.050074544 0.12757334 -0.3189879
0.20545343 0.2599828 -0.100330524 -0.08563622 0.1311089 -0.19243091 -0.023072183 0.025681756
0.09796209 -0.0910076 0.48395252 -0.23977247 0.18186687 0.124927424 -0.11820987 0.03731265
-0.14893377 -0.1798027 0.0992193 0.30792928 0.13407266 0.035211608 0.0939359 0.31108677
-0.13745321 -0.40619943 -0.27405447 0.3364095 0.119317025 0.12336112 0.39796856 0.26387066
-0.14435786 -0.00642801 0.2033037 0.18085036 -0.20093016 0.057897132 0.05663605 -0.0076576234
0.102411754 0.021700278 0.06614272 -0.009552211 0.06285586 0.10841399 0.39511967 0.47885907
0.16595678 -0.0012460769 0.10109759 -0.37775686 -0.2905911 0.06493805 0.2970513 -0.08658896
-0.06596939 0.30563912 -0.0318211 0.12446513 -0.037314933 0.08258965 0.2075358 0.13300453
-0.277688 -0.35034966 -0.2848032 0.086030036 0.11621613 -0.14647226 0.19984038 0.35371476
0.107681826 0.107588865 -0.12340033 -0.098850735 -0.014046487 -0.021396343 -0.19231981 -0.081339315
0.26359922 -0.2045254 -0.36397612 -0.5568096 -0.24585792 0.09408413 0.15142657 0.025871007
0.19295724 0.09677663 0.31447008 -0.21457157 -0.36467558 -0.016540242 0.2336211 0.12809047
0.16862248 0.2889762 0.14776766 -0.012389938 -0.10941401 0.08593074 -0.018898487 -0.12131928
00000000: da5b b9bd db23 d6bd 4156 7ebd 1b9f 1f3d
00000010: dea5 2a3d 21ed e6bd 683f e5bc 5c0a 90bd
00000020: cfca 16bd 562c 0e3c 75d9 8abd b920 65bd
00000030: f55f 80bd b4c5 1bbe b4b0 94bc 10e2 c23c
00000040: b962 03be 1bc2 a9bd 40d7 8bbd 0fdf ec3b
00000050: cb1f cb3c dd9b 5abc 606d b2bc 28d7 e6bd
00000060: 17b4 e23c 6b4b 443d 2ab7 babc 3f08 c03d
00000070: 646c bbbd 324e a2bb 39d6 95bc f799 bebd
00000080: f246 99bb 74fc 8ebd d3d5 8d3d a888 88bd
00000090: 4a9d fabd dfe5 31bd 71ef 8dbd 2091 debd
000000a0: 65a3 c0bc 55fd e83c 01f1 e0bd 3e4e cdbb
000000b0: c851 84bd 8636 0abe 0b7e 10be e644 edbd
000000c0: a642 8dbd b89a 34bd b6e7 013d 030a 58bd
000000d0: de07 d8bd 4e07 b4bd bd30 2c3d a431 233d
000000e0: 6762 19bd 3aca e8bd 3057 e8bc 21ea 07be
000000f0: ccac e3bb a020 09be 7eeb 0cbd 6bac 473d
00000100: 4db5 4e3d cc55 3abd 06d9 a7bd 9c44 8abd
00000110: 7e19 463d 3e38 d7bd 9f87 01bd 6be6 853d
00000120: 8699 10bd 1914 2e3d 43f3 0a3d 3d15 1bbd
00000130: faf7 a3bd 5ad5 5dbd f1b7 323d 69f7 bdbd
00000140: 3dfc 34bd bb07 cd3c ff26 413d a1bc 4c3c
00000150: 5184 90bc 1fa6 4cbd 51b3 6c3d 795b 023c
00000160: 7ee7 5f3d 1144 83bd 43af 0b3d c886 86bd
00000170: dc63 7f3d 0afc d9bc a15b c8bd ec81 52bb
00000180: c96e 3b3d 33ce 93bd 46d7 413d f6f9 0f3d
00000190: 7208 273d 780f 20bd 5018 1abd 322f a5bd
000001a0: 3e71 71bd c0c4 b9bd 66f3 00bc c1b1 a5bd
000001b0: 301b de3d 5392 413e 659d 003c 65a8 ab3d
000001c0: 7590 96bd 7dbb ffbd eb5b 5b3d 2a11 163c
000001d0: 5779 61be 87c2 c1bd d789 1cbf 3662 a63e
000001e0: 9062 26be ec83 f13e 10c5 30be 879c 24be
000001f0: eb81 e9ba fa20 943e 293d 023e 9f06 773d
00000200: 1bff 9b3d 5d22 a8bd 97d7 243e 7417 29bd
00000210: 12cd 5e3e dcb5 643d 0f84 26be ee4d 3dbe
00000220: ceed 013e e656 363e 61e7 e2bd 8474 83bc
00000230: db25 f73d 37d2 07ba e53b 9d3e cd50 19be
00000240: ae7f 42bc ae3d a3bd fa7e 583d aa09 a3be
00000250: d110 343d f71a 4dbd 96a2 023e 6252 a3be
00000260: 6262 523e 771c 853e 177a cdbd 0b62 afbd
00000270: 6941 063e 9c0c 45be e001 bdbc 8c62 d23c
00000280: 59a0 c83d 3162 babd a0c8 f73e ea86 75be
00000290: 4f3b 3a3e f3d9 ff3d 0418 f2bd 26d5 183d
000002a0: 1882 18be 331e 38be 7d33 cb3d e8a8 9d3e
000002b0: 584a 093e 0c3a 103d 7761 c03d c446 9f3e
000002c0: 89c0 0cbe 5ff9 cfbe de50 8cbe de3d ac3e
000002d0: 7c5c f43d c1a4 fc3d 89c2 cb3e 0e1a 873e
000002e0: 8cd2 13be 0ea2 d2bb d82e 503e d630 393e
000002f0: a3c0 4dbe 8b25 6d3d 34fb 673d cdec fabb
00000300: 41bd d13d c8c4 b13c d675 873d e080 1cbc
00000310: 93ba 803d 2708 de3d 204d ca3e 042d f53e
00000320: 93f0 293e 6753 a3ba 410c cf3d 5969 c1be
00000330: 5bc8 94be 3efe 843d 1c17 983e 8d55 b1bd
00000340: f61a 87bd bb7c 9c3e d756 02bd 93e7 fe3d
00000350: 8bd7 18bd c324 a93d 4484 543e 5732 083e
00000360: 1f2d 8ebe 0861 b3be bad1 91be 8430 b03d
00000370: b902 ee3d d3fc 15be f5a2 4c3e 1a1a b53e
00000380: 4a88 dc3d 8d57 dc3d 50b9 fcbd 4172 cabd
00000390: 3d23 66bc 6247 afbc 7cef 44be 3a95 a6bd
000003a0: 7af6 863e 1b6f 51be 145b babe 138b 0ebf
000003b0: 2ec2 7bbe 2eaf c03d 910f 1b3e 6fef d33c
000003c0: 9596 453e d332 c63d 3902 a13e a6b8 5bbe
000003d0: c2b6 babe 677f 87bc 5f3a 6f3e 262a 033e
000003e0: 5fab 2c3e b0f4 933e 6850 173e 2bff 4abc
000003f0: 7414 e0bd 75fc af3d 00d1 9abc 3e76 f8bd

conv_net.6.bias f4 [12]
-0.13431755 -0.045866314 -0.08280938 -0.1717301 0.28846052 0.18144847 0.25373414 0.24769542
-0.03371521 0.18611564 -0.07308512 0.0037291474
00000000: 8a8a 09be 51de 3bbd f797 a9bd 04da 2fbe
00000010: 19b1 933e a1cd 393e 71e9 813e dea3 7d3e
00000020: f618 0abd 1995 3e3e a7ad 95bd b664 743b

mu_net.0.weight f4 [128, 432]
0.039898824 0.009913679 0.013416129 -0.03196341 -0.046303626 -0.039861698 0.038390134 0.011554996
-0.02697589 -0.040344663 0.0332479 0.028520875 -0.020834705 0.033966627 0.04611573 0.028939862
-0.029248636 -0.04511491 0.016115088 0.0051522898 0.038564354 0.009020095 0.010077914 0.0323789
-0.0020510291 0.023001757 0.021239812 0.038662143 0.034428142 -0.026960324 -0.009755375 0.004913408
0.017896252 -0.01256758 -0.011939902 0.013319343 -0.07241071 -0.054624923 -0.06200222 -0.022767805
-0.04127855 0.009838924 0.005364536 -0.014242933 0.00033142016 -0.019394316 -0.044396736 -0.06440198
-0.05273146 -0.060041554 -0.03338115 -0.035330273 -0.036785997 -0.050466713 -0.019581137 -0.07178083
-0.0034812384 -0.053285025 -0.04937237 0.0012444636 -0.00021724649 0.026014447 -0.06086223 0.008907347
-0.03880299 -0.07560938 0.0011127493 -0.06108714 -0.010757998 -0.0010795586 0.003084933 -0.031766385
-0.0028513486 0.007181691 -0.062096804 0.016418008 0.01154345 -0.033099193 -0.038962934 -0.011995387
-0.061135624 -0.06405555 -0.031856656 -0.021199686 -0.01747333 -0.039359685 -0.04418472 -0.04232709
-0.07044422 0.009624417 0.035519574 -0.060861867 -0.0053511034 -0.065996654 -0.04270002 -0.035016175
-0.003805443 -0.03475185 -0.071989305 -0.047431156 -0.05859561 -0.015458148 0.036889758 -0.033615973
-0.025172433 0.022824308 -0.05367433 -0.024616363 -0.03214197 -0.027711092 -0.020094791 0.013594623
0.019924734 -0.006604588 0.0023090444 -0.029818637 0.033827495 -0.010633811 -0.003154262 0.033379354
0.036195602 -0.013125244 0.022683302 -0.027578814 0.0289209 0.040913694 0.028611869 -0.03171255
-0.018306136 -0.025082083 -0.037211575 0.019481951 -0.044347882 -0.033964545 -0.008757863 0.0096098315
0.019640611 -0.02342855 -0.0354533 -0.029827034 0.0056012557 0.028552162 -0.03995732 -0.036753267
-0.02695377 -0.053949334 0.006777827 0.0055030757 -0.04529188 -0.054568443 -0.0236872 -0.0069418647
-0.04718167 -0.031775218 -0.028670652 -0.022497313 -0.04780645 0.015017885 0.036720254 -0.0103823375
-0.022101391 0.008110871 -0.06387623 -0.03677626 -0.060054023 0.0055411193 -0.00561749 -0.047122955
-0.038018856 -0.04968314 -0.039147533 -0.04626309 0.009892189 -0.027061464 -0.03833931 0.039635327
-0.021919465 0.030336298 -0.041309785 -0.008322347 -0.01643552 -0.043909993 0.01594294 -0.008960837
-0.021132387 -0.013993132 0.03374411 -0.03454022 0.038714185 -0.010988207 -0.081153624 -0.0030889236
-0.045027222 -0.007532853 0.024506232 0.003977867 0.027805792 -0.030669916 -0.057478216 0.030259086
-0.035548054 -0.06743356 0.028862216 0.0121005615 0.023369767 -0.021543376 -0.0008329086 -0.0121410545
-0.04323445 0.014174157 0.007728962 -0.024338366 0.008075852 -0.07234505 0.01648175 -0.03982088
0.041690346 0.02273027 -0.041105468 0.028455842 0.0026895648 0.014011463 0.035495054 0.035013482
0.031076975 -0.039690007 -0.02648111 -0.029272804 0.024663066 -0.052976962 -0.026192429 -0.052341536
-0.04367429 -0.003993286 0.0103315 0.036647774 -0.037135787 -0.050949384 -0.010646518 0.016444046
-0.050469514 -0.044238288 -0.04932795 0.022187656 -0.028104628 -0.030459223 -0.02494207 0.017089002
-0.0389696 -0.003481014 -0.009819264 -0.012390206 0.039849218 -0.02510794 -0.0015102075 0.010841322
00000000: f36c 233d fc6c 223c 53cf 5b3c 11ec 02bd
00000010: dfa8 3dbd 0546 23bd f93e 1d3d 2a51 3d3c
00000020: 8bfc dcbc 7240 25bd f32e 083d 9ca4 e93c
00000030: 8bad aabc 9720 0b3d d9e3 3c3d 4a13 ed3c
00000040: d69a efbc 69ca 38bd ca03 843c 8ad4 a83b
00000050: a8f5 1d3d 05c9 133c d61d 253c bd9f 043d
00000060: 8f6a 06bb 2e6e bc3c 1dff ad3c 325c 1e3d
00000070: 8604 0d3d e6db dcbc 02d5 1fbc a700 a13b
00000080: 299b 923c 40e8 4dbc 949f 43bc 6039 5a3c
00000090: 114c 94bd 62be 5fbd 0af6 7dbd 8c83 babc
000000a0: b213 29bd 7033 213c fdc8 af3b 315b 69bc
000000b0: 76c2 ad39 d4e0 9ebc 5ad9 35bd 2fe5 83bd
000000c0: f2fc 57bd 22ee 75bd acba 08bd 7ab6 10bd
000000d0: eaac 16bd 2fb6 4ebd 9f68 a0bc d401 93bd
000000e0: 7d25 64bb 6641 5abd af3a 4abd 451d a33a
000000f0: a9cc 63b9 401c d53c ac4a 79bd 1ff0 113c
00000100: e2ef 1ebd 17d9 9abd acd9 913a 8236 7abd
00000110: 5042 30bc fa7f 8dba 962c 4a3b 781d 02bd
00000120: b1dd 3abb 6454 eb3b 3859 7ebd 0f7f 863c
00000130: bd20 3d3c 0593 07bd 9997 1fbd 4d88 44bc
00000140: 5969 7abd 8e2f 83bd 207c 02bd f7aa adbc
00000150: 3b24 8fbc 9f37 21bd 09fb 34bd 2c5f 2dbd
00000160: 0f45 90bd bbaf 1d3c f97c 113d 4b4a 79bd
00000170: 4f58 afbb 4129 87bd 37e6 2ebd 1f6d 0fbd
00000180: bd64 79bb f557 0ebd 216f 93bd 2c47 42bd
00000190: f301 70bd 2c44 7dbc b719 173d e7b0 09bd
000001a0: 6b36 cebc 0bfa ba3c 9dd9 5bbd 41a8 c9bc
000001b0: 4ca7 03bd 5f02 e3bc d59d a4bc fbbb 5e3c
000001c0: 3239 a33c 4d6b d8bb 5653 173b 3746 f4bc
000001d0: b38e 0a3d 7039 2ebc bcb7 4ebb cab8 083d
000001e0: d741 143d 430b 57bc 55d2 b93c f7ec e1bc
000001f0: 86eb ec3c 1e95 273d 7063 ea3c 05e5 01bd
00000200: c0f6 95bc f178 cdbc 2a6b 18bd 9d98 9f3c
00000210: 20a6 35bd 681e 0bbd 247d 0fbc 8e72 1d3c
00000220: 59e5 a03c 3bed bfbc 7b37 11bd d357 f4bc
00000230: bd8a b73b 39e6 e93c 49aa 23bd 988a 16bd
00000240: 27ce dcbc faf9 5cbd 8918 de3b 2553 b43b
00000250: fa83 39bd 2983 5fbd a90b c2bc 9578 e3bb
00000260: 9141 41bd bb26 02bd b7de eabc 494c b8bc
00000270: b2d0 43bd 930d 763c fa67 163d ae1a 2abc
00000280: fa0d b5bc 75e3 043c 8ad1 82bd b4a2 16bd
00000290: 35fb 75bd 4792 b53b ec12 b8bb 0004 41bd
000002a0: a9b9 1bbd 8c80 4bbd 2a59 20bd 5e7e 3dbd
000002b0: d912 223c 01b0 ddbc ae09 1dbd a758 223d
000002c0: 7390 b3bc d483 f83c 7334 29bd 745a 08bc
000002d0: c9a3 86bc f7da 33bd c59a 823c 79d0 12bc
000002e0: d41d adbc 7343 65bc 4437 0a3d 0c7a 0dbd
000002f0: c492 1e3d e107 34bc df33 a6bd 8a6f 4abb
00000300: 776e 38bd 27d6 f6bb 4bc1 c83c c458 823b
00000310: f9c8 e33c 7a3f fbbc 476e 6bbd e7e1 f73c
00000320: d69a 11bd 9b1a 8abd 7470 ec3c 6f41 463c
00000330: f471 bf3c bc7b b0bc 8d57 5aba 46eb 46bc
00000340: 9b16 31bd b93a 683c 3c43 fd3b 4161 c7bc
00000350: 9450 043c a429 94bd bc04 873c 381b 23bd
00000360: 7fc3 2a3d d534 ba3c 355e 28bd 3a1c e93c
00000370: 6943 303b 5690 653c 4363 113d 4c6a 0f3d
00000380: 2495 fe3c fd91 22bd eaee d8bc 85cd efbc
00000390: 330a ca3c 5ffe 58bd 8191 d6bc 1464 56bd
000003a0: d0e3 32bd 1cda 82bb 7445 293c fa1b 163d
000003b0: b21b 18bd 4db0 50bd bc6e 2ebc aab5 863c
000003c0: 1fb9 4ebd 3533 35bd 1b0c 4abd e3c2 b53c
000003d0: ad3b e6bc 9f85 f9bc 5053 ccbc 3cfe 8b3c
000003e0: 969e 1fbd b921 64bb fae0 20bc 4a00 4bbc
000003f0: ef38 233d 2baf cdbc 28f2 c5ba cd9f 313c

mu_net.0.bias f4 [128]
-0.0053861695 -0.064686865 0.011884853 -0.041109726 -0.061966147 0.0139158135 -0.064953625 -0.034010895
-0.10300055 -0.07721085 -0.012764382 -0.052815244 -0.027711255 -0.09170968 -0.041184735 -0.077235
-0.055633955 -0.005178937 -0.03810071 -0.051297236 -0.02056704 -0.060289245 -0.05534264 -0.059333622
-0.019729624 0.0124571165 -0.035480324 -0.08239923 -0.02634562 -0.0133941695 -0.044773415 -0.05175997
-0.07449766 -0.056252353 -0.06967672 -0.020794937 -0.06694432 -0.028293723 -0.022995967 -0.019639881
-0.06351066 -0.070512734 0.012825018 -0.07506554 -0.0778693 -0.015704198 -0.018521126 -0.04481572
-0.035499834 -0.078953855 0.0069295773 -0.041114535 -0.038462587 -0.0015739852 -0.010547378 -0.05065841
0.0078025036 -0.00042888423 -0.0012894106 0.013906349 0.013244591 -0.07812922 -0.028440254 -0.06156567
0.0069485325 -0.06679252 -0.06362513 -0.037169255 -0.022885894 -0.06977614 -0.05148048 -0.0448741
-0.043177467 -0.07005397 0.057038523 0.068280436 -0.064738385 -0.058533464 -0.034982614 -0.0071557793
-0.076820865 -0.02955452 -0.06050176 -0.05647595 -0.02978452 0.001977058 -0.0033142262 -0.036893174
-0.09068916 -0.057432476 -0.05958679 -0.12670335 -0.0022054538 0.01988789 -0.0680836 -0.068994306
-0.035076782 -0.07127448 0.024266345 -0.028750593 -0.005740002 -0.03420495 -0.023430016 -0.03736373
-0.0019859641 -0.0024332888 -0.053950757 -0.06978933 -0.043010917 -0.07465718 -0.06762313 0.018912097
-0.021485394 0.018447341 -0.01972425 -0.054506607 0.025250444 -0.06335698 -0.122426756 -0.02360248
-0.057012312 0.031029196 0.009903844 0.004853954 -0.08317885 -0.042361587 -0.07085861 -0.068461545
00000000: 777e b0bb 8c7a 84bd b0b8 423c ac62 28bd
00000010: 37d0 7dbd 27ff 633c 6806 85bd 024f 0bbd
00000020: f4f1 d2bd b920 9ebd b321 51bc cc54 58bd
00000030: b702 e3bc 49d2 bbbd 53b1 28bd 622d 9ebd
00000040: 6ee0 63bd 13b4 a9bb 7d0f 1cbd 0d1d 52bd
00000050: 367c a8bc dbf1 76bd f7ae 62bd d007 73bd
00000060: 05a0 a1bc ef18 4c3c d153 11bd edc0 a8bd
00000070: c5d2 d7bc 3873 5bbc 5464 37bd 4302 54bd
00000080: 3b92 98bd de68 66bd abb2 8ebd 255a aabc
00000090: 1b1a 89bd 3dc8 e7bc 0a62 bcbc d1e3 a0bc
000000a0: e011 82bd fb68 90bd 0620 523c f6bb 99bd
000000b0: f179 9fbd 17a6 80bc 9eb9 97bc b090 37bd
000000c0: 4668 11bd 8fb2 a1bd 8211 e33b b767 28bd
000000d0: f28a 1dbd 2e4e ceba e9ce 2cbc 317f 4fbd
000000e0: 25ac ff3b dedb e0b9 7101 a9ba 75d7 633c
000000f0: d7ff 583c 3602 a0bd 89fb e8bc 492c 7cbd
00000100: 84b0 e33b 84ca 88bd e44d 82bd ca3e 18bd
00000110: 337b bbbc cbe6 8ebd 32dd 52bd e7cd 37bd
00000120: dbda 30bd 7578 8fbd 3aa1 693d 9dd6 8b3d
00000130: 8f95 84bd c9c0 6fbd ee49 0fbd 077b eabb
00000140: 4254 9dbd 521c f2bc b2d0 77bd 5353 67bd
00000150: aafe f3bc 8791 013b 7d33 59bb 4c1d 17bd
00000160: 3dbb b9bd 513e 6bbd 4711 74bd 86be 01be
00000170: 6089 10bb eeeb a23c 6a6f 8bbd e34c 8dbd
00000180: acac 0fbd 5bf8 91bd 37ca c63c 5d86 ebbc
00000190: a016 bcbb 7d1a 0cbd 4ef0 bfbc b60a 19bd
000001a0: f326 02bb d077 1fbb 78fb 5cbd b5ed 8ebd
000001b0: 372c 30bd dde5 98bd ff7d 8abd 8bed 9a3c
000001c0: 2302 b0bc e11e 973c c094 a1bc 5242 5fbd
000001d0: 05da ce3c 4ec1 81bd e1ba fabd fd59 c1bc
000001e0: be85 69bd f130 fe3c bc43 223c eb0d 9f3b
000001f0: ac59 aabd 5883 2dbd 521e 91bd 9135 8cbd

mu_net.2.weight f4 [128, 128]
0.0765127 -0.08235198 -0.07392808 -0.020914428 -0.07917355 0.029610468 -0.055254724 -0.019699363
-0.049105894 -0.045972917 0.026053946 0.05343111 -0.013094699 0.0018098067 -0.009852626 -0.012943866
-0.06326242 0.03504301 0.032046385 0.05752773 0.05442432 -0.0071743685 -0.012763263 0.00532552
0.050709113 -0.0078964215 -0.066896684 0.06673889 -0.009560861 -0.01215656 -0.08238867 -0.029666731
-0.022572502 -0.061465856 -0.04842107 -0.042438835 0.06408629 0.080559514 0.077306345 0.015465796
0.08161984 0.04331681 -0.02081628 -0.044738814 -0.0019385442 -0.05234988 -0.06673247 0.05132105
0.0125674 -0.071564786 -0.006810737 -0.06707326 -0.03487229 0.08146191 -0.021361517 -0.024432654
0.013014599 0.08553531 -0.056566335 -0.07424665 -0.012656719 0.023943173 0.0773037 0.039596975
-0.07722392 -0.08838998 -0.079258956 -0.034642022 -0.09058116 0.037494928 0.0073440108 -0.008650222
0.008090845 0.077212416 -0.038382743 -0.07016035 0.04420624 -0.04111251 0.032771662 0.055042017
-0.0142913 0.03443608 -0.0056191958 0.0011104852 -0.01240013 0.035988916 -0.02420592 0.014085613
-0.007669546 0.03448081 0.03429034 0.026070818 0.048581965 -0.027663898 -0.060769886 -0.0038707033
-0.08220914 -0.106057845 0.024863081 0.051545177 -0.017263312 0.07961468 0.05583817 -0.06285212
0.0014098872 0.030426567 -0.039975114 0.07961617 0.0533756 -0.0059658126 -0.0049856445 -0.009450145
-0.06761674 0.0016821756 0.0209524 0.07944609 -0.010578896 -0.041215822 -0.020676201 -0.08239879
0.09357394 0.036878634 0.08531247 -0.045544107 -0.03878393 -0.0917794 0.051588234 -0.016913965
-0.010830642 -0.05822488 0.021698505 -0.07783756 -0.008308144 0.057871677 0.07725001 0.0099438075
0.04463716 0.00514299 -0.07605127 -0.041064613 0.019928506 0.038397454 -0.07583142 0.03221604
-0.17008224 0.018823592 0.028125945 0.002342838 -0.0050695185 0.010461027 -0.042846635 0.04553576
0.018371517 0.0192442 -0.027228462 0.051649753 -0.036297336 0.062147446 -0.017743913 -0.03939336
0.0044336715 -0.073548295 -0.008764567 0.059140008 -0.002849142 0.059108533 -0.01924439 -0.06269406
0.05296918 0.0367551 -0.05168035 0.06551748 0.072960354 -0.081093244 -0.063319296 0.029224383
0.06734959 -0.00042340724 0.06289457 -0.0054012556 0.062534094 -0.07673887 0.07069661 -0.050238553
-0.025327092 0.029305326 0.046318553 0.050446205 -0.01178205 0.012616823 0.015637163 -0.009403206
0.0056647463 -0.010335973 0.09630082 0.00998714 0.054515 0.021383425 0.0037834032 -0.0769178
-0.024300061 -0.050973684 -0.11035938 -0.041459378 -0.0613631 0.087145336 0.028641623 -0.10446412
-0.014280353 -0.085631765 -0.028779374 -0.08322658 -0.016199235 0.009490217 0.028661257 -0.08098359
-0.010266416 0.075468116 0.021198524 0.05433519 0.0152045535 0.029483305 -0.010432367 -0.0011581216
0.055809196 0.040577993 0.05446866 0.03230967 0.04033201 -0.05355539 -0.051654987 0.06794735
-0.05750684 0.038233478 0.00024964398 -0.07414072 0.0868785 -0.027087031 0.008115796 -0.055213254
0.053069603 0.022336164 0.063408785 -0.0025601997 0.07331836 -0.08169857 -0.06624021 -0.082869835
-0.07663715 -0.032566655 0.05391273 0.05228584 -0.004506044 0.0076418086 0.006505652 0.09610382
00000000: b1b2 9c3d 28a8 a8bd 9b67 97bd bc54 abbc
00000010: be25 a2bd a791 f23c c752 62bd 8f60 a1bc
00000020: 4323 49bd 194e 3cbd 166f d53c 94da 5a3d
00000030: 268b 56bc 0937 ed3a e96c 21bc 8212 54bc
00000040: ba8f 81bd 4289 0f3d 1243 033d 32a2 6b3d
00000050: 09ec 5e3d f716 ebbb 011d 51bc b381 ae3b
00000060: 5cb4 4f3d fe5f 01bc 2101 89bd 66ae 883d
00000070: 28a5 1cbc 4f2c 47bc 64bb a8bd a507 f3bc
00000080: f8e9 b8bc 9fc3 7bbd 2c55 46bd 58d4 2dbd
00000090: ac3f 833d 63fc a43d ca52 9e3d 4064 7d3c
000000a0: 4d28 a73d f86c 313d e786 aabc 0c40 37bd
000000b0: c016 feba d46c 56bd 09ab 88bd 0536 523d
000000c0: 7fe7 4d3c 8f90 92bd 9a2c dfbb b55d 89bd
000000d0: 3fd6 0ebd 80d5 a63d 59fe aebc fd26 c8bc
000000e0: 2f3b 553c 232d af3d 1ab2 67bd a10e 98bd
000000f0: 215e 4fbc 7924 c43c 6751 9e3d 7030 223d
00000100: 9327 9ebd ce05 b5bd 8552 a2bd cbe4 0dbd
00000110: 9d82 b9bd 4894 193d 07a6 f03b a9b9 0dbc
00000120: 778f 043c 8b21 9e3d 3937 1dbd 3bb0 8fbd
00000130: 9a11 353d 9765 28bd 943b 063d bd73 613d
00000140: 0f26 6abc d90c 0d3d 3b21 b8bb b38d 913a
00000150: ea29 4bbc 1d69 133d 7e4b c6bc 58c7 663c
00000160: d150 fbbb c03b 0d3d 0774 0c3d 7892 d53c
00000170: e2fd 463d 669f e2bc d8e9 78bd a0ab 7dbb
00000180: 445d a8bd db34 d9bd a9ad cb3c 0921 533d
00000190: ca6b 8dbc 050d a33d 91b6 643d 9db8 80bd
000001a0: f7cb b83a 2341 f93c f2bc 23bd cd0d a33d
000001b0: 60a0 5a3d dd7c c3bb 9e5e a3bb c8d4 1abc
000001c0: a57a 8abd 727c dc3a 5ea4 ab3c a2b4 a23d
000001d0: 1b53 2dbc ecd1 28bd 2361 a9bc b2c0 a8bd
000001e0: b2a3 bf3d 0d0e 173d 4eb8 ae3d 758c 3abd
000001f0: e6db 1ebd d7f6 bbbd 2f4e 533d 288f 8abc
00000200: 0173 31bc 367d 6ebd 10c1 b13c 4c69 9fbd
00000210: e21e 08bc da0a 6d3d 4135 9e3d 5aeb 223c
00000220: 74d5 363d 8786 a83b c5c0 9bbd 5e33 28bd
00000230: 1b41 a33c a646 1d3d 814d 9bbd f7f4 033d
00000240: 0a2a 2ebe ef33 9a3c 6268 e63c 4d8a 193b
00000250: 341e a6bb ba64 2b3c f47f 2fbd b483 3a3d
00000260: dd7f 963c 03a6 9d3c 390e dfbc b18e 533d
00000270: 84ac 14bd 528e 7e3d af5b 91bc ef5a 21bd
00000280: 5548 913b 7da0 96bd 4299 0fbc cb3c 723d
00000290: acb8 3abb ca1b 723d 69a6 9dbc be65 80bd
000002a0: 36f6 583d 848c 163d c6ae 53bd 072e 863d
000002b0: 3d6c 953d 3714 a6bd 8cad 81bd f967 ef3c
000002c0: 95ee 893d c2fc ddb9 dece 803d 04fd b0bb
000002d0: e011 803d 4529 9dbd 62c9 903d f1c6 4dbd
000002e0: c37a cfbc b911 f03c 86b8 3d3d aea0 4e3d
000002f0: 8009 41bc cbb6 4e3c 8219 803c e80f 1abc
00000300: 569f b93b 3758 29bc 5d39 c53d 1aa1 233c
00000310: 1f4b 5f3d 4b2c af3c f9f2 773b 1487 9dbd
00000320: ec10 c7bc c8c9 50bd 1904 e2bd 4fd1 29bd
00000330: e057 7bbd 4179 b23d d6a1 ea3c 49f1 d5bd
00000340: 24f8 69bc b55f afbd b9c2 ebbc b272 aabd
00000350: 42b4 84bc db7c 1b3c 03cb ea3c b9da a5bd
00000360: 7834 28bc 078f 9a3d 87a8 ad3c 948e 5e3d
00000370: 851c 793c f986 f13c 85ec 2abc 1dcc 97ba
00000380: 2f98 643d 1c35 263d 881a 5f3d 2557 043d
00000390: 2d33 253d e65c 5bbd 2e94 53bd fb27 8b3d
000003a0: 4b8c 6bbd b59a 1c3d a6e2 8239 17d7 97bd
000003b0: 5bed b13d 9fe5 ddbc 1ef8 043c 4b27 62bd
000003c0: 835f 593d 55fa b63c 77dc 813d 06c9 27bb
000003d0: f027 963d 9451 a7bd f2a8 87bd a9b7 a9bd
000003e0: f0f3 9cbd 9d64 05bd 98d3 5c3d ad29 563d
000003f0: 70a7 93bb 2368 fa3b 5d2d d53b 14d2 c43d

mu_net.2.bias f4 [128]
-0.0955583 -0.078408 0.24679855 -0.12271959 -0.16714399 -0.07163984 -0.0103844665 -0.11364349
-0.061564248 -0.09703254 0.012143517 -0.12821291 0.19021428 -0.13348603 0.11523833 -0.2030252
-0.09125441 -0.08998266 0.2783993 -0.19033822 -0.073757105 -0.14793833 -0.049212508 -0.16088898
-0.09936726 0.21742956 -0.08221653 -0.066949576 -0.13777365 0.051016267 0.16589914 -0.029605666
-0.18907087 -0.05445358 -0.09123765 -0.06817137 -0.09867255 -0.09974537 -0.089066185 -0.04855146
-0.0029348782 0.14353666 -0.13141786 0.10681875 -0.03114543 -0.088894024 -0.06462974 -0.15744773
-0.1807913 -0.15670875 -0.058780257 0.05692538 -0.14425787 -0.0735551 -0.23457272 -0.04577127
-0.1119691 0.17755482 -0.09574249 -0.111396514 -0.14885539 -0.09254268 -0.19428343 -0.088456936
-0.051980205 -0.057628665 -0.09623509 -0.13136451 -0.03234167 -0.08271525 -0.054090798 0.022863453
-0.05846936 -0.106805176 -0.075238794 -0.097961985 0.21899332 -0.15562749 -0.069389805 -0.038161233
0.0032379895 -0.08932092 -0.07595707 -0.10169442 0.074738495 -0.120085604 -0.124628216 -0.21429774
-0.08739004 -0.11919928 -0.17071828 0.035614125 -0.092133105 -0.14951323 0.09604868 -0.18219449
0.21909837 -0.13156289 -0.11236948 -0.0042569875 0.19417584 0.10342124 0.08915827 -0.074216485
-0.18237893 -0.05591707 -0.09162187 0.1990524 0.20579173 -0.13516846 -0.15186669 -0.15311313
-0.09058432 0.22797373 -0.12850471 -0.08400014 -0.15197836 -0.18187037 -0.08219985 -0.030890793
0.24085791 -0.08990898 -0.103508875 -0.13613781 -0.14023916 0.07002226 0.18966566 -0.06004614
00000000: 12b4 c3bd 6094 a0bd c2b8 7c3e 6954 fbbd
00000010: cb27 2bbe e9b7 92bd 9c23 2abc ebbd e8bd
00000020: cb2a 7cbd ffb8 c6bd 9af5 463c 3f4a 03be
00000030: 88c7 423e 90b0 08be 1302 ec3d d7e5 4fbe
00000040: 98e3 babd d448 b8bd 5a8a 8e3e 06e8 42be
00000050: f70d 97bd 257d 17be 0e93 49bd 15c0 24be
00000060: 1081 cbbd dba5 5e3e 2461 a8bd dc1c 89bd
00000070: 8914 0dbe 6ff6 503d 77e1 293e 9587 f2bc
00000080: cb9b 41be b80a 5fbd ceda babd 6e9d 8bbd
00000090: d514 cabd 4d47 ccbd 5568 b6bd e5dd 46bd
000000a0: 1657 40bb 46fb 123e 6792 06be cac3 da3d
000000b0: b324 ffbc 120e b6bd 995c 84bd fa39 21be
000000c0: 5b21 39be 4278 20be 91c3 70bd 962a 693d
000000d0: 56b8 13be 0ea4 96bd d533 70be a87a 3bbd
000000e0: 0e50 e5bd eed0 353e a314 c4bd db23 e4bd
000000f0: 8c6d 18be 0487 bdbd 3cf2 46be e928 b5bd
00000100: 32e9 54bd 090c 6cbd e716 c5bd 6b84 06be
00000110: b378 04bd 9d66 a9bd 508e 5dbd 234c bb3c
00000120: 917d 6fbd acbc dabd cc16 9abd 4ba0 c8bd
00000130: c93f 603e d05c 1fbe 3e1c 8ebd f44e 1cbd
00000140: 7334 543b e3ed b6bd 618f 9bbd 2a45 d0bd
00000150: 7f10 993d 71ef f5bd 143d ffbd de70 5bbe
00000160: 8df9 b2bd c11e f4bd c6d0 2ebe 1ee0 113d
00000170: 48b0 bcbd ff19 19be 2cb5 c43d 3191 3abe
00000180: 535b 603e 6cb8 06be f821 e6bd 337e 8bbb
00000190: 08d6 463e 84ce d33d 9c98 b63d d0fe 97bd
000001a0: 8bc1 3abe 4c09 65bd 3fa4 bbbd 64d4 4b3e
000001b0: 11bb 523e 9a69 0abe f182 1bbe b0c9 1cbe
000001c0: 4684 b9bd f271 693e bd96 03be 4408 acbd
000001d0: 37a0 1bbe 3a3c 3abe 6558 a8bd b00e fdbc
000001e0: 75a3 763e 3322 b8bd 76fc d3bd b667 0bbe
000001f0: db9a 0fbe d567 8f3d b737 423e f1f2 75bd

mu_net.4.weight f4 [3, 128]
0.0041321507 -0.007917128 -0.1079956 -0.02804059 -0.07665629 0.021199387 -0.07334941 -0.08693917
-0.0023954601 0.105895825 0.10466033 -0.025516737 -0.121473715 -0.03682809 -0.04879756 0.004738414
-0.03856605 0.03517415 -0.1301103 0.047498405 0.07101827 -0.002132834 0.046571527 0.024143124
0.03634303 -0.08835842 -0.024087673 0.0057582054 -0.024173329 -0.091688536 -0.20326819 -0.023828525
0.024745915 -0.0031674271 -0.024545887 0.0031701145 0.060199905 0.015956651 -0.09040438 -0.0051031504
0.26061112 0.03520151 0.020171171 -0.1874655 0.19291157 -0.04069572 0.0044341264 -0.14727946
0.15263885 -0.025093691 0.08776096 -0.22728239 -0.016351538 -0.041257974 0.059359632 -0.075634696
0.056172308 0.043995585 -0.0104068 0.054493677 0.0704568 -0.06762493 0.02605048 0.057675883
-0.10259833 0.063535385 -0.05782304 0.026741523 -0.0051933527 -0.055613235 0.1612783 0.081925504
0.034250032 0.026035925 0.055637743 0.026171131 -0.11844407 0.07811075 0.04113643 -0.017279437
-0.06844787 0.21180238 0.008530645 -0.032687478 -0.20958684 0.034158867 -0.02831792 -0.0066409223
0.011028087 0.04256088 0.020156838 0.09589245 -0.04961026 0.006144401 -0.25222278 0.0045652986
-0.098709084 0.0066583045 0.07290753 -0.040412176 -0.22457412 -0.22051376 0.022825284 0.2036718
0.006982759 0.062935516 -0.0025271703 -0.095925935 -0.06828176 -0.0048024375 0.0016799599 0.037276655
0.058215022 -0.0945908 0.029155394 -0.02293407 -0.0147563005 0.014168665 -0.017094746 -0.0010035143
-0.10173386 -0.052933104 0.023377882 -0.069364674 0.015361119 -0.25571382 -0.16145235 -0.022444328
-0.0059103994 -0.06518923 0.22547665 0.006476056 -0.048957467 0.027621623 -0.078565635 -0.0126737
0.02692698 0.015194562 0.08342656 0.00048009848 0.12096144 -0.02838972 0.10845984 -0.009961745
-0.11641371 0.018486058 0.21560408 -0.006930461 0.03648666 -0.011802931 0.0144358175 0.042035963
0.06280622 0.20002045 0.004737038 -0.017142603 -0.14422719 -0.26576552 0.06530216 0.02287809
-0.042924225 0.013854948 -0.17678407 0.00248924 0.04569785 0.02938461 0.03279099 0.028805848
-0.007774712 0.1802636 0.016601766 0.035422754 0.013751541 -0.045629133 -0.0048065647 -0.106784105
0.021293161 -0.053080592 0.014392846 -0.08785998 0.071639895 -0.1072895 -0.046632327 -0.01377905
0.10100064 0.18672492 0.043853283 0.05917093 0.040133454 -0.052287333 0.062150937 0.0062708845
0.054273006 -0.02164261 0.012436445 -0.022258693 0.01398639 0.014709149 -0.043919235 0.07662761
-0.007381988 -0.055313203 0.04569189 -0.0127954865 0.17376319 0.042348567 0.066479236 -0.0950549
-0.08833906 0.068619855 0.035997313 -0.07378809 -0.084216334 -0.028152172 -0.16290477 0.03475778
-0.03273999 0.0038508754 0.003916943 -0.120218016 0.01613874 0.010257408 -0.010029337 0.010145141
0.12532508 0.022922523 -0.0057074544 0.037624147 0.11613466 -0.13108256 0.12007132 -0.069983624
0.05711243 -0.036230717 -0.019709662 0.11606346 0.15316303 -0.03718247 -0.03654385 -0.0011054291
-0.057591166 0.15505765 0.065151155 -0.029669102 0.0012129126 0.0070748404 -0.039737776 0.041476615
0.18994203 -0.009757177 -0.013412567 -0.0012593162 -0.03801645 -0.106674 0.1300844 -0.02586207
00000000: fe66 873b d7b6 01bc cc2c ddbd 61b5 e5bc
00000010: f9fd 9cbd 56aa ad3c 3738 96bd 2a0d b2bd
00000020: 27fd 1cbb e9df d83d 2858 d63d 7a08 d1bc
00000030: 36c7 f8bd 0dd9 16bd f3df 47bd b344 9b3b
00000040: 6ff7 1dbd c512 103d a23b 05be b08d 423d
00000050: 0772 913d 04c7 0bbb c9c1 3e3d cdc7 c53c
00000060: 6edc 143d 42f5 b4bd 8353 c5bc 54af bc3b
00000070: 2507 c6bc 33c7 bbbd 8925 50be 0a34 c3bc
00000080: f2b7 ca3c 9c94 4fbb 7514 c9bc b2c1 4f3b
00000090: 2d94 763d 86b7 823c ee25 b9bd 5438 a7bb
000000a0: d26e 853e 752f 103d 033e a53c f5f6 3fbe
000000b0: 9c8a 453e 8eb0 26bd 264c 913b 6dd0 16be
000000c0: 5c4d 1c3e 4991 cdbc 05bc b33d b7bc 68be
000000d0: a9f3 85bc 1ffe 28bd 1623 733d 5de6 9abd
000000e0: ef14 663d b734 343d 4881 2abc c334 5f3d
000000f0: a84b 903d f07e 8abd d167 d53c 8c3d 6c3d
00000100: 131f d2bd d71e 823d dad7 6cbd 0a11 db3c
00000110: 002d aabb b4ca 63bd 2426 253e 8fc8 a73d
00000120: c349 0c3d 4b49 d53c 67e4 633d d764 d63c
00000130: ce92 f2bd 87f8 9f3d ac7e 283d 9b8d 8dbc
00000140: 662e 8cbd b9e2 583e 1ec4 0b3c 4ee3 05bd
00000150: ef9d 56be 2bea 0b3d fcfa e7bc 189c d9bb
00000160: 26af 343c 5154 2e3d f41f a53c 4363 c43d
00000170: 2134 4bbd f956 c93b 5823 81be 8098 953b
00000180: fd27 cabd e82d da3b 8b50 953d 3d87 25bd
00000190: c2f6 65be 5cce 61be 17fc ba3c 578f 503e
000001a0: a1cf e43b 56e4 803d e29e 25bb d174 c4bd
000001b0: 4fd7 8bbd c45d 9dbb 1a32 dc3a 68af 183d
000001c0: e072 6e3d d2b8 c1bd 4bd7 ee3c 3be0 bbbc
000001d0: 69c4 71bc b023 683c 480a 8cbc 5a88 83ba
000001e0: d859 d0bd 62d0 58bd f982 bf3c 110f 8ebd
000001f0: 34ad 7b3c ecec 82be c453 25be 2bdd b7bc
00000200: 06ac c1bb ee81 85bd 5ae3 663e 1835 d43b
00000210: a087 48bd be46 e23c 05e7 a0bd 5aa5 4fbc
00000220: f895 dc3c 9df2 783c 8bdb aa3d bab5 fb39
00000230: a2ba f73d 8f91 e8bc 3120 de3d 9636 23bc
00000240: 506a eebd 1370 973c 51c7 5c3e ec18 e3bb
00000250: 0973 153d 1561 41bc 3584 6c3c e72d 2c3d
00000260: 8ca0 803d 29d2 4c3e 2839 9b3b a56e 8cbc
00000270: 4bb0 13be 6b12 88be 24bd 853d d56a bb3c
00000280: 50d1 2fbd ddff 623c e206 35be 8422 233b
00000290: ab2d 3b3d feb7 f03c d84f 063d 3efa eb3c
000002a0: 03c3 febb 0597 383e 6d00 883c 7317 113d
000002b0: 254e 613c 9de5 3abd 6380 9dbb a0b1 dabd
000002c0: ff6e ae3c 096b 59bd f9cf 6b3c efef b3bd
000002d0: f0b7 923d 99ba dbbd 8a01 3fbd 86c1 61bc
000002e0: 6cd9 ce3d d134 3f3e 809f 333d 385d 723d
000002f0: fa62 243d 3e2b 56bd fb91 7e3d fe7b cd3b
00000300: 5f4d 5e3d d84b b1bc 3bc2 4b3c dd57 b6bc
00000310: 2c27 653c a4fe 703c a8e4 33bd f0ee 9c3d
00000320: 9be4 f1bb 1990 62bd 6b27 3b3d 29a4 51bc
00000330: faee 313e b175 2d3d 4426 883d 25ac c2bd
00000340: 1ceb b4bd 9188 8c3d eb71 133d 361e 97bd
00000350: 9d79 acbd 629f e6bc 82d0 26be 2d5e 0e3d
00000360: 5e1a 06bd f85e 7c3b b359 803b dd34 f6bd
00000370: 6435 843c b00e 283c 1752 24bc ce37 263c
00000380: 3855 003e 04c8 bb3c 9905 bbbb c71b 1a3d
00000390: 02d8 ed3d 823a 06be f4e7 f53d 9353 8fbd
000003a0: b9ee 693d a966 14bd 2876 a1bc aeb2 ed3d
000003b0: c5d6 1c3e a54c 18bd 01af 15bd 0ce4 90ba
000003c0: b7e4 6bbd 6fc7 1e3e f86d 853d 9e0c f3bc
000003d0: 98fa 9e3a 10d4 e73b 14c4 22bd 62e3 293d
000003e0: 2a80 423e 91dc 1fbc 62c0 5bbc a40f a5ba
000003f0: 23b7 1bbd e677 dabd d834 053e b1dc d3bc

mu_net.4.bias f4 [3]
-0.029083967 0.19790222 -0.19078475
00000000: 8041 eebc e1a6 4a3e 145d 43be
