car_racing_ppo/models/reward_871.pth (torch, 885789 bytes, 23 tensors)

conv_net.0.weight f4 [12, 3, 3, 3]
-0.2623707 -0.23900414 -0.29834557 0.07694628 0.33722925 -0.47326997 0.015979143 -0.51454043
-0.17536561 -0.4493275 -0.017748058 0.24642545 -0.13772026 0.45711505 -0.04389584 -0.68813735
-0.3032913 -0.049673356 -0.658748 -0.31982023 0.26595768 -0.23669516 0.12836958 -0.21659145
0.02453206 -0.079546966 -0.56811094 0.07268954 0.16767298 -0.25096193 -0.15086326 -0.14005053
-0.4427284 0.13750704 -0.17861648 0.3514312 0.40217924 0.22729607 -0.03900021 0.21931975
0.037898134 0.15155764 -0.028368039 0.18389195 0.5881211 0.07271987 0.14546667 -3.4013676e-05
-0.11544896 -0.28174767 -0.28207368 -0.32559428 -0.03437362 0.36030272 0.2200535 0.13548054
0.47087267 -0.2586673 0.09650765 -0.29145262 0.00087146537 -0.29826358 0.10775477 -0.19379789
-0.26685637 0.15366341 -0.56461424 -0.2874343 -0.2159646 0.2676678 0.30698046 0.5131966
0.2729375 0.334867 0.5312773 -0.0764724 0.09955398 -0.23599912 0.20983231 -0.05134569
-0.029304378 -0.06022851 -0.6107097 0.0007830462 0.16947882 0.22543263 0.13512047 0.28500366
0.18679225 0.020333644 -0.62637025 0.052269306 0.43042907 -0.45633566 -0.12638503 -0.31919128
0.17793526 0.07317901 0.11687532 -0.85967624 -0.5147582 0.041872952 -0.23104899 0.084927626
-0.41191193 0.21029788 0.3074156 -0.30143222 0.04272324 -0.14963964 0.14267951 -0.11744764
-0.028508676 -0.17578189 -0.030826911 -0.12006218 -0.0040223924 -0.19276449 -0.18498962 0.0027996385
0.1666142 -0.16972694 0.034968432 -0.10799691 -0.01693312 -0.0048026447 -0.19686617 0.020940805
-0.15373865 0.10571892 -0.18690126 0.12688261 0.039688624 -0.033625785 -0.055390317 0.14176852
-0.08729345 -0.47869155 0.07479978 0.28641745 -0.088170275 0.22500238 0.26430506 -0.57678217
0.1352043 -0.20665091 -0.4634422 0.21743584 -0.06238829 0.095364295 -0.24211796 0.11957782
-0.16462842 0.65086234 0.14961404 0.0014716911 0.2595482 0.21411678 -0.15841034 -0.12249012
-0.08022034 -0.8454479 0.043259088 0.27624214 0.21868855 0.30622748 0.23293005 0.15715818
0.13170235 0.27192518 0.14636822 -0.30293414 -0.28747383 -0.5057035 -0.20746396 -0.06306342
-0.20785727 -0.5595702 -0.07429996 -0.39605486 -0.11608762 -0.17368358 -0.20096259 -0.3978351
-0.10361599 -0.06339806 -0.24967885 -0.07001199 -0.18734501 0.24826126 -0.14381261 0.3240629
-0.17538111 0.31358707 0.15765026 0.39481902 -0.16079842 -0.13088189 0.2386942 -0.53779465
-0.5435844 0.14431995 0.3446552 -0.22426862 0.5816664 -0.17048766 0.03958933 0.048669677
-0.32417476 -0.09748793 0.024102284 0.18932042 -0.013467453 0.5196607 -0.19427387 0.122689
0.25397 -1.0050143 -0.38225776 0.20225756 -0.45657894 0.18897855 0.464368 0.3020649
-0.6511353 0.3040008 -1.362135 -0.71354246 -0.52150565 -0.4855146 0.10598784 -0.032353833
0.18109302 -0.27363387 -0.18596931 -0.79149365 -0.2486003 0.39682138 -0.082529016 0.25488406
0.3032838 0.53562516 0.00094527355 -0.007166687 -0.4433559 0.12304912 -0.09698113 0.43338478
-0.53065884 -0.44355765 -0.1785695 0.6065185 0.114223175 -0.37773204 0.20850307 -0.17854095
00000000: 7455 86be 80bd 74be c0c0 98be 0396 9d3d
00000010: 50a9 ac3e 7150 f2be b1e6 823c ecb8 03bf
00000020: 0b93 33be 410e e6be 6064 91bc f456 7c3e
00000030: 8a06 0dbe fc0a ea3e 20cc 33bd c529 30bf
00000040: ff48 9bbe 4a76 4bbd b5a3 28bf 7abf a3be
00000050: 9b2b 883e 3760 72be 5173 033e 26ca 5dbe
00000060: 75f7 c83c 85e9 a2bd b86f 11bf 41de 943d
00000070: 77b2 2b3e 157e 80be e67b 1abe 6869 0fbe
00000080: 4cad e2be a5ce 0c3e 3de7 36be caee b33e
00000090: 70ea cd3e 4dc0 683e afbe 1fbd 5b95 603e
000000a0: 133b 1b3d ed31 1b3e 1764 e8bc 2c4e 3c3e
000000b0: 1b8f 163f 28ee 943d 37f5 143e e8a9 0eb8
000000c0: 8170 ecbd 3b41 90be f66b 90be 4bb4 a6be
000000d0: 5acb 0cbd 9979 b83e b455 613e 69bb 0a3e
000000e0: 3916 f13e 0a70 84be cea5 c53d 4739 95be
000000f0: 0d73 643a 01b6 98be 88ae dc3d f472 46be
00000100: 66a1 88be f159 1d3e 8f8a 10bf 972a 93be
00000110: d325 5dbe c10b 893e 8b2c 9d3e da60 033f
00000120: 77be 8b3e b073 ab3e ca01 083f 909d 9cbd
00000130: f5e2 cb3d c1a9 71be 48de 563e dc4f 52bd
00000140: bc0f f0bc 2cb2 76bd 7957 1cbf 5745 4d3a
00000150: db8b 2d3e d0d7 663e 055d 0a3e 00ec 913e
00000160: 7846 3f3e be92 a63c cd59 20bf 5718 563d
00000170: 3361 dc3e d4a4 e9be 146b 01be 0a6d a3be
00000180: a934 363e e0de 953d 545c ef3d be13 5cbf
00000190: 32c7 03bf f982 2b3d 1b98 6cbe 89ee ad3d
000001a0: 1fe6 d2be 5458 573e 9465 9d3e 5355 9abe
000001b0: 90fe 2e3d 223b 19be 941a 123e 6388 f0bd
000001c0: 078b e9bc 2b00 34be b888 fcbc 29e3 f5bd
000001d0: 46ce 83bb 0e64 45be eb6d 3dbe 247a 373b
000001e0: ea9c 2a3e e6cc 2dbe 0f3b 0f3d 7c2d ddbd
000001f0: 54b7 8abc 815f 9dbb 4997 49be 0d8c ab3c
00000200: aa6d 1dbe 2983 d83d 0b63 3fbe 84ed 013e
00000210: 8a90 223d 31bb 09bd f5e0 62bd c42b 113e
00000220: e9c6 b2bd 0f17 f5be a130 993d 4fa5 923e
00000230: 9e92 b4bd 0667 663e fe52 873e ffa7 13bf
00000240: ff72 0a3e 4c9c 53be 4c48 edbe 80a7 5e3e
00000250: dd8a 7fbd 5b4e c33d c5ed 77be 37e5 f43d
00000260: 5a94 28be ea9e 263f 6c34 193e c2e5 c03a
00000270: 80e3 843e 6e41 5b3e 5236 22be 1adc fabd
00000280: 904a a4bd 466f 58bf 7130 313d 9c6f 8d3e
00000290: e4ef 5f3e d9c9 9c3e 3785 6e3e 13ee 203e
000002a0: fbdc 063e c739 8b3e 8de1 153e 2f1a 9bbe
000002b0: c52f 93be c975 01bf 6f71 54be 6527 81bd
000002c0: 89d8 54be fe3f 0fbf 942a 98bd b4c7 cabe
000002d0: 59bf edbd 1cda 31be 23c9 4dbe 0bb1 cbbe
000002e0: 9f34 d4bd d8d6 81bd d0ab 7fbe 7262 8fbd
000002f0: 5fd7 3fbe 3338 7e3e 9d43 13be 93eb a53e
00000300: 1b97 33be 7c8e a03e 126f 213e b825 ca3e
00000310: 57a8 24be e705 06be 416c 743e e9ac 09bf
00000320: 5928 0bbf 9cc8 133e a576 b03e aca6 65be
00000330: 17e8 143f 5194 2ebe 6c28 223d db59 473d
00000340: 3cfa a5be c0a7 c7bd 2772 c53c 36dd 413e
00000350: 98a6 5cbc 7c08 053f bbef 46be 5f44 fb3d
00000360: 5b08 823e 4fa4 80bf 4ab7 c3be 9b1c 4f3e
00000370: b7c4 e9be 9883 413e a4c1 ed3e 40a8 9a3e
00000380: ceb0 26bf fea5 9b3e 715a aebf b8aa 36bf
00000390: 6581 05bf 5f95 f8be 2710 d93d 7485 04bd
000003a0: 7370 393e bd19 8cbe bd6e 3ebe 549f 4abf
000003b0: 1491 7ebe 2c2c cb3e f904 a9bd 2a80 823e
000003c0: 0448 9b3e bb1e 093f 3ccc 773a 87d6 eabb
000003d0: 8bff e2be 2d01 fc3d 0b9e c6bd 9ce4 dd3e
000003e0: 42d9 07bf fd19 e3be ecda 36be cc44 1b3f
000003f0: d7ed e93d 1866 c1be d481 553e 70d3 36be

conv_net.0.bias f4 [12]
0.4570405 -0.5172716 -0.30641827 -0.1129209 -0.09144046 -0.15674807 -0.36382404 -0.542278
0.23786218 -0.31800535 -0.02568141 -0.60388285
00000000: 3601 ea3e e96b 04bf dbe2 9cbe 1343 e7bd
00000010: 2345 bbbd 9182 20be 2547 babe bbd2 0abf
00000020: 2592 733e 99d1 a2be d261 d2bc 1198 1abf

conv_net.3.weight f4 [12, 12, 3, 3]
-0.32815865 0.21596143 -0.06227963 -0.2020622 -0.24888568 -0.17652945 -0.35732213 0.036066838
-0.19660522 -0.3648049 -0.43923593 -0.033061426 -0.6837906 -0.0003684467 0.27777043 -0.31885457
-0.024239972 0.24113467 -0.62779504 0.53654975 0.19664124 -0.22203182 -0.31649944 0.085308015
0.1676576 0.19074205 0.17504188 -0.31074673 -0.15155034 0.421741 0.2394819 -0.59945786
0.18889491 -0.06550966 0.15862282 -0.21249709 -0.02062141 0.044534788 0.045429505 -0.06280771
0.08879384 -0.08301461 0.06986433 0.06536039 0.09426964 -0.35672322 -0.11433429 -0.046691
-0.37181398 -0.18469079 0.17982496 -0.1800273 0.15916225 -0.013493961 -0.48821944 -0.20958698
0.30269274 -0.039510332 -0.028045798 0.011506211 0.13473473 0.0050756703 -0.12126463 -0.3100461
0.44196218 -0.42544267 0.34654635 -0.7879646 -0.14976038 0.0441388 -0.19982168 -0.21472043
-0.55003506 1.1890665 -0.34724984 -0.13911635 0.2857911 0.17491302 -0.22221887 -0.182874
-0.32840765 -0.5003831 -0.24392873 0.07972767 -0.1711916 -0.022405121 -0.035657827 -0.1009262
-0.57463616 -0.21842171 -0.96820986 0.067456424 -0.1585769 0.5087793 -0.8743331 -0.39403468
-0.24936531 -0.43829918 0.11349033 -0.628654 -0.041960966 -0.35369343 -0.021610588 -0.45846987
0.32042617 0.038706664 0.030189192 -0.22311772 0.035099637 0.5929202 0.75434893 0.025669124
0.07083104 -0.6276547 0.13798557 0.16546133 -0.1887363 -0.0897914 -0.3501925 -0.21287799
0.13360928 0.38668698 -0.10862083 0.07964888 0.20558274 -0.018471844 -0.17994294 0.060219318
0.06526063 0.16947725 0.68223834 0.3309141 -0.4459175 -0.3410639 -0.084191315 -0.15391392
-0.48518568 -0.25955084 0.25363007 0.44063592 -0.084893614 -0.20534459 0.057257235 -0.5001022
0.08792975 0.017224032 0.016514614 -0.03492535 0.0761699 -0.05891866 0.028959861 0.07795091
-0.106935814 -0.036073994 -0.25830275 -0.16764171 -0.0431681 0.13187978 0.08138251 -0.48262158
-2.5939937 -0.49224883 0.09549937 0.006639271 -0.28991824 -0.070243 -0.048156835 0.1103599
-0.28102133 -0.62220997 -0.6344755 0.27883387 -0.22639516 0.16766474 1.0939984e-05 0.038448617
0.0275731 -0.09605676 -0.045633353 0.023558099 -0.11490008 0.1915452 -0.012684131 -0.4736192
-0.46259257 -0.22298382 -0.16789156 -0.014441827 -0.025066648 -0.26583055 -0.1788349 0.025267718
-0.16483025 0.67328703 0.007176101 -0.36245912 -1.0816848 -0.14599404 -0.43041942 -0.067470506
-1.2062718 -0.22005767 0.26419035 0.2507523 0.11633814 0.346781 0.29503712 0.13439676
0.019253202 0.2708951 0.09697482 0.28495106 -0.7142459 0.11542681 -0.51177967 -0.35029393
-0.22526729 -0.09889303 -0.0031406728 0.13958849 -0.36622578 -0.61193293 -0.3904789 -0.056289833
0.12794174 -0.19234942 -0.16356501 0.13117744 -0.09067429 0.07525846 -0.16201603 0.16435798
0.0154848825 -0.21727937 -0.2795279 -0.056898974 0.11023421 -0.037188847 0.084390976 0.15624273
0.20561916 0.19009402 -0.082831606 0.34320867 0.31034297 0.1578877 0.3007182 -0.1250373
-0.027662143 -0.0789361 0.010643588 0.27716878 0.051640842 0.026339548 -0.002798388 0.04027028
00000000: 6904 a8be fe24 5d3e ed18 7fbd 65e9 4ebe
00000010: e3db 7ebe 23c4 34be edf2 b6be d2ba 133d
00000020: e152 49be b5c7 babe 88e3 e0be 6b6b 07bd
00000030: e70c 2fbf 142c c1b9 ed37 8e3e e840 a3be
00000040: e892 c6bc 02ec 763e 2db7 20bf 535b 093f
00000050: 525c 493e 4f5c 63be 370c a2be f8b5 ae3d
00000060: 6fae 2b3e e251 433e 2e3e 333e 321a 9fbe
00000070: 0330 1bbe 70ee d73e be3a 753e 1276 19bf
00000080: ab6d 413e ee29 86bd 056e 223e d698 59be
00000090: 3bee a8bc 1c6a 363d 4a14 3a3d 54a1 80bd
000000a0: 8bd9 b53d 9003 aabd 0815 8f3d abdb 853d
000000b0: 7110 c13d 6da4 b6be 1928 eabd 103f 3fbd
000000c0: 675e bebe 951f 3dbe 0924 383e 1459 38be
000000d0: 6efb 223e c615 5dbc e6f7 f9be f89d 56be
000000e0: 8bfa 9a3e 96d5 21bd 4dc0 e5bc 8c84 3c3c
000000f0: e7f7 093e cf51 a63b 9759 f8bd 5dbe 9ebe
00000100: de48 e23e 9fd3 d9be 866e b13e 0cb8 49bf
00000110: c95a 19be e3ca 343d 0e9e 4cbe acdf 5bbe
00000120: 19cf 0cbf 5533 983f bbca b1be 8474 0ebe
00000130: 3653 923e 661c 333e 588d 63be 5243 3bbe
00000140: 0c25 a8be 1b19 00bf 74c8 79be 4348 a33d
00000150: da4c 2fbe f28a b7bc f10d 12bd 65b2 cebd
00000160: 5b1b 13bf f1a9 5fbe 9adc 77bf 9826 8a3d
00000170: fc61 22be 5c3f 023f 4bd4 5fbf eabe c9be
00000180: 9f59 7fbe c068 e0be 9e6d e83d 78ef 20bf
00000190: 43df 2bbd 4e17 b5be b008 b1bc 90bc eabe
000001a0: e60e a43e e18a 1e3d 534f f73c f978 64be
000001b0: a3c4 0f3d 9ec9 173f 031d 413f 0e48 d23c
000001c0: dd0f 913d faad 20bf 174c 0d3e b26e 293e
000001d0: 1744 41be 8ee4 b7bd 6e4c b3be b0fc 59be
000001e0: dfd0 083e d6fb c53e 9974 debd f41e a33d
000001f0: 4884 523e 4452 97bc f642 38be 88a8 763d
00000200: 5da7 853d 728b 2d3e 2ca7 2e3f 936d a93e
00000210: 4c4f e4be ed9f aebe 7f6c acbd 9c9b 1dbe
00000220: 426a f8be d9e3 84be cddb 813e 089b e13e
00000230: b4dc adbd da45 52be 9086 6a3d b306 00bf
00000240: 8314 b43d 6a19 8d3c a849 873c e20d 0fbd
00000250: f7fe 9b3d b154 71bd 3b3d ed3c baa4 9f3d
00000260: 2a01 dbbd 53c2 13bd 4240 84be 45aa 2bbe
00000270: 09d1 30bd 7e0b 073e e0ab a63d 2d1a f7be
00000280: fe03 26c0 0a08 fcbe 2c95 c33d 3e8e d93b
00000290: 2a70 94be 90db 8fbd 1a40 45bd 5f04 e23d
000002a0: 07e2 8fbe 2749 1fbf fd6c 22bf 50c3 8e3e
000002b0: 22d4 67be 4eb0 2b3e e08a 3737 4c7c 1d3d
000002c0: fbe0 e13c 68b9 c4bd 0aea 3abd eafc c03c
000002d0: bc50 ebbd 6d24 443e 1ad1 4fbc 377e f2be
000002e0: efd8 ecbe df55 64be c4eb 2bbe 6a9d 6cbc
000002f0: 9258 cdbc f11a 88be 7f20 37be 3ffe ce3c
00000300: 43c9 28be 8a5c 2c3f 8025 eb3b 3e94 b9be
00000310: a674 8abf 767f 15be ef5f dcbe fa2d 8abd
00000320: 1d67 9abf cc56 61be f543 873e 9b62 803e
00000330: b142 ee3d 478d b13e 1b0f 973e 4e9f 093e
00000340: e4b8 9d3c c3b2 8a3e bc9a c63d 1be5 913e
00000350: d2d8 36bf e464 ec3d fe03 03bf ba59 b3be
00000360: 78ac 66be 6e88 cabd bfd3 4dbb 49f0 0e3e
00000370: f281 bbbe a3a7 1cbf daec c7be 2b90 66bd
00000380: 2903 033e 3ff7 44be 967d 27be 6153 063e
00000390: 71b3 b9bd 1c21 9a3d 88e7 25be 754d 283e
000003a0: 4eb4 7d3c 7c7e 5ebe 481e 8fbe e60e 69bd
000003b0: 79c2 e13d 5553 18bd 2dd5 ac3d 18fe 1f3e
000003c0: d48d 523e 02a8 423e 9ea3 a9bd 0cb9 af3e
000003d0: 46e5 9e3e 50ad 213e bcf7 993e c709 00be
000003e0: b89b e2bc 40a9 a1bd 7262 2e3c 11e9 8d3e
000003f0: 5985 533d 09c6 d73c 2965 37bb 73f2 243d

conv_net.3.bias f4 [12]
0.2636196 -0.4062875 -0.07086022 0.07167108 -0.53135854 0.3231956 0.31543565 -0.05849212
-0.3617381 -0.097568 -0.20381048 -0.44488242
00000000: 26f9 863e ea04 d0be 2a1f 91bd 4ac8 923d
00000010: 1d07 08bf e579 a53e c880 a13e 6f95 6fbd
00000020: bc35 b9be bbd1 c7bd b2b3 50be a1c7 e3be

conv_net.6.weight f4 [12, 12, 3, 3]
-0.090507224 -0.10456058 -0.062093977 0.038970094 0.04166209 -0.112756975 -0.027984336 -0.10209681
-0.036814507 0.008677563 -0.06779758 -0.05593941 -0.06268302 -0.18387747 -0.018150665 0.023789436
-0.12830628 -0.11465448 -0.06828165 0.007228739 0.024795434 -0.013342825 -0.02178067 -0.112715065
0.027673764 0.047923487 -0.022792418 0.09376573 -0.09151533 -0.0049531693 -0.018290626 -0.0930671
-0.004677647 -0.06981745 0.037490025 -0.09842909 -0.12237032 -0.043432113 -0.069304354 -0.10867524
-0.023515413 0.02844111 -0.10983468 -0.0062654307 -0.06460911 -0.13497362 -0.14110582 -0.11585407
-0.06897478 -0.044092864 0.031715117 -0.052743923 -0.13724852 -0.11966538 0.042038668 0.039842263
-0.03744736 -0.11366697 -0.028361887 -0.13272907 -0.006948089 -0.13391352 -0.03440427 0.048748415
0.05046587 -0.04549198 -0.08195691 -0.067513674 0.048364155 -0.10508774 -0.03162348 0.033615265
-0.03530266 0.042499635 0.0339234 -0.03786205 -0.08006282 -0.054158546 0.04363245 -0.09275705
-0.044185866 0.0250281 0.04715633 0.0124961445 -0.017641218 -0.049963113 0.057788197 0.007956379
0.054664128 -0.06409467 0.03410269 -0.06568676 0.062351093 -0.02660944 -0.09783102 -0.0032120897
0.04575995 -0.07217064 0.015558732 0.03515049 0.04077954 -0.039077252 -0.037620842 -0.080656424
-0.058945887 -0.0907073 -0.03963574 -0.11267076 0.1205505 0.19392084 -0.11658275 0.2120332
-0.16686776 -0.015985152 0.035787523 -0.14053771 -0.37153068 -0.4262362 0.02017888 0.31361428
-0.50864977 0.74567777 -0.2296432 -0.41668734 0.06017141 0.21539268 0.1255249 0.10263568
-0.08377725 0.25240183 -0.0016544522 -0.1701953 0.3165085 -0.06593145 -0.13738956 0.0881435
0.014223597 0.21137853 -0.14140075 0.014993816 0.14543617 -0.025783721 0.05893421 -0.3230615
-0.16631415 0.21680817 -0.09543098 -0.25322932 0.14040826 0.14267041 0.13394931 -0.4073526
-0.036506705 0.16494247 -0.22152859 -0.48637584 0.20209855 -0.35667056 0.006031681 -0.35682827
0.06975656 -0.23653974 0.30590615 -0.48974717 -0.16205214 0.13071461 -0.13145433 0.21377666
-0.21507362 -0.19845523 0.00201963 0.29673752 0.47852767 0.35742208 0.08249701 0.41617352
0.18125558 -0.5477244 -0.28698382 0.20830001 0.22804588 0.3358384 0.47611457 0.55682915
0.0049139108 -0.6381533 0.36684796 0.06160754 -0.5814807 0.057897132 0.05663605 -0.0076576234
0.102411754 0.021700278 0.06614272 -0.009552211 0.06285586 0.10841399 0.30014613 0.41518095
-0.04581842 -0.011735593 0.07541979 -0.11371743 -0.09860255 0.2410208 0.47958717 -0.095774665
0.18288247 0.28467923 -0.022398937 0.0130716795 0.1648675 0.10638342 0.114354976 0.056957584
-0.27007923 -0.2904313 -0.33776596 0.22814955 0.09089126 -0.109387845 -0.010778612 0.3373563
-0.06818309 0.14599067 0.05163888 -0.2079494 -0.13337758 -0.36939913 -0.010940052 -0.24326022
0.24597001 -0.08086125 -0.70771974 -0.20972942 -0.047343973 0.2169163 0.041643407 0.15119554
0.16425905 -0.013405744 0.28544307 -0.5428051 -0.39765507 0.005667042 0.33769715 0.26954186
0.19212016 0.22503003 0.14819632 -0.1873351 -0.63572925 0.2117591 0.25272134 -0.023270046
00000000: da5b b9bd db23 d6bd 4156 7ebd 1b9f 1f3d
00000010: dea5 2a3d 21ed e6bd 683f e5bc 2218 d1bd
00000020: cfca 16bd 562c 0e3c 75d9 8abd b920 65bd
00000030: f55f 80bd 604a 3cbe b4b0 94bc 10e2 c23c
00000040: b962 03be f8cf eabd 40d7 8bbd 0fdf ec3b
00000050: cb1f cb3c dd9b 5abc 606d b2bc 28d7 e6bd
00000060: 17b4 e23c 6b4b 443d 2ab7 babc 3f08 c03d
00000070: 646c bbbd 324e a2bb 39d6 95bc f799 bebd
00000080: f246 99bb 74fc 8ebd 248f 193d 3195 c9bd
00000090: 4a9d fabd dfe5 31bd 71ef 8dbd 2091 debd
000000a0: 65a3 c0bc 55fd e83c 01f1 e0bd 3e4e cdbb
000000b0: c851 84bd 8636 0abe 0b7e 10be e644 edbd
000000c0: a642 8dbd b89a 34bd b6e7 013d 030a 58bd
000000d0: e08a 0cbe 1f13 f5bd bd30 2c3d a431 233d
000000e0: 6762 19bd 3aca e8bd 3057 e8bc 21ea 07be
000000f0: ccac e3bb a020 09be 7eeb 0cbd 6bac 473d
00000100: 4db5 4e3d cc55 3abd 06d9 a7bd 9c44 8abd
00000110: 7e19 463d 3e38 d7bd 9f87 01bd 29b0 093d
00000120: 8699 10bd 1914 2e3d 43f3 0a3d 3d15 1bbd
00000130: faf7 a3bd 5ad5 5dbd f1b7 323d 69f7 bdbd
00000140: 3dfc 34bd bb07 cd3c ff26 413d a1bc 4c3c
00000150: 5184 90bc 1fa6 4cbd 51b3 6c3d 795b 023c
00000160: 7ee7 5f3d 1144 83bd 43af 0b3d c886 86bd
00000170: dc63 7f3d 0afc d9bc a15b c8bd ec81 52bb
00000180: c96e 3b3d 33ce 93bd 0dea 7e3c f6f9 0f3d
00000190: 7208 273d 780f 20bd 5018 1abd 322f a5bd
000001a0: 3e71 71bd c0c4 b9bd 1659 22bd edbf e6bd
000001b0: 2ee3 f63d 2f93 463e f0c2 eebd 3b1f 593e
000001c0: 62df 2abe 4bf3 82bc f095 123d 1ee9 0fbe
000001d0: 4539 bebe a23b dabe 2e4e a53c 0d92 a03e
000001e0: df36 02bf bde4 3e3f 9627 6bbe 0b58 d5be
000001f0: 4c76 763d e68f 5c3e 9989 003e a832 d23d
00000200: 6893 abbd d03a 813e 34da d8ba ad47 2ebe
00000210: 670d a23e 1107 87bd d9af 0cbe 9484 b43d
00000220: 170a 693c 9d73 583e 5ccb 10be 9fa8 753c
00000230: 38ed 143e 6238 d3bc 0065 713d 5168 a5be
00000240: 424e 2abe f602 5e3e 5171 c3bd 46a7 81be
00000250: 2fc7 0f3e 3118 123e 022a 093e 8590 d0be
00000260: 0e88 15bd aee6 283e 64d8 62be 4106 f9be
00000270: ecf2 4e3e 869d b6be 68a5 c53b 32b2 b6be
00000280: 87dc 8e3d 7937 72be bb9f 9c3e 24c0 fabe
00000290: fff0 25be 0dda 053e f79b 06be 45e8 5a3e
000002a0: 423c 5cbe d937 4bbe c55b 043b fbed 973e
000002b0: 9401 f53e 0700 b73e 31f4 a83d b214 d53e
000002c0: 109b 393e ab37 0cbf 8bef 92be 994c 553e
000002d0: dc84 693e 03f3 ab3e 4ac5 f33e 5b8c 0e3f
000002e0: df04 a13b 045e 23bf 7fd3 bb3e 3058 7c3d
000002f0: ebdb 14bf 8b25 6d3d 34fb 673d cdec fabb
00000300: 41bd d13d c8c4 b13c d675 873d e080 1cbc
00000310: 93ba 803d 2708 de3d c1ac 993e 9992 d43e
00000320: 18ac 3bbd a546 40bc b175 9a3d afe4 e8bd
00000330: 22f0 c9bd 28ce 763e 738c f53e 8225 c4bd
00000340: 8b45 3b3e 7ac1 913e fa7d b7bc 992a 563c
00000350: 07d3 283e 8ddf d93d f132 ea3d 5b4c 693d
00000360: d347 8abe 69b3 94be a9ef acbe 09a0 693e
00000370: 3225 ba3d bc06 e0bd c798 30bc f7b9 ac3e
00000380: 93a3 8bbd 947e 153e 4a83 533d b0f0 54be
00000390: 2294 08be e221 bdbe e73d 33bc 3519 79be
000003a0: 90df 7b3e 959a a5bd 1f2d 35bf 4fc3 56be
000003b0: c1eb 41bd 4e1f 5e3e 4792 2a3d 01d3 1a3e
000003c0: 8633 283e c4a3 5bbc 9825 923e 46f5 0abf
000003d0: 7299 cbbe 98b2 b93b a4e6 ac3e 6401 8a3e
000003e0: 26bb 443e 466e 663e c7c0 173e c6d4 3fbe
000003f0: 27bf 22bf 61d7 583e b164 813e d3a0 bebc

conv_net.6.bias f4 [12]
-0.16608313 -0.041826453 -0.034613483 -0.15031675 0.3989132 0.27058667 0.23726104 0.33704546
-0.09404606 0.13367948 -0.060899727 -0.014137501
00000000: b211 2abe 3752 2bbd dec6 0dbd a2ec 19be
00000010: 5a3e cc3e 568a 8a3e 8ff4 723e 3991 ac3e
00000020: 399b c0bd 46e3 083e fe71 79bd faa0 67bc

mu_net.0.weight f4 [128, 432]
0.039898824 0.009913679 0.013416129 -0.03196341 -0.046303626 -0.039861698 0.038390134 0.011554996
-0.02697589 -0.040344663 0.0332479 0.028520875 -0.020834705 0.033966627 0.04611573 0.028939862
-0.029248636 -0.04511491 0.016115088 0.0051522898 0.038564354 0.009020095 0.010077914 0.0323789
-0.0020510291 0.023001757 0.021239812 0.038662143 0.034428142 -0.026960324 -0.009755375 0.004913408
0.017896252 -0.01256758 -0.011939902 0.013319343 -0.07241071 -0.054624923 -0.06200222 -0.022767805
-0.04127855 0.009838924 0.005364536 -0.014242933 0.00033142016 -0.019394316 -0.044396736 -0.06440198
-0.05273146 -0.060041554 -0.03338115 -0.035330273 -0.036785997 -0.050466713 -0.019581137 -0.07178083
-0.0034812384 -0.053285025 -0.04937237 0.0012444636 -0.00021724649 0.026014447 -0.06086223 0.008907347
-0.03880299 -0.07560938 0.0011127493 -0.06108714 -0.010757998 -0.0010795586 0.003084933 -0.031766385
-0.0028513486 0.007181691 -0.062096804 0.016418008 0.01154345 -0.033099193 -0.038962934 -0.011995387
-0.061135624 -0.06405555 -0.031856656 -0.021199686 -0.01747333 -0.039359685 -0.04418472 -0.04232709
-0.07044422 0.009624417 0.035519574 -0.060861867 -0.0053511034 -0.065996654 -0.04270002 -0.035016175
-0.003805443 -0.03475185 -0.071989305 -0.047431156 -0.05859561 -0.015458148 0.036889758 -0.033615973
-0.025172433 0.022824308 -0.05367433 -0.024616363 -0.03214197 -0.027711092 -0.020094791 0.013594623
0.019924734 -0.006604588 0.0023090444 -0.029818637 0.033827495 -0.010633811 -0.003154262 0.033379354
0.036195602 -0.013125244 0.022683302 -0.027578814 0.0289209 0.040913694 0.028611869 -0.03171255
-0.018306136 -0.025082083 -0.037211575 0.019481951 -0.044347882 -0.033964545 -0.008757863 0.0096098315
0.019640611 -0.02342855 -0.0354533 -0.029827034 0.0056012557 0.028552162 -0.03995732 -0.036753267
-0.02695377 -0.053949334 0.006777827 0.0055030757 -0.04529188 -0.054568443 -0.0236872 -0.0069418647
-0.04718167 -0.031775218 -0.028670652 -0.022497313 -0.04780645 0.015017885 0.036720254 -0.0103823375
-0.022101391 0.008110871 -0.06387623 -0.03677626 -0.060054023 0.0055411193 -0.00561749 -0.047122955
-0.038018856 -0.04968314 -0.039147533 -0.04626309 0.009892189 -0.027061464 -0.03833931 0.039635327
-0.021919465 0.030336298 -0.041309785 -0.008322347 -0.01643552 -0.043909993 0.01594294 -0.008960837
-0.021132387 -0.013993132 0.03374411 -0.03454022 0.038714185 -0.010988207 -0.081153624 -0.0030889236
-0.045027222 -0.007532853 0.024506232 0.003977867 0.027805792 -0.030669916 -0.057478216 0.030259086
-0.035548054 -0.06743356 0.028862216 0.0121005615 0.023369767 -0.021543376 -0.0008329086 -0.0121410545
-0.04323445 0.014174157 0.007728962 -0.024338366 0.008075852 -0.07234505 0.01648175 -0.03982088
0.041690346 0.02273027 -0.041105468 0.028455842 0.0026895648 0.014011463 0.035495054 0.035013482
0.031076975 -0.039690007 -0.02648111 -0.029272804 0.024663066 -0.052976962 -0.026192429 -0.052341536
-0.04367429 -0.003993286 0.0103315 0.036647774 -0.037135787 -0.050949384 -0.010646518 0.016444046
-0.050469514 -0.044238288 -0.04932795 0.022187656 -0.028104628 -0.030459223 -0.02494207 0.017089002
-0.0389696 -0.003481014 -0.009819264 -0.012390206 0.039849218 -0.02510794 -0.0015102075 0.010841322
00000000: f36c 233d fc6c 223c 53cf 5b3c 11ec 02bd
00000010: dfa8 3dbd 0546 23bd f93e 1d3d 2a51 3d3c
00000020: 8bfc dcbc 7240 25bd f32e 083d 9ca4 e93c
00000030: 8bad aabc 9720 0b3d d9e3 3c3d 4a13 ed3c
00000040: d69a efbc 69ca 38bd ca03 843c 8ad4 a83b
00000050: a8f5 1d3d 05c9 133c d61d 253c bd9f 043d
00000060: 8f6a 06bb 2e6e bc3c 1dff ad3c 325c 1e3d
00000070: 8604 0d3d e6db dcbc 02d5 1fbc a700 a13b
00000080: 299b 923c 40e8 4dbc 949f 43bc 6039 5a3c
00000090: 114c 94bd 62be 5fbd 0af6 7dbd 8c83 babc
000000a0: b213 29bd 7033 213c fdc8 af3b 315b 69bc
000000b0: 76c2 ad39 d4e0 9ebc 5ad9 35bd 2fe5 83bd
000000c0: f2fc 57bd 22ee 75bd acba 08bd 7ab6 10bd
000000d0: eaac 16bd 2fb6 4ebd 9f68 a0bc d401 93bd
000000e0: 7d25 64bb 6641 5abd af3a 4abd 451d a33a
000000f0: a9cc 63b9 401c d53c ac4a 79bd 1ff0 113c
00000100: e2ef 1ebd 17d9 9abd acd9 913a 8236 7abd
00000110: 5042 30bc fa7f 8dba 962c 4a3b 781d 02bd
00000120: b1dd 3abb 6454 eb3b 3859 7ebd 0f7f 863c
00000130: bd20 3d3c 0593 07bd 9997 1fbd 4d88 44bc
00000140: 5969 7abd 8e2f 83bd 207c 02bd f7aa adbc
00000150: 3b24 8fbc 9f37 21bd 09fb 34bd 2c5f 2dbd
00000160: 0f45 90bd bbaf 1d3c f97c 113d 4b4a 79bd
00000170: 4f58 afbb 4129 87bd 37e6 2ebd 1f6d 0fbd
00000180: bd64 79bb f557 0ebd 216f 93bd 2c47 42bd
00000190: f301 70bd 2c44 7dbc b719 173d e7b0 09bd
000001a0: 6b36 cebc 0bfa ba3c 9dd9 5bbd 41a8 c9bc
000001b0: 4ca7 03bd 5f02 e3bc d59d a4bc fbbb 5e3c
000001c0: 3239 a33c 4d6b d8bb 5653 173b 3746 f4bc
000001d0: b38e 0a3d 7039 2ebc bcb7 4ebb cab8 083d
000001e0: d741 143d 430b 57bc 55d2 b93c f7ec e1bc
000001f0: 86eb ec3c 1e95 273d 7063 ea3c 05e5 01bd
00000200: c0f6 95bc f178 cdbc 2a6b 18bd 9d98 9f3c
00000210: 20a6 35bd 681e 0bbd 247d 0fbc 8e72 1d3c
00000220: 59e5 a03c 3bed bfbc 7b37 11bd d357 f4bc
00000230: bd8a b73b 39e6 e93c 49aa 23bd 988a 16bd
00000240: 27ce dcbc faf9 5cbd 8918 de3b 2553 b43b
00000250: fa83 39bd 2983 5fbd a90b c2bc 9578 e3bb
00000260: 9141 41bd bb26 02bd b7de eabc 494c b8bc
00000270: b2d0 43bd 930d 763c fa67 163d ae1a 2abc
00000280: fa0d b5bc 75e3 043c 8ad1 82bd b4a2 16bd
00000290: 35fb 75bd 4792 b53b ec12 b8bb 0004 41bd
000002a0: a9b9 1bbd 8c80 4bbd 2a59 20bd 5e7e 3dbd
000002b0: d912 223c 01b0 ddbc ae09 1dbd a758 223d
000002c0: 7390 b3bc d483 f83c 7334 29bd 745a 08bc
000002d0: c9a3 86bc f7da 33bd c59a 823c 79d0 12bc
000002e0: d41d adbc 7343 65bc 4437 0a3d 0c7a 0dbd
000002f0: c492 1e3d e107 34bc df33 a6bd 8a6f 4abb
00000300: 776e 38bd 27d6 f6bb 4bc1 c83c c458 823b
00000310: f9c8 e33c 7a3f fbbc 476e 6bbd e7e1 f73c
00000320: d69a 11bd 9b1a 8abd 7470 ec3c 6f41 463c
00000330: f471 bf3c bc7b b0bc 8d57 5aba 46eb 46bc
00000340: 9b16 31bd b93a 683c 3c43 fd3b 4161 c7bc
00000350: 9450 043c a429 94bd bc04 873c 381b 23bd
00000360: 7fc3 2a3d d534 ba3c 355e 28bd 3a1c e93c
00000370: 6943 303b 5690 653c 4363 113d 4c6a 0f3d
00000380: 2495 fe3c fd91 22bd eaee d8bc 85cd efbc
00000390: 330a ca3c 5ffe 58bd 8191 d6bc 1464 56bd
000003a0: d0e3 32bd 1cda 82bb 7445 293c fa1b 163d
000003b0: b21b 18bd 4db0 50bd bc6e 2ebc aab5 863c
000003c0: 1fb9 4ebd 3533 35bd 1b0c 4abd e3c2 b53c
000003d0: ad3b e6bc 9f85 f9bc 5053 ccbc 3cfe 8b3c
000003e0: 969e 1fbd b921 64bb fae0 20bc 4a00 4bbc
000003f0: ef38 233d 2baf cdbc 28f2 c5ba cd9f 313c

mu_net.0.bias f4 [128]
-0.0053861695 -0.064686865 0.011884853 -0.041109726 -0.09354747 0.0139158135 -0.064953625 -0.06299217
-0.10300055 -0.07721085 -0.012764382 -0.052815244 -0.027711255 -0.12337352 -0.041184735 -0.077235
0.09400426 -0.036537495 -0.03810071 -0.08154347 -0.02056704 -0.060289245 -0.10760857 -0.059333622
-0.019729624 -0.019020753 -0.035480324 -0.08239923 -0.044123363 -0.0133941695 -0.044773415 -0.05175997
-0.07449766 -0.06085636 -0.06967672 -0.05229627 -0.06694432 -0.059957854 -0.04428296 -0.019639881
-0.06351066 -0.070512734 -0.014618087 -0.07506554 -0.0778693 -0.046989113 -0.018521126 -0.15894282
-0.035499834 -0.078953855 0.0069295773 -0.056073412 -0.038462587 -0.0015739852 -0.041938007 -0.05065841
0.0078025036 -0.00042888423 -0.0012894106 0.013906349 -0.006067316 -0.07812922 -0.028440254 -0.09111725
-0.024800468 -0.06679252 -0.06362513 -0.037169255 -0.022885894 -0.06977614 -0.08315011 -0.12824237
-0.043177467 -0.07005397 0.18400447 0.094288796 -0.064738385 -0.08902285 -0.034982614 -0.0071557793
-0.076820865 -0.02955452 -0.06050176 -0.05647595 -0.06134259 0.001977058 -0.0033142262 -0.036893174
-0.09068916 -0.057432476 -0.11830156 -0.17550497 -0.0022054538 0.009008857 -0.0680836 -0.068994306
-0.035076782 -0.10228496 -0.014935531 -0.028750593 -0.005740002 -0.09971277 -0.023430016 -0.03736373
-0.0019859641 -0.09425304 -0.053950757 -0.06978933 -0.043010917 -0.07465718 -0.06762313 0.018912097
-0.04353666 -0.013209219 -0.084335774 -0.09530145 -0.006053642 -0.09332952 -0.122426756 0.042347696
-0.057012312 0.031029196 0.009903844 -0.026167579 -0.08317885 -0.064449064 -0.12422086 -0.19188446
00000000: 777e b0bb 8c7a 84bd b0b8 423c ac62 28bd
00000010: d195 bfbd 27ff 633c 6806 85bd 0a02 81bd
00000020: f4f1 d2bd b920 9ebd b321 51bc cc54 58bd
00000030: b702 e3bc 42ab fcbd 53b1 28bd 622d 9ebd
00000040: 4e85 c03d 57a8 15bd 7d0f 1cbd 4300 a7bd
00000050: 367c a8bc dbf1 76bd e261 dcbd d007 73bd
00000060: 05a0 a1bc 69d1 9bbc d153 11bd edc0 a8bd
00000070: b3ba 34bd 3873 5bbc 5464 37bd 4302 54bd
00000080: 3b92 98bd 8544 79bd abb2 8ebd 9d34 56bd
00000090: 1b1a 89bd 5e96 75bd 0d62 35bd d1e3 a0bc
000000a0: e011 82bd fb68 90bd b380 6fbc f6bb 99bd
000000b0: f179 9fbd a877 40bd 9eb9 97bc e8c1 22be
000000c0: 4668 11bd 8fb2 a1bd 8211 e33b 3cad 65bd
000000d0: f28a 1dbd 2e4e ceba 30c7 2bbd 317f 4fbd
000000e0: 25ac ff3b dedb e0b9 7101 a9ba 75d7 633c
000000f0: 56d0 c6bb 3602 a0bd 89fb e8bc ae9b babd
00000100: 5a2a cbbc 84ca 88bd e44d 82bd ca3e 18bd
00000110: 337b bbbc cbe6 8ebd 9b4a aabd f851 03be
00000120: dbda 30bd 7578 8fbd ab6b 3c3e 7c1a c13d
00000130: 8f95 84bd 9d51 b6bd ee49 0fbd 077b eabb
00000140: 4254 9dbd 521c f2bc b2d0 77bd 5353 67bd
00000150: 5e42 7bbd 8791 013b 7d33 59bb 4c1d 17bd
00000160: 3dbb b9bd 513e 6bbd 1748 f2bd 93b7 33be
00000170: 6089 10bb e399 133c 6a6f 8bbd e34c 8dbd
00000180: acac 0fbd c77a d1bd 28b4 74bc 5d86 ebbc
00000190: a016 bcbb 3536 ccbd 4ef0 bfbc b60a 19bd
000001a0: f326 02bb bd07 c1bd 78fb 5cbd b5ed 8ebd
000001b0: 372c 30bd dde5 98bd ff7d 8abd 8bed 9a3c
000001c0: 7f53 32bd 7b6b 58bc 3cb8 acbd 682d c3bd
000001d0: a15d c6bb 8c23 bfbd e1ba fabd c774 2d3d
000001e0: be85 69bd f130 fe3c bc43 223c 645d d6bc
000001f0: ac59 aabd dffd 83bd 8267 febd 5c7d 44be

mu_net.2.weight f4 [128, 128]
0.0765127 -0.08235198 -0.07392808 -0.020914428 -0.07917355 0.029610468 -0.055254724 -0.019699363
-0.049105894 -0.045972917 0.026053946 0.05343111 -0.013094699 0.0018098067 -0.009852626 -0.012943866
-0.09199799 0.03504301 0.032046385 0.05752773 0.05442432 -0.0071743685 0.0009244104 0.00532552
0.050709113 -0.0078964215 -0.066896684 0.06673889 -0.009560861 -0.01215656 -0.08238867 -0.029666731
-0.022572502 -0.061465856 -0.04842107 -0.042438835 0.06408629 0.080559514 0.015754845 0.015465796
0.08161984 0.04331681 -0.02081628 -0.044738814 -0.0019385442 -0.05234988 -0.06673247 0.05132105
0.0125674 -0.071564786 -0.006810737 -0.06707326 -0.03487229 0.08146191 -0.021361517 -0.024432654
0.013014599 0.08553531 -0.056566335 -0.07424665 -0.012656719 0.023943173 0.0773037 0.039596975
-0.07722392 -0.08838998 -0.079258956 -0.034642022 -0.09058116 0.037494928 0.0073440108 -0.011806482
0.008090845 0.077212416 -0.099524505 -0.07016035 0.04420624 -0.04111251 0.032771662 0.055042017
-0.0142913 0.03443608 -0.0056191958 0.0011104852 -0.01240013 0.035988916 -0.02420592 0.014085613
-0.007669546 0.03448081 0.03429034 0.026070818 0.048581965 -0.027663898 -0.060769886 -0.0038707033
-0.08220914 -0.106057845 0.024863081 0.051545177 -0.017263312 0.04796038 0.05583817 -0.06285212
0.0014098872 0.027267763 -0.039975114 0.07961617 0.0533756 -0.0059658126 -0.0049856445 -0.009450145
-0.06761674 0.0016821756 0.0209524 0.048143197 -0.010578896 -0.041215822 -0.020676201 -0.08239879
0.09357394 0.036878634 0.08531247 -0.045544107 -0.03878393 -0.0917794 0.051588234 -0.020071913
-0.010830642 -0.05822488 0.021698505 -0.07783756 -0.008308144 0.057871677 0.07725001 0.0099438075
0.04463716 0.00514299 -0.07605127 -0.041064613 0.019928506 0.038397454 -0.07583142 0.03221604
-0.17008224 0.018823592 0.028125945 0.002342838 -0.0050695185 0.010461027 -0.042846635 0.04553576
0.018371517 0.0192442 -0.027228462 0.051649753 -0.036297336 0.062147446 -0.017743913 -0.03939336
0.0044336715 -0.073548295 -0.008764567 0.059140008 -0.002849142 0.059108533 -0.01924439 -0.06269406
0.05296918 0.0367551 -0.05168035 0.06551748 0.072960354 -0.081093244 -0.063319296 0.029224383
0.06734959 -0.00042340724 0.06289457 -0.0054012556 0.062534094 -0.07673887 0.07069661 -0.050238553
-0.025327092 0.029305326 0.046318553 0.050446205 -0.01178205 0.012616823 0.015637163 -0.009403206
0.0056647463 -0.010335973 0.09630082 0.00998714 0.054515 0.021383425 0.0037834032 -0.08004387
-0.024300061 -0.050973684 -0.14292051 -0.041459378 -0.0613631 0.087145336 0.028641623 -0.10446412
-0.014280353 -0.085631765 -0.028779374 -0.08322658 -0.016199235 0.009490217 0.028661257 -0.08098359
-0.010266416 0.075468116 0.021198524 0.05433519 0.0152045535 0.029483305 -0.010432367 -0.0011581216
0.055809196 0.040577993 0.05446866 0.03230967 0.04033201 -0.05355539 -0.051654987 0.06794735
-0.05750684 0.035314113 0.00024964398 -0.07414072 0.0868785 -0.027087031 0.008115796 -0.055213254
0.053069603 0.022336164 0.063408785 -0.0025601997 0.07331836 -0.08169857 -0.06624021 -0.082869835
-0.07663715 -0.032566655 0.05391273 0.05228584 -0.004506044 0.0076418086 0.006505652 0.036196634
00000000: b1b2 9c3d 28a8 a8bd 9b67 97bd bc54 abbc
00000010: be25 a2bd a791 f23c c752 62bd 8f60 a1bc
00000020: 4323 49bd 194e 3cbd 166f d53c 94da 5a3d
00000030: 268b 56bc 0937 ed3a e96c 21bc 8212 54bc
00000040: 7169 bcbd 4289 0f3d 1243 033d 32a2 6b3d
00000050: 09ec 5e3d f716 ebbb 2254 723a b381 ae3b
00000060: 5cb4 4f3d fe5f 01bc 2101 89bd 66ae 883d
00000070: 28a5 1cbc 4f2c 47bc 64bb a8bd a507 f3bc
00000080: f8e9 b8bc 9fc3 7bbd 2c55 46bd 58d4 2dbd
00000090: ac3f 833d 63fc a43d 4e10 813c 4064 7d3c
000000a0: 4d28 a73d f86c 313d e786 aabc 0c40 37bd
000000b0: c016 feba d46c 56bd 09ab 88bd 0536 523d
000000c0: 7fe7 4d3c 8f90 92bd 9a2c dfbb b55d 89bd
000000d0: 3fd6 0ebd 80d5 a63d 59fe aebc fd26 c8bc
000000e0: 2f3b 553c 232d af3d 1ab2 67bd a10e 98bd
000000f0: 215e 4fbc 7924 c43c 6751 9e3d 7030 223d
00000100: 9327 9ebd ce05 b5bd 8552 a2bd cbe4 0dbd
00000110: 9d82 b9bd 4894 193d 07a6 f03b fa6f 41bc
00000120: 778f 043c 8b21 9e3d 81d3 cbbd 3bb0 8fbd
00000130: 9a11 353d 9765 28bd 943b 063d bd73 613d
00000140: 0f26 6abc d90c 0d3d 3b21 b8bb b38d 913a
00000150: ea29 4bbc 1d69 133d 7e4b c6bc 58c7 663c
00000160: d150 fbbb c03b 0d3d 0774 0c3d 7892 d53c
00000170: e2fd 463d 669f e2bc d8e9 78bd a0ab 7dbb
00000180: 445d a8bd db34 d9bd a9ad cb3c 0921 533d
00000190: ca6b 8dbc 1a72 443d 91b6 643d 9db8 80bd
000001a0: f7cb b83a a560 df3c f2bc 23bd cd0d a33d
000001b0: 60a0 5a3d dd7c c3bb 9e5e a3bb c8d4 1abc
000001c0: a57a 8abd 727c dc3a 5ea4 ab3c cd31 453d
000001d0: 1b53 2dbc ecd1 28bd 2361 a9bc b2c0 a8bd
000001e0: b2a3 bf3d 0d0e 173d 4eb8 ae3d 758c 3abd
000001f0: e6db 1ebd d7f6 bbbd 2f4e 533d da6d a4bc
00000200: 0173 31bc 367d 6ebd 10c1 b13c 4c69 9fbd
00000210: e21e 08bc da0a 6d3d 4135 9e3d 5aeb 223c
00000220: 74d5 363d 8786 a83b c5c0 9bbd 5e33 28bd
00000230: 1b41 a33c a646 1d3d 814d 9bbd f7f4 033d
00000240: 0a2a 2ebe ef33 9a3c 6268 e63c 4d8a 193b
00000250: 341e a6bb ba64 2b3c f47f 2fbd b483 3a3d
00000260: dd7f 963c 03a6 9d3c 390e dfbc b18e 533d
00000270: 84ac 14bd 528e 7e3d af5b 91bc ef5a 21bd
00000280: 5548 913b 7da0 96bd 4299 0fbc cb3c 723d
00000290: acb8 3abb ca1b 723d 69a6 9dbc be65 80bd
000002a0: 36f6 583d 848c 163d c6ae 53bd 072e 863d
000002b0: 3d6c 953d 3714 a6bd 8cad 81bd f967 ef3c
000002c0: 95ee 893d c2fc ddb9 dece 803d 04fd b0bb
000002d0: e011 803d 4529 9dbd 62c9 903d f1c6 4dbd
000002e0: c37a cfbc b911 f03c 86b8 3d3d aea0 4e3d
000002f0: 8009 41bc cbb6 4e3c 8219 803c e80f 1abc
00000300: 569f b93b 3758 29bc 5d39 c53d 1aa1 233c
00000310: 1f4b 5f3d 4b2c af3c f9f2 773b 0aee a3bd
00000320: ec10 c7bc c8c9 50bd c159 12be 4fd1 29bd
00000330: e057 7bbd 4179 b23d d6a1 ea3c 49f1 d5bd
00000340: 24f8 69bc b55f afbd b9c2 ebbc b272 aabd
00000350: 42b4 84bc db7c 1b3c 03cb ea3c b9da a5bd
00000360: 7834 28bc 078f 9a3d 87a8 ad3c 948e 5e3d
00000370: 851c 793c f986 f13c 85ec 2abc 1dcc 97ba
00000380: 2f98 643d 1c35 263d 881a 5f3d 2557 043d
00000390: 2d33 253d e65c 5bbd 2e94 53bd fb27 8b3d
000003a0: 4b8c 6bbd 88a5 103d a6e2 8239 17d7 97bd
000003b0: 5bed b13d 9fe5 ddbc 1ef8 043c 4b27 62bd
000003c0: 835f 593d 55fa b63c 77dc 813d 06c9 27bb
000003d0: f027 963d 9451 a7bd f2a8 87bd a9b7 a9bd
000003e0: f0f3 9cbd 9d64 05bd 98d3 5c3d ad29 563d
000003f0: 70a7 93bb 2368 fa3b 5d2d d53b ec42 143d

mu_net.2.bias f4 [128]
-0.19081612 -0.1383632 0.29480174 -0.12271959 -0.19867904 -0.07163984 -0.12330556 -0.17996949
-0.061564248 -0.32150555 -0.19693884 -0.21021682 -0.08911404 -0.1771719 -0.058997303 -0.25634092
-0.27599743 -0.12585855 0.32859263 -0.2605938 -0.07500229 -0.2070748 -0.10252269 -0.14754659
-0.14330027 0.23484926 -0.19871381 -0.119730905 -0.31129783 -0.062174972 -0.08198677 -0.1558945
-0.24530986 -0.14268298 -0.2793861 -0.12503429 -0.28993 -0.25896943 -0.08981029 -0.0770742
-0.085810125 0.15272237 -0.18092155 -0.00853162 -0.2479541 -0.13538863 -0.111088865 -0.022778928
-0.47874302 -0.24093354 -0.32064402 0.06389818 -0.26585394 -0.17469874 -0.3261393 -0.09174648
-0.14358395 0.20322886 -0.11578881 -0.2519542 -0.17278679 -0.20916054 -0.2250997 -0.119886145
-0.14629216 -0.19112512 -0.06638675 -0.16546105 -0.106424354 -0.1745914 -0.30995867 -0.2397127
-0.14130944 -0.13856857 -0.16946796 -0.12623672 0.2616332 -0.21169709 -0.10076569 -0.22840072
-0.05167077 -0.22091505 -0.14821357 -0.21587989 -0.032841053 -0.16958252 -0.2074467 -0.26909775
-0.35045648 -0.14980106 -0.2022388 -0.1258269 -0.20365244 -0.16719459 0.16868773 -0.20494042
0.10898617 -0.17924358 -0.14411426 -0.2832107 0.01760163 0.049082477 0.03221008 -0.24378996
-0.2449383 -0.18515684 -0.08020319 0.04732899 0.19632986 -0.0846283 -0.17064977 -0.19879097
-0.15050735 0.27491346 -0.17095537 -0.06264313 -0.21531202 -0.18187037 -0.112412795 -0.15349378
0.20095971 -0.10442228 -0.119251795 -0.18784219 -0.14023916 0.091943726 0.017753137 -0.134779
00000000: 4d65 43be 15af 0dbe 41f0 963e 6954 fbbd
00000010: 8572 4bbe e9b7 92bd a087 fcbd ec49 38be
00000020: cb2a 7cbd 609c a4be 56aa 49be 1443 57be
00000030: 6c81 b6bd 8d6c 35be 28a7 71bd 1e3f 83be
00000040: 894f 8dbe 10e1 00be 4b3d a83e 8d6c 85be
00000050: cd9a 99bd 6b0b 54be 6bf7 d1bd 7416 17be
00000060: 4ebd 12be 537c 703e a27b 4bbe 7a35 f5bd
00000070: 6e62 9fbe 2fab 7ebd aee8 a7bd cfa2 1fbe
00000080: 8232 7bbe 7d1b 12be b20b 8fbe fd08 00be
00000090: b471 94be a497 84be 75ee b7bd 14d9 9dbd
000000a0: 38bd afbd 4163 1c3e 8043 39be 35c8 0bbc
000000b0: aee7 7dbe 51a3 0abe 8f82 e3bd e09a babc
000000c0: ce1d f5be 48b7 76be 742b a4be 0ddd 823d
000000d0: 021e 88be 3ae4 32be bbfb a6be 94e5 bbbd
000000e0: ac07 13be 3a1b 503e af22 edbd 2400 81be
000000f0: 05ef 30be 2e2e 56be 8980 66be de86 f5bd
00000100: 9dcd 15be 4eb6 43be c7f5 87bd 9f6e 29be
00000110: 03f5 d9bd 17c8 32be e7b2 9ebe 3f77 75be
00000120: 6cb3 10be ebe4 0dbe 0289 2dbe 3344 01be
00000130: c9f4 853e 1fc7 58be 3e5e cebd e1e1 69be
00000140: bba4 53bd 8e37 62be 4cc5 17be 9e0f 5dbe
00000150: 5784 06bd 0aa7 2dbe e86c 54be 2ec7 89be
00000160: 086f b3be 7365 19be b017 4fbe c4d8 00be
00000170: 448a 50be 0f35 2bbe 7abc 2c3e e7db 51be
00000180: 2434 df3d a18b 37be b092 13be fe00 91be
00000190: 4b31 903c b50a 493d b8ee 033d 13a4 79be
000001a0: 1bd1 7abe c199 3dbe 9241 a4bd 0bdc 413d
000001b0: b20a 493e 9a51 adbd d0be 2ebe dc8f 4bbe
000001c0: 991e 1abe 75c1 8c3e ed0e 2fbe 0b4b 80bd
000001d0: c17a 5cbe 3a3c 3abe ae38 e6bd 792d 1dbe
000001e0: 62c8 4d3e 59db d5bd 493a f4bd b459 40be
000001f0: db9a 0fbe fe4c bc3d 076f 913c 8203 0abe

mu_net.4.weight f4 [3, 128]
0.025391866 -0.03958303 -0.11622625 -0.02804059 -0.07665629 0.021199387 -0.16653262 -0.06673917
-0.0023954601 -0.023860103 0.13538015 -0.036411166 0.028522301 -0.038677603 -0.02082071 0.0108932145
-0.10266705 0.008600526 -0.1425327 0.033555657 0.07613561 0.018284637 0.10213264 0.031406898
0.0061120167 -0.07413623 -0.2400648 0.0067182784 -0.09824611 -0.13652784 -0.100299425 -0.021228585
-0.010836759 0.008685982 -0.05583735 -0.011920852 0.0045336136 0.012849465 -0.04793131 0.037129194
0.3151849 0.09269152 0.015958253 -0.13476236 -0.043825783 0.116273336 -0.04638827 -0.24098322
0.41678256 -0.047914032 0.013682553 -0.24060695 -0.0019832912 -0.033400524 0.06414965 0.0059456853
0.051491044 0.06470791 -0.030445462 0.06768871 0.09843543 -0.04792892 0.053416852 0.03555726
0.0038384388 0.02942636 -0.13918886 -0.079716995 0.07345842 0.024049014 0.15398055 0.041468665
0.0333839 0.026035925 0.03126976 0.030114138 -0.0864931 0.042880427 0.04231104 -0.011498728
-0.0016281466 0.26350734 -0.00022284113 0.03917453 -0.12053886 -0.027635634 -0.021842353 0.04378984
-0.10836041 0.013990123 -0.0111943185 -0.18594763 -0.051451623 0.0016151493 -0.36909193 -0.025083173
-0.0693666 0.00868526 0.07290753 -0.033594087 -0.20841889 -0.11533884 0.021330003 0.09649321
-0.051050145 -0.052716505 0.17314114 -0.024609532 -0.11520815 0.13553764 -0.0134051815 0.004346784
0.018727483 -0.08877927 0.029866517 0.008340014 -0.01482793 0.014168665 -0.05069235 -0.018398225
-0.05209537 -0.02690641 0.043735072 -0.07907852 0.015361119 -0.30144417 -0.07895914 0.05999957
-0.033232797 -0.03387014 0.13247485 0.006476056 -0.01791468 0.027621623 -0.014734667 -0.025312798
0.02692698 0.14707498 0.042257883 0.050937824 -0.024460819 -0.031918608 0.035636663 -0.004751386
-0.08196869 -0.016765047 0.13828771 0.0024764945 0.038633127 -0.026831938 0.059727367 0.07162518
0.021578714 0.085154064 0.038824067 0.035384867 0.025079561 -0.1284098 -0.009388861 -0.004277758
-0.0055892803 -0.05816093 -0.18070182 0.0014459781 0.019725537 0.038548313 0.08548595 -0.022567417
0.05179803 0.16619702 -0.040970813 -0.0132891135 0.2510111 -0.10372679 -0.03182709 -0.13947296
0.00723058 -0.07249075 0.16580093 -0.011507397 0.074556835 -0.20668298 -0.009883248 0.0141700795
0.08042486 0.17743415 0.024489926 0.2555889 0.00860003 -0.027738908 0.037225887 0.03138639
0.0025595946 0.00015799685 0.070866674 -0.09779544 0.007963821 -0.0501571 0.08624876 -0.095300116
-0.007023417 -0.023621293 -0.015028484 0.079039305 0.10218505 -0.09103817 0.026626837 0.006574259
-0.1159722 0.03286409 -0.07127116 -0.13260771 -0.04347222 0.009858013 0.08350453 -0.03202452
0.053224355 0.033595335 0.017090067 0.17200597 0.21803658 0.027418764 -0.13260986 0.02893711
0.018271625 0.025533838 0.02501466 0.015024191 -0.04292675 -0.20597088 0.15207122 0.16928828
0.05711243 0.17387636 0.20154227 0.0018916618 0.10013609 0.05206879 -0.034360778 0.006852671
-0.030555261 0.11139292 0.018370789 -0.08120617 0.0014685687 0.0070748404 0.07171121 -0.02185691
0.19190224 -0.037034374 -0.04953926 0.0027168759 -0.03801645 -0.05488372 -0.10437184 -0.07531803
00000000: 9a02 d03c d121 22bd 0708 eebd 61b5 e5bc
00000010: f9fd 9cbd 56aa ad3c 8787 2abe 8cae 88bd
00000020: 27fd 1cbb 4376 c3bc 18a1 0a3e e023 15bd
00000030: 9aa7 e93c 686c 1ebd 3290 aabc 7479 323c
00000040: 1a43 d2bd 38e9 0c3c 18f4 11be a871 093d
00000050: fdec 9b3d aac9 953c eb2a d13d 85a4 003d
00000060: 5047 c83b bcd4 97bd 8cd3 75be 0125 dc3b
00000070: 4235 c9bd f4cd 0bbe c969 cdbd 92e7 adbc
00000080: a98c 31bc a64f 0e3c b5b5 64bd ad4f 43bc
00000090: b58e 943b 9086 523c 9f53 44bd c814 183d
000000a0: ea5f a13e 0dd5 bd3d e2ba 823c 25ff 09be
000000b0: aa82 33bd b720 ee3d a001 3ebd 4ec4 76be
000000c0: 8664 d53e 8141 44bd c92c 603c ab61 76be
000000d0: 1bfa 01bb fdce 08bd e460 833d 06d4 c23b
000000e0: 46e8 523d 9585 843d c368 f9bc 61a0 8a3d
000000f0: 8498 c93d 1d51 44bd a1cb 5a3d 7da4 113d
00000100: 518e 7b3b 8d0f f13c 8687 0ebe aa42 a3bd
00000110: 5e71 963d 7002 c53c 14ad 1d3e 0cdb 293d
00000120: 8ebd 083d 4b49 d53c b814 003d edb1 f63c
00000130: 4b23 b1bd 63a3 2f3d 574e 2d3d 2965 3cbc
00000140: 8967 d5ba 6fea 863e 76aa 69b9 7975 203d
00000150: 14dd f6bd 2064 e2bc bcee b2bc fa5c 333d
00000160: 10ec ddbd d436 653c 6068 37bc 0e69 3ebe
00000170: f0be 52bd 6bb3 d33a 9ef9 bcbe 3a7b cdbc
00000180: 1310 8ebd 9f4c 0e3c 8b50 953d f499 09bd
00000190: c36b 55be c536 ecbd 42bc ae3c 3b9e c53d
000001a0: f519 51bd 43ed 57bd e94b 313e ee99 c9bc
000001b0: 40f2 ebbd 61ca 0a3e 68a1 5bbc 786f 8e3b
000001c0: 616a 993c e8d1 b5bd a0aa f43c 8ea4 083c
000001d0: d9f0 72bc b023 683c c8a2 4fbd e0b7 96bc
000001e0: f461 55bd d56a dcbc 8c23 333d ebf3 a1bd
000001f0: 34ad 7b3c e456 9abe 54b5 a1bd 1cc2 753d
00000200: 1d1f 08bd 6abb 0abd 7da7 073e 1835 d43b
00000210: cfc1 92bc be46 e23c ac69 71bc c95c cfbc
00000220: f895 dc3c d39a 163e 9a16 2d3d 2ea4 503d
00000230: 0e62 c8bc 16bd 02bd c0f7 113d 84b1 9bbb
00000240: 33df a7bd da56 89bc 4b9b 0d3e af4c 223b
00000250: c53d 1e3d a7ce dbbc afa4 743d 39b0 923d
00000260: d8c5 b03c 4165 ae3d fc05 1f3d b9ef 103d
00000270: a773 cd3c dc7d 03be bdd3 19bc 6f2c 8cbb
00000280: 4826 b7bb 283a 6ebd e609 39be f986 bd3a
00000290: 7397 a13c d6e4 1d3d 4213 af3d 4edf b8bc
000002a0: 2c2a 543d 8d2f 2a3e 03d1 27bd 95ba 59bc
000002b0: 8784 803e b66e d4bd 1f5d 02bd 00d2 0ebe
000002c0: 80ee ec3b 0876 94bd b8c7 293e 8589 3cbc
000002d0: 41b1 983d b4a4 53be 59ed 21bc 9f29 683c
000002e0: cab5 a43d 4cb1 353e 199f c83c 8cdc 823e
000002f0: 24e7 0c3c b53c e3bc 2c7a 183d 048f 003d
00000300: dfbe 273b f5ab 2539 8c22 913d fa48 c8bd
00000310: b07a 023c 8871 4dbd 31a3 b03d b52c c3bd
00000320: b124 e6bb 7181 c1bc 083a 76bc 5cdf a13d
00000330: 6546 d13d 3872 babd 8620 da3c e26c d73b
00000340: d582 edbd 7f9c 063d 9df6 91bd 51ca 07be
00000350: ed0f 32bd 8183 213c 6c04 ab3d 252c 03bd
00000360: c801 5a3d 439b 093d 7800 8c3c 5522 303e
00000370: fb44 5f3e 519d e03c e1ca 07be 850d ed3c
00000380: 60ae 953c 572c d13c 8beb cc3c 0628 763c
00000390: f6d3 2fbd 08ea 52be 8fb8 1b3e e859 2d3e
000003a0: b9ee 693d a50c 323e 1961 4e3e a3f1 f73a
000003b0: 2614 cd3d 1546 553d e3bd 0cbd 5f8c e03b
000003c0: 074f fabc f921 e43d 567e 963c 6c4f a6bd
000003d0: fd7c c03a 10d4 e73b 54dd 923d 430d b3bc
000003e0: 0582 443e 5bb1 17bd aee9 4abd 9d0d 323b
000003f0: 23b7 1bbd c0cd 60bd e7c0 d5bd 5740 9abd

mu_net.4.bias f4 [3]
-0.11501499 0.33835003 -0.3890471
00000000: fb8c ebbd 373c ad3e 2e31 c7be
