car_racing_ppo/models/reward_100.pth (torch, 885789 bytes, 23 tensors)

conv_net.0.weight f4 [12, 3, 3, 3]
00000000: 14bb b1bc 2349 c3bd 7325 193e d56f debd
00000010: d38a 4a3e 7ab9 c7bd c579 2e3e 4657 2cbe
00000020: c88d 013d 61e7 dbbd db2f 8dbd 15ef 883d
00000030: 0749 bcbe 1c7c 943e f6be c33d 8eaf c4be
00000040: 2e02 293e eb66 0f3e 89aa 4ebe 4d9c 9abe
00000050: 506f 703e ab1c 80be 1e12 16be 2cc2 85bd
00000060: 8338 35bd 940e 1cbd fc2e d9bd 4b50 3ebd
00000070: ead3 fd3d 3cb9 a0be 34b2 4abe 3074 053e
00000080: 9490 95be f97d 443d 0f3b c9bd 7ded 4ebc
00000090: 4234 a23e ccd8 633e 8bdf 06be 7c30 383e
000000a0: 93ca 793e cdf1 383e 6f02 c1bc e164 913e
000000b0: 1e2e 713e 1273 68bd e76e de3d 788f 5bbd
000000c0: b9c9 f7bd 4109 573c 11ec 1fbe 98cd 8dbe
000000d0: db78 be3d 3442 35bd 4727 153d 3e02 64be
000000e0: 385c 973e b2f3 6d3d f262 04be e5d8 efbd
000000f0: a6bc 02be 9ce6 30be c3df 673e f9c5 abbc
00000100: 03a1 90bd b8ed 563e bd72 9cbd 82a1 c3be
00000110: 5424 3bbe f5df 2f3c 9bf8 b03d 2746 b83e
00000120: 63f2 07be aea0 10be bd0d 433e 8f53 633e
00000130: 454d 9cbd a025 bebd 03f9 653e 1366 b73d
00000140: e3bb 1d3e a843 4f3e 065d 1dbe 497d 753d
00000150: 9787 a53d bae7 683e fb4e 2d3d 5e5a e0bd
00000160: a159 3b3d 219b 083e 69bb e93c b2a1 633e
00000170: ff8e 2bbe 3277 04be 8cd1 d5bb 67af b6be
00000180: 09a3 733e 0395 18bc a7d5 883d 6703 5b3d
00000190: 548e 0bbe 2fed 53be f3a7 ffbc 1e1d 9e3d
000001a0: 9d4f d5be a80c 953d 2bd8 813d 6ca4 a9be
000001b0: 90fe 2e3d 223b 19be 941a 123e 6388 f0bd
000001c0: 078b e9bc 2b00 34be b888 fcbc 29e3 f5bd
000001d0: 46ce 83bb 0e64 45be eb6d 3dbe 247a 373b
000001e0: ea9c 2a3e e6cc 2dbe 0f3b 0f3d 7c2d ddbd
000001f0: 54b7 8abc 815f 9dbb 4997 49be 0d8c ab3c
00000200: aa6d 1dbe 2983 d83d 0b63 3fbe 84ed 013e
00000210: 8a90 223d 31bb 09bd f5e0 62bd 0f61 01be
00000220: b553 6fbe 7f0b 45be 4465 2a3d 225d 2e3c
00000230: 0d98 103e 694d 513e 8cca 2a3e b2ad b7be
00000240: 1958 a83d dca7 bbbd 6264 96be 4607 c03e
00000250: 1837 37be 8c3f 453d da96 fbbd 6294 883c
00000260: dfe0 80be 8164 703e 2575 ebbd df2f 503e
00000270: efa8 833e 9aa1 eb3c 4d2c 00be 6768 a23d
00000280: c646 b43d 230c fabe bc02 12bd d829 8d3e
00000290: cac2 6b3e 708d 223e 1b12 1d3e 9a01 ed3d
000002a0: 57ad 853b 668e 3b3e cb80 0a3e 6b8d 4e3d
000002b0: 81bf 03be 8668 67bd 4ca2 f33b 484d 9abe
000002c0: 67eb aebd 085f 0bbe 83b5 1cbe 48d9 2a3d
000002d0: a924 053e e89b 42be 73b5 ed3d 07ec 7bbe
000002e0: 7ccb 05bf 1c9d c7bd 6be1 1fbe 56a5 b0be
000002f0: 09f3 64bc e237 9f3d 156d 28bd 9988 5a3e
00000300: edf2 eabd 9f02 733d ef22 203d 0ded 4e3e
00000310: 7c07 4ebd bc1b 11be 5fb9 2e3e 718e 3dbe
00000320: f9b5 b6be a2a1 313e 092d 1b3e 0a8f f0bd
00000330: 0051 b43e 6d4c 93bd 6ab9 7c3d 6441 fcbd
00000340: f53f d0bd f749 49be 8fcd 253e 36e9 bbbc
00000350: cdfa 95bd d6ce b03e 81fa 27bd 4f63 853d
00000360: 08b3 813e fd53 23bf 3395 dbbd 28c2 93bd
00000370: 3de3 6fbe b7e6 383d 7bdd 943e b37c 25bd
00000380: 7200 713b f79a c5bd 5f29 2dbf d0fd a7bd
00000390: 8392 a1bd 4e7d 0fbe f60d c53c 5083 b03d
000003a0: 8d6a 8abe b778 cbbc 5219 923d 0a16 1abf
000003b0: c721 8cbd 938e 043e 39b9 53be 1fec 013d
000003c0: 6727 693e caa0 653e e15c 913e d966 263e
000003d0: 39bf 02be 45d8 243d 72b3 193e 44d1 e8bd
000003e0: b912 88be c2e4 e0be 86ef 3ebe c906 d8bd
000003f0: b25a 7c3e 037c 86be 78f2 1a3d aa5a c2bc
-0.021695651 -0.09535434 0.14955692 -0.10861174 0.1977952 -0.09752174 0.17038639 -0.16830167
0.031629354 -0.107374914 -0.06893893 0.06686226 -0.36774465 0.29000938 0.09557907 -0.38415188
0.16504738 0.14004104 -0.20182241 -0.30197373 0.23479962 -0.25021872 -0.14655349 -0.06531176
-0.044243347 -0.03809984 -0.10604665 -0.046463292 0.12393935 -0.31391323 -0.19794542 0.13032603
-0.29211867 0.0479717 -0.09825718 -0.012629864 0.31680495 0.2225067 -0.13171212 0.17987245
0.24393682 0.1806099 -0.02356073 0.28397277 0.23552749 -0.056750365 0.10860997 -0.05360362
-0.120990224 0.013124765 -0.15617396 -0.27695918 0.09300395 -0.04425259 0.03641441 -0.2226648
0.29562545 0.058093734 -0.1292837 -0.11711291 -0.12767276 -0.1727547 0.22643952 -0.020968424
-0.070619605 0.2098912 -0.07639072 -0.38209158 -0.18275577 0.010734548 0.08641168 0.35991022
-0.13276057 -0.14123794 0.1904821 0.22199844 -0.076319255 -0.0928452 0.22458272 0.08955016
0.15403704 0.20240653 -0.15367517 0.059933934 0.08082502 0.22744647 0.04231165 -0.10954736
0.045739774 0.13340427 0.028531747 0.2222965 -0.16753767 -0.12936094 -0.006525224 -0.35680696
0.23792662 -0.009312871 0.06681376 0.05347004 -0.13628513 -0.20695947 -0.031208014 0.077203974
-0.41662303 0.072778046 0.06340059 -0.33133256 0.04272324 -0.14963964 0.14267951 -0.11744764
-0.028508676 -0.17578189 -0.030826911 -0.12006218 -0.0040223924 -0.19276449 -0.18498962 0.0027996385
0.1666142 -0.16972694 0.034968432 -0.10799691 -0.01693312 -0.0048026447 -0.19686617 0.020940805
-0.15373865 0.10571892 -0.18690126 0.12688261 0.039688624 -0.033625785 -0.055390317 -0.12634681
-0.23371775 -0.19242667 0.04160048 0.010642322 0.14120503 0.20439686 0.16678828 -0.35874707
0.08219928 -0.09162876 -0.2937346 0.3750555 -0.1789211 0.048156306 -0.12284632 0.016672317
-0.25171563 0.23475839 -0.11496953 0.20330761 0.25714824 0.028763581 -0.125169 0.079300694
0.088025615 -0.48837385 -0.03564714 0.27570987 0.23023525 0.15874267 0.15338938 0.11572571
0.0040795016 0.1831604 0.13525693 0.050427835 -0.12866022 -0.056496166 0.007435119 -0.30137086
-0.08540993 -0.1361047 -0.15303616 0.04171112 0.13002266 -0.19004786 0.11606874 -0.24601756
-0.5226362 -0.09746763 -0.15613334 -0.3450114 -0.01397396 0.07774331 -0.041119654 0.2134117
-0.11472116 0.05932867 0.039095815 0.20207615 -0.050300106 -0.14170736 0.17062901 -0.18511368
-0.3568571 0.17346814 0.15153898 -0.117460325 0.35218048 -0.071923114 0.061700262 -0.1231716
-0.10168449 -0.19657122 0.16191696 -0.022938352 -0.07323227 0.34532803 -0.041010384 0.06513082
0.25331903 -0.6380003 -0.10721817 -0.07214767 -0.23426528 0.0451419 0.29075226 -0.040402126
0.0036773947 -0.09648698 -0.6764125 -0.08202708 -0.07889273 -0.14012644 0.024054509 0.08618796
-0.27034417 -0.024837835 0.07133736 -0.6018988 -0.0684238 0.12945013 -0.20676126 0.031719323
0.22768937 0.22424617 0.28391173 0.16250171 -0.12768258 0.040245313 0.15009859 -0.11368039
-0.26576784 -0.43924528 -0.18646058 -0.10548169 0.24643973 -0.26266488 0.037828892 -0.023724873

conv_net.0.bias f4 [12]
00000000: c9ee ab3d 6475 50be ca60 09be 46c3 dc3c
00000010: 2345 bbbd 914b 19be 01dc bbbd 6d99 3fbe
00000020: 7744 e23d 2246 0abe 48c9 f4bd 8ab3 8abe
0.08395154 -0.20357281 -0.13415828 0.026948582 -0.09144046 -0.14970233 -0.09172822 -0.18710871
0.11048215 -0.13503316 -0.11952454 -0.27090102

conv_net.3.weight f4 [12, 12, 3, 3]
00000000: ec89 98be 4275 edbd e547 8fbd 74c1 53be
00000010: c5ea 6abe d2ef 38be a046 d13d 74f2 cb3d
00000020: baed 26be 89cb afbd 64c0 f6bd 5483 3e3d
00000030: 7a40 73be bf43 fbbc 4887 5bbc 9df0 75be
00000040: e37e 8d3d 186a 413a 6e37 153e a539 aa3d
00000050: bc1a 173e 3347 c03d 1883 b9bd 256b 3dbe
00000060: e952 803e 153e e93d 711c 763d 490d 223d
00000070: 8009 293d 1e14 413e a0b5 4dbe bd00 07be
00000080: f7f6 943d da6a 153c fb1d 09bd eea7 3e3c
00000090: 3bee a8bc 1c6a 363d 4a14 3a3d 54a1 80bd
000000a0: 8bd9 b53d 9003 aabd 0815 8f3d abdb 853d
000000b0: 7110 c13d 2606 5ebd 7555 413e 2489 5bbd
000000c0: 9ce1 5bbd 54fd a1bd 7807 53bd e232 efbd
000000d0: 5a5e 143e fc41 7e3d 3b99 0d3d 377a 89be
000000e0: a3f4 0e3e 6ffc 40bd 8939 a8bd 96b1 c93d
000000f0: fc6c 553d ab69 5bbd 7089 87be 45b4 17bc
00000100: 2203 63bd cfc2 863e f1bc b2bd 5a7c 70be
00000110: cdd0 5a3b 1aa3 89bc 4928 233e ae1e c63d
00000120: 2da8 a5be 9286 e5bd 4923 04bf 0771 82be
00000130: 195c cbbd 523b 53be 94c7 07be 4bd6 32be
00000140: 34bb 4dbe d282 c0bd c94a 99bd e25e d83d
00000150: b7d1 8ebd f66b 1e3e f62d 1f3d a7ea 2bbe
00000160: 8adf 47be 79c0 81be 5688 5fbd db0b 27be
00000170: 39bf 463e 6e1c a73b f9fa 323d 498e 3e3b
00000180: 04f4 54be f4a4 5d3d 350d e23d 5879 34be
00000190: f881 2bbd 9a8b a03e bff8 a4bd ad49 17be
000001a0: 8353 073e 40ef 0ebe a401 c23d 29c6 55bd
000001b0: 04b7 b3bc 795f b2bd e54a aebe 440b b63d
000001c0: ca4e c8bb 2d46 91bd fc85 d43d f8c9 38bc
000001d0: a12d a3be 9b63 e0bc fad6 3cbe 9108 bcbe
000001e0: 24a0 1e3e 6a24 4b3e 1083 cc3c 9c0f ca3d
000001f0: 3ec9 0e3e 6e55 23bd 97f5 f9bd 3a08 113d
00000200: efee 63be 0441 b83d 6a3c 833e d34b 143e
00000210: e34e 923c 4929 01be cf25 93bd 7ae3 023c
00000220: 449a 90be 4ee3 12bc 0521 293e 12f0 633d
00000230: 2da2 003e b97f c0be 610c 3f3d 4f87 c23b
00000240: 8314 b43d 6a19 8d3c a849 873c e20d 0fbd
00000250: f7fe 9b3d b154 71bd 3b3d ed3c baa4 9f3d
00000260: 2a01 dbbd dbde 18bd af3f c1bd 1c15 02be
00000270: 1157 1abd aee3 32be 8aaa 43be cf3c 96be
00000280: 542d 6abf 4788 693e 3737 dcbd 41ea 21bc
00000290: 4ae2 92bd 4d7e 483d dcf6 773d 58f5 453e
000002a0: 290c 01be a263 babd d6fa 79be da01 203e
000002b0: 262e e0bc 1662 01ba 9a95 fbbd 9cc0 983c
000002c0: 26aa 273e 19c4 80be 047f 05be 25eb 573e
000002d0: f50d 89bd 9fc0 0abd 5a31 6abe ea15 28be
000002e0: c150 9dbe cdb1 e73d 1f57 7fbe dd4b ecbd
000002f0: 546d a8bd 8ff7 50be fb7d 00bd 9098 dfbd
00000300: 5cf3 c73c ec61 8c3e fa3f 833d e1e3 1e3d
00000310: 19ee f5bd 3780 b4bd 41ef 95bb 60b8 00be
00000320: 9e3e 30be e9e5 453d 0f47 143e cd99 333e
00000330: 070f 3a3e 1f73 703e 8adf 143e 7cf0 4dbc
00000340: b6ca 39be f25a b8bd 64ac 27bc e68a c03d
00000350: a298 5cbe 7a2d 623d 8462 253e 0543 c4bd
00000360: 198b a0bd 6397 7f3d 2c1c 323e 37f9 07bc
00000370: 695d b0bd 7588 24be a182 703e 6780 043d
00000380: eac1 51bd 80c9 c9bd 6537 c3bd 0a94 ddbd
00000390: 44cc aabd 5c59 0ebd 37de 78be 5687 c8bd
000003a0: ab85 b93c e78f 66be 218d 87be d2d5 eb3d
000003b0: dbee d33e edb3 36be 1bff ccbd aae5 923d
000003c0: edf3 ca3d 1c87 763d fc1d 99bd bf32 a43d
000003d0: 9c22 4a3e 5ac2 0c3e e545 fc3d 6601 52be
000003e0: 46cd 4e3d b6c9 0bbe 17a9 19bd de84 4f3e
000003f0: 5985 533d 09c6 d73c 2965 37bb 73f2 243d
-0.29792726 -0.11594631 -0.06996135 -0.20679265 -0.2294112 -0.18060234 0.10218549 0.09958354
-0.16301623 -0.08583743 -0.12048414 0.046511963 -0.23755065 -0.030671952 -0.013398953 -0.24017568
0.06908967 0.0007378175 0.14571926 0.08311776 0.14756292 0.0938858 -0.09058207 -0.18497904
0.25063255 0.11388794 0.060085718 0.03956345 0.041268826 0.1885533 -0.20088816 -0.13183875
0.07273667 0.009119714 -0.033475857 0.011636717 -0.02062141 0.044534788 0.045429505 -0.06280771
0.08879384 -0.08301461 0.06986433 0.06536039 0.09426964 -0.054205082 0.18880256 -0.053597584
-0.053681955 -0.07909647 -0.051520795 -0.11679627 0.14489117 0.062074646 0.03456996 -0.26851055
0.13960509 -0.04711574 -0.08214099 0.09848325 0.05210589 -0.05356757 -0.26472044 -0.009259288
-0.05542291 0.26320502 -0.08727444 -0.23484936 0.0033388615 -0.016801406 0.15933336 0.096738204
-0.3235487 -0.11207308 -0.5161634 -0.25476858 -0.099296756 -0.20628098 -0.13259727 -0.17464559
-0.20090944 -0.09399952 -0.07484967 0.105649725 -0.06973594 0.15470871 0.03886219 -0.16788732
-0.19518867 -0.25342157 -0.05457338 -0.16313116 0.19408883 0.0050998246 0.043696377 0.0029076508
-0.2079621 0.05411239 0.11037675 -0.17624414 -0.041871995 0.31356508 -0.08055257 -0.14774199
0.13215451 -0.13958454 0.09472969 -0.052190933 -0.021937855 -0.08709616 -0.34041515 0.088888675
-0.006112908 -0.07093463 0.10377118 -0.011278622 -0.3187075 -0.027391246 -0.18441382 -0.36725286
0.15490776 0.1983811 0.02496484 0.098662585 0.13943955 -0.039876394 -0.12205046 0.035408236
-0.22259115 0.08996776 0.2563203 0.1448205 0.017859882 -0.12613405 -0.07184946 0.007988805
-0.28242695 -0.0089653265 0.16516502 0.05564887 0.12561865 -0.37597445 0.046642665 0.00593654
0.08792975 0.017224032 0.016514614 -0.03492535 0.0761699 -0.05891866 0.028959861 0.07795091
-0.106935814 -0.037321907 -0.09435975 -0.12703365 -0.03768069 -0.17469665 -0.19108024 -0.29343268
-0.91475415 0.22805892 -0.10752719 -0.009882511 -0.071720675 0.048948575 0.060538158 0.19331872
-0.12602295 -0.09101035 -0.24412093 0.15625706 -0.027365755 -0.00049355754 -0.122843936 0.01864653
0.163735 -0.2514961 -0.13036734 0.21085794 -0.06692115 -0.033875104 -0.22870389 -0.1641461
-0.30725673 0.1131321 -0.24935578 -0.11537907 -0.08223978 -0.20406936 -0.031370144 -0.10917771
0.024408035 0.27418458 0.06408687 0.03879154 -0.12008304 -0.088135175 -0.0045756404 -0.12570333
-0.17211387 0.048314963 0.14480232 0.17539139 0.18169795 0.23481415 0.14538398 -0.012569543
-0.18143734 -0.090017214 -0.010233972 0.09401493 -0.215426 0.05521915 0.16150862 -0.095830955
-0.07839031 0.062400233 0.17393559 -0.008299164 -0.086115666 -0.16067679 0.23487331 0.032349017
-0.05121032 -0.09852886 -0.0953205 -0.10819252 -0.08339742 -0.03475319 -0.24303518 -0.09791438
0.022646746 -0.22515832 -0.2647486 0.11515392 0.4139317 -0.17842074 -0.10009595 0.07172711
0.099098064 0.060187444 -0.07476422 0.080174915 0.19739765 0.13746014 0.12318019 -0.20508346
0.050488733 -0.13651165 -0.037514772 0.20265529 0.051640842 0.026339548 -0.002798388 0.04027028

conv_net.3.bias f4 [12]
00000000: 505a 3b3e 1066 1fbe a046 ee3d c0ea 1abd
00000010: 6985 74be e398 5a3e 6150 413e 4bf9 38bd
00000020: 679f 0fbe bbd1 c7bd 738b 61bd 68e9 6fbe
0.1829617 -0.15566278 0.116345644 -0.03782153 -0.23879017 0.21347384 0.18878318 -0.04515962
-0.14025651 -0.097568 -0.05506463 -0.23428881

conv_net.6.weight f4 [12, 12, 3, 3]
00000000: da5b b9bd db23 d6bd 4156 7ebd 1b9f 1f3d
00000010: dea5 2a3d 21ed e6bd 683f e5bc 5c0a 90bd
00000020: cfca 16bd 562c 0e3c 75d9 8abd b920 65bd
00000030: f55f 80bd b4c5 1bbe b4b0 94bc 10e2 c23c
00000040: b962 03be 1bc2 a9bd 40d7 8bbd 0fdf ec3b
00000050: cb1f cb3c dd9b 5abc 606d b2bc 28d7 e6bd
00000060: 17b4 e23c 6b4b 443d 2ab7 babc 3f08 c03d
00000070: 646c bbbd 324e a2bb 39d6 95bc f799 bebd
00000080: f246 99bb 74fc 8ebd d3d5 8d3d a888 88bd
00000090: 4a9d fabd dfe5 31bd 71ef 8dbd 2091 debd
000000a0: 65a3 c0bc 55fd e83c 01f1 e0bd 3e4e cdbb
000000b0: c851 84bd 8636 0abe 0b7e 10be e644 edbd
000000c0: a642 8dbd b89a 34bd b6e7 013d 030a 58bd
000000d0: de07 d8bd 4e07 b4bd bd30 2c3d a431 233d
000000e0: 6762 19bd 3aca e8bd 3057 e8bc 21ea 07be
000000f0: ccac e3bb a020 09be 7eeb 0cbd 6bac 473d
00000100: 4db5 4e3d cc55 3abd 06d9 a7bd 9c44 8abd
00000110: 7e19 463d 3e38 d7bd 9f87 01bd 6be6 853d
00000120: 8699 10bd 1914 2e3d 43f3 0a3d 3d15 1bbd
00000130: faf7 a3bd 5ad5 5dbd f1b7 323d 69f7 bdbd
00000140: 3dfc 34bd bb07 cd3c ff26 413d a1bc 4c3c
00000150: 5184 90bc 1fa6 4cbd 51b3 6c3d 795b 023c
00000160: 7ee7 5f3d 1144 83bd 43af 0b3d c886 86bd
00000170: dc63 7f3d 0afc d9bc a15b c8bd ec81 52bb
00000180: c96e 3b3d 33ce 93bd 46d7 413d f6f9 0f3d
00000190: 7208 273d 780f 20bd 5018 1abd 322f a5bd
000001a0: 3e71 71bd c0c4 b9bd 66f3 00bc c1b1 a5bd
000001b0: 9fa9 59bc 16e1 be3d 2b5a b73c acd5 2dbd
000001c0: 9d33 8dbc 4264 54be a9fc 043d 4702 a13d
000001d0: 5474 50be b0dd 303b 5477 cebe 5c06 853d
000001e0: 751e 1dbe 02eb 793e a50c 76bd 906e a5bd
000001f0: e89f ddbd 6df8 013e 777c 273e 0076 cf3d
00000200: 55be 1b3e b08f d33c 8316 183e 7918 943c
00000210: 71bc 713e 398b 3f3d e7a2 2cbe 490a 71be
00000220: 290b 10bc 1da6 ce3e 2759 dd3d fd92 a8bc
00000230: 0f6d 823d c9fb f0bd 781f 893e 52d3 ddbc
00000240: a499 79bd a372 cdbc 787f c23d 2185 84be
00000250: eef8 fabd 6016 b23c 89ee e23d 1a7f 88be
00000260: 7e42 643e 9b50 813d 4209 36be a6ff c8bd
00000270: e79e 0f3d 5f0a d8bd 73b4 e9bc b5e6 c6bd
00000280: 1cd4 e13d 6ba9 1abe ac43 ee3e 60a5 95be
00000290: 1159 ca3d 72f9 993d 5b86 70be 2ff0 20be
000002a0: c6f6 aabd 999e 2ebe 1346 f8bd 5c5a b73e
000002b0: e754 7bbd 9d8f 65be 2f19 583d b25c 8d3e
000002c0: d95a d6bc 1b2d 8dbe 7e5e 02be e742 013e
000002d0: 80a6 0dbd 01b1 a8bd 5399 403e f086 693d
000002e0: adf5 71be fc90 bb3d 4822 043e 4695 d33e
000002f0: cb52 98bd 8b25 6d3d 34fb 673d cdec fabb
00000300: 41bd d13d c8c4 b13c d675 873d e080 1cbc
00000310: 93ba 803d 2708 de3d 3fcf ee3e 1f6e c23e
00000320: 5a49 623e c868 1b3d 9171 403e 3be4 66bd
00000330: e69d 73be 6fcb 163d 780a 233e 26ed 89bd
00000340: 5105 80be 5a81 193e 04f5 013e 879e 7a3d
00000350: 5a82 bebb 428d 4cbc 5223 503e 27b7 123e
00000360: e990 2ebe ff63 a4be 787b 60be 1542 4c3d
00000370: 25c4 df3c 2c28 1cbe 93f6 f33d 4d55 483e
00000380: dad0 153e fbfd 493d bb08 593c bf81 5bbd
00000390: 0c29 1c3d 2c9a 4ebd 5fd5 41bb 0b7d b83b
000003a0: aed7 9d3d 8ba1 8fbe 67d3 6ebe ab32 dcbe
000003b0: aee5 0fbe 0275 ef3d 141e f03d 5d42 fabc
000003c0: 7e25 5a3e 3933 043d 3d47 3a3e 7777 153e
000003d0: 75d0 dfbd 5ca4 613e 1882 0f3e 0bdf f93c
000003e0: b738 4b3d 0a0f 103e 5070 173e 2535 053d
000003f0: 44b5 cfbd e8a2 3e3e 5c0c 743d 8804 3dbe
-0.090507224 -0.10456058 -0.062093977 0.038970094 0.04166209 -0.112756975 -0.027984336 -0.07033226
-0.036814507 0.008677563 -0.06779758 -0.05593941 -0.06268302 -0.15212137 -0.018150665 0.023789436
-0.12830628 -0.08288976 -0.06828165 0.007228739 0.024795434 -0.013342825 -0.02178067 -0.112715065
0.027673764 0.047923487 -0.022792418 0.09376573 -0.09151533 -0.0049531693 -0.018290626 -0.0930671
-0.004677647 -0.06981745 0.06925549 -0.0666669 -0.12237032 -0.043432113 -0.069304354 -0.10867524
-0.023515413 0.02844111 -0.10983468 -0.0062654307 -0.06460911 -0.13497362 -0.14110582 -0.11585407
-0.06897478 -0.044092864 0.031715117 -0.052743923 -0.105483755 -0.08790456 0.042038668 0.039842263
-0.03744736 -0.11366697 -0.028361887 -0.13272907 -0.006948089 -0.13391352 -0.03440427 0.048748415
0.05046587 -0.04549198 -0.08195691 -0.067513674 0.048364155 -0.10508774 -0.03162348 0.06538089
-0.03530266 0.042499635 0.0339234 -0.03786205 -0.08006282 -0.054158546 0.04363245 -0.09275705
-0.044185866 0.0250281 0.04715633 0.0124961445 -0.017641218 -0.049963113 0.057788197 0.007956379
0.054664128 -0.06409467 0.03410269 -0.06568676 0.062351093 -0.02660944 -0.09783102 -0.0032120897
0.04575995 -0.07217064 0.04732444 0.03515049 0.04077954 -0.039077252 -0.037620842 -0.080656424
-0.058945887 -0.0907073 -0.007870531 -0.080905445 -0.01328507 0.093202755 0.022381863 -0.0424401
-0.017236525 -0.2074137 0.032467518 0.078617625 -0.20356876 0.0026987605 -0.40325415 0.064953536
-0.1534365 0.24406055 -0.060070653 -0.08077729 -0.10821515 0.12692423 0.16356073 0.101299286
0.15209325 0.025825351 0.14852338 0.018078076 0.23607041 0.046763632 -0.16859017 -0.2353908
-0.008791723 0.4036111 0.1080802 -0.020577902 0.063684575 -0.11766774 0.2678182 -0.027078304
-0.06093754 -0.025079077 0.09496969 -0.2588282 -0.12254511 0.021739185 0.11080653 -0.2665947
0.2229099 0.063142024 -0.17776969 -0.09814386 0.03506365 -0.10548853 -0.028528428 -0.097119726
0.11026785 -0.1510369 0.46536005 -0.29227734 0.09880269 0.07518281 -0.23488753 -0.15716623
-0.083478495 -0.17052688 -0.121227406 0.35811126 -0.061360266 -0.22418065 0.052758392 0.27609783
-0.026166366 -0.27573475 -0.12731358 0.12623177 -0.034582615 -0.08236886 0.18808489 0.057013452
-0.23628874 0.09158513 0.12903702 0.41324824 -0.074376665 0.057897132 0.05663605 -0.0076576234
0.102411754 0.021700278 0.06614272 -0.009552211 0.06285586 0.10841399 0.4664249 0.3797464
0.22098294 0.037941724 0.18793322 -0.05637 -0.23790702 0.036815103 0.15921962 -0.067346856
-0.25004056 0.1499075 0.12691122 0.06118634 -0.005813879 -0.01248485 0.20325974 0.1432768
-0.17047466 -0.3210754 -0.219221 0.04986771 0.027315209 -0.152497 0.11912265 0.1956379
0.14630452 0.04931448 0.01324671 -0.053590532 0.038125083 -0.05044 -0.0029576642 0.0056301407
0.07707153 -0.28052935 -0.23322831 -0.43007407 -0.1405246 0.11692239 0.11724487 -0.030549223
0.21303365 0.032275412 0.18191238 0.14596353 -0.10928432 0.22035354 0.1401447 0.030501863
0.049614634 0.14068237 0.14788938 0.032521386 -0.101419955 0.18616831 0.0595821 -0.1845876

conv_net.6.bias f4 [12]
00000000: 8a8a 09be fb18 bd3b 115b 74bd 4211 3fbe
00000010: 697d 3a3e fe56 db3d 0936 1f3e 2965 be3d
00000020: b5d4 73bd a73b 073e 613e 073d e993 9dbc
-0.13431755 0.0057708 -0.05965716 -0.18658927 0.18211903 0.10709952 0.15547957 0.092966385
-0.059529025 0.1320635 0.033018474 -0.019235568

mu_net.0.weight f4 [128, 432]
00000000: f36c 233d fc6c 223c 53cf 5b3c 11ec 02bd
00000010: dfa8 3dbd 0546 23bd f93e 1d3d 2a51 3d3c
00000020: 8bfc dcbc 7240 25bd f32e 083d 9ca4 e93c
00000030: 8bad aabc 9720 0b3d d9e3 3c3d 4a13 ed3c
00000040: d69a efbc 69ca 38bd ca03 843c 8ad4 a83b
00000050: a8f5 1d3d 05c9 133c d61d 253c bd9f 043d
00000060: 8f6a 06bb 2e6e bc3c 1dff ad3c 325c 1e3d
00000070: 8604 0d3d e6db dcbc 02d5 1fbc a700 a13b
00000080: 299b 923c 40e8 4dbc 949f 43bc 6039 5a3c
00000090: 114c 94bd 62be 5fbd 0af6 7dbd 8c83 babc
000000a0: b213 29bd 7033 213c fdc8 af3b 315b 69bc
000000b0: 76c2 ad39 d4e0 9ebc 5ad9 35bd 2fe5 83bd
000000c0: f2fc 57bd 22ee 75bd acba 08bd 7ab6 10bd
000000d0: eaac 16bd 2fb6 4ebd 9f68 a0bc d401 93bd
000000e0: 7d25 64bb 6641 5abd af3a 4abd 451d a33a
000000f0: a9cc 63b9 401c d53c ac4a 79bd 1ff0 113c
00000100: e2ef 1ebd 17d9 9abd acd9 913a 8236 7abd
00000110: 5042 30bc fa7f 8dba 962c 4a3b 781d 02bd
00000120: b1dd 3abb 6454 eb3b 3859 7ebd 0f7f 863c
00000130: bd20 3d3c 0593 07bd 9997 1fbd 4d88 44bc
00000140: 5969 7abd 8e2f 83bd 207c 02bd f7aa adbc
00000150: 3b24 8fbc 9f37 21bd 09fb 34bd 2c5f 2dbd
00000160: 0f45 90bd bbaf 1d3c f97c 113d 4b4a 79bd
00000170: 4f58 afbb 4129 87bd 37e6 2ebd 1f6d 0fbd
00000180: bd64 79bb f557 0ebd 216f 93bd 2c47 42bd
00000190: f301 70bd 2c44 7dbc b719 173d e7b0 09bd
000001a0: 6b36 cebc 0bfa ba3c 9dd9 5bbd 41a8 c9bc
000001b0: 4ca7 03bd 5f02 e3bc d59d a4bc fbbb 5e3c
000001c0: 3239 a33c 4d6b d8bb 5653 173b 3746 f4bc
000001d0: b38e 0a3d 7039 2ebc bcb7 4ebb cab8 083d
000001e0: d741 143d 430b 57bc 55d2 b93c f7ec e1bc
000001f0: 86eb ec3c 1e95 273d 7063 ea3c 05e5 01bd
00000200: c0f6 95bc f178 cdbc 2a6b 18bd 9d98 9f3c
00000210: 20a6 35bd 681e 0bbd 247d 0fbc 8e72 1d3c
00000220: 59e5 a03c 3bed bfbc 7b37 11bd d357 f4bc
00000230: bd8a b73b 39e6 e93c 49aa 23bd 988a 16bd
00000240: 27ce dcbc faf9 5cbd 8918 de3b 2553 b43b
00000250: fa83 39bd 2983 5fbd a90b c2bc 9578 e3bb
00000260: 9141 41bd bb26 02bd b7de eabc 494c b8bc
00000270: b2d0 43bd 930d 763c fa67 163d ae1a 2abc
00000280: fa0d b5bc 75e3 043c 8ad1 82bd b4a2 16bd
00000290: 35fb 75bd 4792 b53b ec12 b8bb 0004 41bd
000002a0: a9b9 1bbd 8c80 4bbd 2a59 20bd 5e7e 3dbd
000002b0: d912 223c 01b0 ddbc ae09 1dbd a758 223d
000002c0: 7390 b3bc d483 f83c 7334 29bd 745a 08bc
000002d0: c9a3 86bc f7da 33bd c59a 823c 79d0 12bc
000002e0: d41d adbc 7343 65bc 4437 0a3d 0c7a 0dbd
000002f0: c492 1e3d e107 34bc df33 a6bd 8a6f 4abb
00000300: 776e 38bd 27d6 f6bb 4bc1 c83c c458 823b
00000310: f9c8 e33c 7a3f fbbc 476e 6bbd e7e1 f73c
00000320: d69a 11bd 9b1a 8abd 7470 ec3c 6f41 463c
00000330: f471 bf3c bc7b b0bc 8d57 5aba 46eb 46bc
00000340: 9b16 31bd b93a 683c 3c43 fd3b 4161 c7bc
00000350: 9450 043c a429 94bd bc04 873c 381b 23bd
00000360: 7fc3 2a3d d534 ba3c 355e 28bd 3a1c e93c
00000370: 6943 303b 5690 653c 4363 113d 4c6a 0f3d
00000380: 2495 fe3c fd91 22bd eaee d8bc 85cd efbc
00000390: 330a ca3c 5ffe 58bd 8191 d6bc 1464 56bd
000003a0: d0e3 32bd 1cda 82bb 7445 293c fa1b 163d
000003b0: b21b 18bd 4db0 50bd bc6e 2ebc aab5 863c
000003c0: 1fb9 4ebd 3533 35bd 1b0c 4abd e3c2 b53c
000003d0: ad3b e6bc 9f85 f9bc 5053 ccbc 3cfe 8b3c
000003e0: 969e 1fbd b921 64bb fae0 20bc 4a00 4bbc
000003f0: ef38 233d 2baf cdbc 28f2 c5ba cd9f 313c
0.039898824 0.009913679 0.013416129 -0.03196341 -0.046303626 -0.039861698 0.038390134 0.011554996
-0.02697589 -0.040344663 0.0332479 0.028520875 -0.020834705 0.033966627 0.04611573 0.028939862
-0.029248636 -0.04511491 0.016115088 0.0051522898 0.038564354 0.009020095 0.010077914 0.0323789
-0.0020510291 0.023001757 0.021239812 0.038662143 0.034428142 -0.026960324 -0.009755375 0.004913408
0.017896252 -0.01256758 -0.011939902 0.013319343 -0.07241071 -0.054624923 -0.06200222 -0.022767805
-0.04127855 0.009838924 0.005364536 -0.014242933 0.00033142016 -0.019394316 -0.044396736 -0.06440198
-0.05273146 -0.060041554 -0.03338115 -0.035330273 -0.036785997 -0.050466713 -0.019581137 -0.07178083
-0.0034812384 -0.053285025 -0.04937237 0.0012444636 -0.00021724649 0.026014447 -0.06086223 0.008907347
-0.03880299 -0.07560938 0.0011127493 -0.06108714 -0.010757998 -0.0010795586 0.003084933 -0.031766385
-0.0028513486 0.007181691 -0.062096804 0.016418008 0.01154345 -0.033099193 -0.038962934 -0.011995387
-0.061135624 -0.06405555 -0.031856656 -0.021199686 -0.01747333 -0.039359685 -0.04418472 -0.04232709
-0.07044422 0.009624417 0.035519574 -0.060861867 -0.0053511034 -0.065996654 -0.04270002 -0.035016175
-0.003805443 -0.03475185 -0.071989305 -0.047431156 -0.05859561 -0.015458148 0.036889758 -0.033615973
-0.025172433 0.022824308 -0.05367433 -0.024616363 -0.03214197 -0.027711092 -0.020094791 0.013594623
0.019924734 -0.006604588 0.0023090444 -0.029818637 0.033827495 -0.010633811 -0.003154262 0.033379354
0.036195602 -0.013125244 0.022683302 -0.027578814 0.0289209 0.040913694 0.028611869 -0.03171255
-0.018306136 -0.025082083 -0.037211575 0.019481951 -0.044347882 -0.033964545 -0.008757863 0.0096098315
0.019640611 -0.02342855 -0.0354533 -0.029827034 0.0056012557 0.028552162 -0.03995732 -0.036753267
-0.02695377 -0.053949334 0.006777827 0.0055030757 -0.04529188 -0.054568443 -0.0236872 -0.0069418647
-0.04718167 -0.031775218 -0.028670652 -0.022497313 -0.04780645 0.015017885 0.036720254 -0.0103823375
-0.022101391 0.008110871 -0.06387623 -0.03677626 -0.060054023 0.0055411193 -0.00561749 -0.047122955
-0.038018856 -0.04968314 -0.039147533 -0.04626309 0.009892189 -0.027061464 -0.03833931 0.039635327
-0.021919465 0.030336298 -0.041309785 -0.008322347 -0.01643552 -0.043909993 0.01594294 -0.008960837
-0.021132387 -0.013993132 0.03374411 -0.03454022 0.038714185 -0.010988207 -0.081153624 -0.0030889236
-0.045027222 -0.007532853 0.024506232 0.003977867 0.027805792 -0.030669916 -0.057478216 0.030259086
-0.035548054 -0.06743356 0.028862216 0.0121005615 0.023369767 -0.021543376 -0.0008329086 -0.0121410545
-0.04323445 0.014174157 0.007728962 -0.024338366 0.008075852 -0.07234505 0.01648175 -0.03982088
0.041690346 0.02273027 -0.041105468 0.028455842 0.0026895648 0.014011463 0.035495054 0.035013482
0.031076975 -0.039690007 -0.02648111 -0.029272804 0.024663066 -0.052976962 -0.026192429 -0.052341536
-0.04367429 -0.003993286 0.0103315 0.036647774 -0.037135787 -0.050949384 -0.010646518 0.016444046
-0.050469514 -0.044238288 -0.04932795 0.022187656 -0.028104628 -0.030459223 -0.02494207 0.017089002
-0.0389696 -0.003481014 -0.009819264 -0.012390206 0.039849218 -0.02510794 -0.0015102075 0.010841322

mu_net.0.bias f4 [128]
00000000: 777e b0bb 8c7a 84bd b0b8 423c 0a66 eebb
00000010: 37d0 7dbd 27ff 633c 6806 85bd 9d20 0bbc
00000020: f4f1 d2bd b920 9ebd b321 51bc cc54 58bd
00000030: b702 e3bc 42dd b1bd 53b1 28bd ad34 3bbd
00000040: 814d 8abd 13b4 a9bb 2636 1f3d 0d1d 52bd
00000050: 367c a8bc 2a6f eebc 6b87 05bd d007 73bd
00000060: 05a0 a1bc ef18 4c3c d153 11bd edc0 a8bd
00000070: a9d2 25bc 3873 5bbc 5464 37bd cae0 a3bc
00000080: 3b92 98bd 8bea 5fbd abb2 8ebd b8f8 d8bb
00000090: 1b1a 89bd 3dc8 e7bc 0a62 bcbc da64 3f3c
000000a0: e011 82bd 2605 1fbd 0620 523c 1eef 32bd
000000b0: f179 9fbd 17a6 80bc 9eb9 97bc b090 37bd
000000c0: 4668 11bd e030 44bd 8211 e33b b767 28bd
000000d0: f28a 1dbd 2e4e ceba e9ce 2cbc 317f 4fbd
000000e0: 25ac ff3b dedb e0b9 7101 a9ba 75d7 633c
000000f0: d7ff 583c bf9d ccbc 89fb e8bc 492c 7cbd
00000100: 84b0 e33b 84ca 88bd a5ea ddbc 72ad 01bc
00000110: aaa0 d33c 8f77 1dbd 32dd 52bd dac4 1abc
00000120: dbda 30bd 7578 8fbd 33a8 b13c b954 933d
00000130: 8f95 84bd fc54 11bd ee49 0fbd 077b eabb
00000140: 4254 9dbd 521c f2bc 77b3 ebbc 5353 67bd
00000150: aafe f3bc 8791 013b 7d33 59bb 4c1d 17bd
00000160: 3dbb b9bd 513e 6bbd 4711 74bd 8ec3 b0bd
00000170: 6089 10bb eeeb a23c 6a6f 8bbd 49db 18bd
00000180: b7bb abbb 5bf8 91bd 37ca c63c 5d86 ebbc
00000190: a016 bcbb 7d1a 0cbd 9c3d 1fbc b60a 19bd
000001a0: f326 02bb 6d75 50bc 78fb 5cbd b5ed 8ebd
000001b0: 372c 30bd dde5 98bd ff7d 8abd 8bed 9a3c
000001c0: 2302 b0bc e11e 973c c094 a1bc 5242 5fbd
000001d0: 05da ce3c 4ec1 81bd 5253 e1bd 0698 243c
000001e0: d081 e9bc f130 fe3c bc43 223c eb0d 9f3b
000001f0: d90f 5bbd aa4e 7dbc 00b2 74bd fffd 74bd
-0.0053861695 -0.064686865 0.011884853 -0.0072753476 -0.061966147 0.0139158135 -0.064953625 -0.008491662
-0.10300055 -0.07721085 -0.012764382 -0.052815244 -0.027711255 -0.0868478 -0.041184735 -0.045704532
-0.06753064 -0.005178937 0.03887 -0.051297236 -0.02056704 -0.029105742 -0.032599848 -0.059333622
-0.019729624 0.0124571165 -0.035480324 -0.08239923 -0.010121026 -0.0133941695 -0.044773415 -0.020004649
-0.07449766 -0.054667037 -0.06967672 -0.0066214465 -0.06694432 -0.028293723 -0.022995967 0.01168176
-0.06351066 -0.03882327 0.012825018 -0.04368507 -0.0778693 -0.015704198 -0.018521126 -0.04481572
-0.035499834 -0.047898173 0.0069295773 -0.041114535 -0.038462587 -0.0015739852 -0.010547378 -0.05065841
0.0078025036 -0.00042888423 -0.0012894106 0.013906349 0.013244591 -0.024977563 -0.028440254 -0.06156567
0.0069485325 -0.06679252 -0.027089426 -0.007914888 0.025833447 -0.038444098 -0.05148048 -0.009446347
-0.043177467 -0.07005397 0.021686649 0.07193894 -0.064738385 -0.035481438 -0.034982614 -0.0071557793
-0.076820865 -0.02955452 -0.028772099 -0.05647595 -0.02978452 0.001977058 -0.0033142262 -0.036893174
-0.09068916 -0.057432476 -0.05958679 -0.08631049 -0.0022054538 0.01988789 -0.0680836 -0.0373185
-0.005240883 -0.07127448 0.024266345 -0.028750593 -0.005740002 -0.03420495 -0.009719279 -0.03736373
-0.0019859641 -0.012723309 -0.053950757 -0.06978933 -0.043010917 -0.07465718 -0.06762313 0.018912097
-0.021485394 0.018447341 -0.01972425 -0.054506607 0.025250444 -0.06335698 -0.1100222 0.010046011
-0.028504282 0.031029196 0.009903844 0.004853954 -0.05348191 -0.0154606495 -0.059740067 -0.059812542

mu_net.2.weight f4 [128, 128]
00000000: b1b2 9c3d 28a8 a8bd 9b67 97bd bc54 abbc
00000010: be25 a2bd a791 f23c c752 62bd 8f60 a1bc
00000020: 4323 49bd 194e 3cbd 166f d53c 94da 5a3d
00000030: 268b 56bc 0937 ed3a e96c 21bc 8212 54bc
00000040: ba8f 81bd 4289 0f3d cdf9 593d 32a2 6b3d
00000050: 09ec 5e3d f716 ebbb cf39 ec3b b381 ae3b
00000060: 5cb4 4f3d fe5f 01bc 2101 89bd 66ae 883d
00000070: 28a5 1cbc 4f2c 47bc 64bb a8bd a507 f3bc
00000080: f8e9 b8bc 9fc3 7bbd 2c55 46bd 58d4 2dbd
00000090: ac3f 833d 63fc a43d ca52 9e3d 4064 7d3c
000000a0: 4d28 a73d f86c 313d e786 aabc 0c40 37bd
000000b0: c016 feba d46c 56bd 09ab 88bd 0536 523d
000000c0: 7fe7 4d3c 8f90 92bd 9a2c dfbb b55d 89bd
000000d0: 3fd6 0ebd 80d5 a63d 59fe aebc fd26 c8bc
000000e0: 2f3b 553c 232d af3d 1ab2 67bd a10e 98bd
000000f0: 215e 4fbc 7924 c43c 6751 9e3d 7030 223d
00000100: 9327 9ebd ce05 b5bd 8552 a2bd cbe4 0dbd
00000110: 9d82 b9bd 4894 193d 07a6 f03b b2f6 a23c
00000120: 778f 043c 8b21 9e3d 1e05 20bc 3bb0 8fbd
00000130: 9a11 353d 9765 28bd 943b 063d bd73 613d
00000140: 0f26 6abc d90c 0d3d 3b21 b8bb b38d 913a
00000150: ea29 4bbc 1d69 133d 7e4b c6bc 58c7 663c
00000160: d150 fbbb c03b 0d3d 0774 0c3d 7892 d53c
00000170: e2fd 463d 669f e2bc d8e9 78bd a0ab 7dbb
00000180: 445d a8bd db34 d9bd a9ad cb3c 0921 533d
00000190: ca6b 8dbc 050d a33d 91b6 643d 9db8 80bd
000001a0: f7cb b83a 32a2 713d f2bc 23bd cd0d a33d
000001b0: 60a0 5a3d dd7c c3bb 9e5e a3bb c8d4 1abc
000001c0: a57a 8abd 727c dc3a 5ea4 ab3c a2b4 a23d
000001d0: 1b53 2dbc ecd1 28bd 2361 a9bc b2c0 a8bd
000001e0: b2a3 bf3d 0d0e 173d 4eb8 ae3d 758c 3abd
000001f0: e6db 1ebd d7f6 bbbd 2f4e 533d 38c8 3e3c
00000200: 0173 31bc 367d 6ebd 10c1 b13c 4c69 9fbd
00000210: e21e 08bc da0a 6d3d 4135 9e3d 5aeb 223c
00000220: 74d5 363d 8786 a83b c5c0 9bbd 5e33 28bd
00000230: 1b41 a33c a646 1d3d 814d 9bbd f7f4 033d
00000240: 4af9 15be ef33 9a3c ddd7 543d 4d8a 193b
00000250: 341e a6bb ba64 2b3c 55d7 95bd b483 3a3d
00000260: dd7f 963c 03a6 9d3c 390e dfbc b18e 533d
00000270: 84ac 14bd 528e 7e3d af5b 91bc ef5a 21bd
00000280: 5548 913b 7da0 96bd 4299 0fbc cb3c 723d
00000290: acb8 3abb ca1b 723d 69a6 9dbc be65 80bd
000002a0: 36f6 583d 848c 163d c6ae 53bd 072e 863d
000002b0: 3d6c 953d 3714 a6bd 8cad 81bd f967 ef3c
000002c0: 95ee 893d c2fc ddb9 dece 803d 04fd b0bb
000002d0: e011 803d 4529 9dbd 62c9 903d f1c6 4dbd
000002e0: c37a cfbc b911 f03c 86b8 3d3d aea0 4e3d
000002f0: 8009 41bc cbb6 4e3c 8219 803c e80f 1abc
00000300: 569f b93b 3758 29bc d12d 853d 1aa1 233c
00000310: 1f4b 5f3d 4b2c af3c f9f2 773b 4c3f 47bd
00000320: ec10 c7bc c8c9 50bd 5f37 a0bd 0081 14bd
00000330: e057 7bbd 4179 b23d d6a1 ea3c 49f1 d5bd
00000340: 24f8 69bc b55f afbd b9c2 ebbc b272 aabd
00000350: 42b4 84bc db7c 1b3c 03cb ea3c b9da a5bd
00000360: 7834 28bc 078f 9a3d 87a8 ad3c 948e 5e3d
00000370: 851c 793c f986 f13c 85ec 2abc 1dcc 97ba
00000380: 2f98 643d 1c35 263d 881a 5f3d 2557 043d
00000390: 2d33 253d e65c 5bbd 2e94 53bd fb27 8b3d
000003a0: 4b8c 6bbd b6e7 723d a6e2 8239 17d7 97bd
000003b0: 5bed b13d 9fe5 ddbc 1ef8 043c 4b27 62bd
000003c0: 835f 593d 55fa b63c 77dc 813d 06c9 27bb
000003d0: f027 963d 9451 a7bd f2a8 87bd bf86 53bd
000003e0: f0f3 9cbd 9d64 05bd 98d3 5c3d ad29 563d
000003f0: 70a7 93bb 2368 fa3b 5d2d d53b 778e ae3d
0.0765127 -0.08235198 -0.07392808 -0.020914428 -0.07917355 0.029610468 -0.055254724 -0.019699363
-0.049105894 -0.045972917 0.026053946 0.05343111 -0.013094699 0.0018098067 -0.009852626 -0.012943866
-0.06326242 0.03504301 0.053216744 0.05752773 0.05442432 -0.0071743685 0.0072090398 0.00532552
0.050709113 -0.0078964215 -0.066896684 0.06673889 -0.009560861 -0.01215656 -0.08238867 -0.029666731
-0.022572502 -0.061465856 -0.04842107 -0.042438835 0.06408629 0.080559514 0.077306345 0.015465796
0.08161984 0.04331681 -0.02081628 -0.044738814 -0.0019385442 -0.05234988 -0.06673247 0.05132105
0.0125674 -0.071564786 -0.006810737 -0.06707326 -0.03487229 0.08146191 -0.021361517 -0.024432654
0.013014599 0.08553531 -0.056566335 -0.07424665 -0.012656719 0.023943173 0.0773037 0.039596975
-0.07722392 -0.08838998 -0.079258956 -0.034642022 -0.09058116 0.037494928 0.0073440108 0.019893024
0.008090845 0.077212416 -0.009766845 -0.07016035 0.04420624 -0.04111251 0.032771662 0.055042017
-0.0142913 0.03443608 -0.0056191958 0.0011104852 -0.01240013 0.035988916 -0.02420592 0.014085613
-0.007669546 0.03448081 0.03429034 0.026070818 0.048581965 -0.027663898 -0.060769886 -0.0038707033
-0.08220914 -0.106057845 0.024863081 0.051545177 -0.017263312 0.07961468 0.05583817 -0.06285212
0.0014098872 0.058992572 -0.039975114 0.07961617 0.0533756 -0.0059658126 -0.0049856445 -0.009450145
-0.06761674 0.0016821756 0.0209524 0.07944609 -0.010578896 -0.041215822 -0.020676201 -0.08239879
0.09357394 0.036878634 0.08531247 -0.045544107 -0.03878393 -0.0917794 0.051588234 0.011644416
-0.010830642 -0.05822488 0.021698505 -0.07783756 -0.008308144 0.057871677 0.07725001 0.0099438075
0.04463716 0.00514299 -0.07605127 -0.041064613 0.019928506 0.038397454 -0.07583142 0.03221604
-0.14645877 0.018823592 0.051963676 0.002342838 -0.0050695185 0.010461027 -0.07316462 0.04553576
0.018371517 0.0192442 -0.027228462 0.051649753 -0.036297336 0.062147446 -0.017743913 -0.03939336
0.0044336715 -0.073548295 -0.008764567 0.059140008 -0.002849142 0.059108533 -0.01924439 -0.06269406
0.05296918 0.0367551 -0.05168035 0.06551748 0.072960354 -0.081093244 -0.063319296 0.029224383
0.06734959 -0.00042340724 0.06289457 -0.0054012556 0.062534094 -0.07673887 0.07069661 -0.050238553
-0.025327092 0.029305326 0.046318553 0.050446205 -0.01178205 0.012616823 0.015637163 -0.009403206
0.0056647463 -0.010335973 0.065028794 0.00998714 0.054515 0.021383425 0.0037834032 -0.04864435
-0.024300061 -0.050973684 -0.07823061 -0.036255836 -0.0613631 0.087145336 0.028641623 -0.10446412
-0.014280353 -0.085631765 -0.028779374 -0.08322658 -0.016199235 0.009490217 0.028661257 -0.08098359
-0.010266416 0.075468116 0.021198524 0.05433519 0.0152045535 0.029483305 -0.010432367 -0.0011581216
0.055809196 0.040577993 0.05446866 0.03230967 0.04033201 -0.05355539 -0.051654987 0.06794735
-0.05750684 0.059303008 0.00024964398 -0.07414072 0.0868785 -0.027087031 0.008115796 -0.055213254
0.053069603 0.022336164 0.063408785 -0.0025601997 0.07331836 -0.08169857 -0.06624021 -0.051642176
-0.07663715 -0.032566655 0.05391273 0.05228584 -0.004506044 0.0076418086 0.006505652 0.08523267

mu_net.2.bias f4 [128]
00000000: 3be0 88bd 6ddb 34bd fcb3 553e b65d bdbd
00000010: c177 efbd e9b7 92bd e398 50bb eb2d afbd
00000020: 31bf a6bc abfb 9fbd 0e4b af3c 8be0 cdbd
00000030: 6d63 1b3e 9920 a9bd 99d4 f93d 9a3d ebbd
00000040: a25e 9dbd d62f 80bd b634 7c3e 58a9 93bd
00000050: fc80 40bc dc1d e3bd 50e3 5db9 72b3 d2bd
00000060: 3f5e 85bd 942a 453e 3bce a9bd 29ec 49bd
00000070: feb3 40bd bebf b3bd 7231 ee3d 2fb8 ce3b
00000080: e8f4 76bd 4831 7b3c 1c88 d6bd 852f 2fbd
00000090: e71d cebd fb0a 763c 5568 b6bd 6943 0dbc
000000a0: 327f c53d 4675 193e 45ce ccbd 20d3 fd3d
000000b0: b790 91bd 4e19 dcbd 9ca4 72bd 3f47 f4bd
000000c0: 5042 2bbd b2b4 c4bd 7cd1 78bd a2b7 543d
000000d0: 56b8 13be cde6 53bd e127 27be 7148 68bc
000000e0: 0e50 e5bd 1b2d 2e3e 9025 35bd f18f 9cbd
000000f0: 7e53 c2bd 03be bcbd 6b06 fdbd e928 b5bd
00000100: ed44 3ebd d58a 3cbb 9a53 89bd 7ee3 99bd
00000110: 6dbd b83c f2a7 8b3c 3141 2dbd 0ede 693d
00000120: 627f 43bd 0208 9abd 6871 4bbd 5fe7 2abd
00000130: f94f 423e 511e fbbd 38a5 8bbc 71f2 3d3d
00000140: 2dba 5ebd 3710 24bc 2cc2 85bc 8c8d 56bc
00000150: 8b5a 3b3d b682 b8bd 2416 81bd acf2 01be
00000160: 0245 28bd c033 d9bd 2be9 08be fad3 54bd
00000170: 839c 5ebd 7e7b f1bd 8b44 063e 852e d3bd
00000180: ebea 373e 962f 21bd b3ff 1ebd f299 cd3d
00000190: e311 263e b123 d8bc 525b e33d 491b 89bd
000001a0: 5fa5 0ebe 30ea 68bd e24c 66bd 1410 3c3e
000001b0: 6fa5 413e 3d2a d5bd a6f1 e9bd 9aa4 a1bd
000001c0: 303a 24bd 720a 4a3e a901 94bd 7075 71bd
000001d0: af50 80bd 5c3e ddbd dd44 85bd 99c1 0ebc
000001e0: 5bdc 613e 90fa 59bc bb2b 93bd c7ee 78bd
000001f0: cee5 8ebd e95a f43c fda3 393e f1f2 75bd
-0.066833936 -0.044154573 0.2086944 -0.092463896 -0.11692763 -0.07163984 -0.0031829409 -0.0855368
-0.020354839 -0.07811674 0.021398094 -0.10052594 0.15174647 -0.08258171 0.12198753 -0.11486359
-0.076840654 -0.06259124 0.24629483 -0.07210034 -0.011749502 -0.110896796 -0.00021160883 -0.10288133
-0.06512117 0.19254524 -0.082912885 -0.049297486 -0.047046654 -0.08776806 0.11630525 0.0063085775
-0.060292155 0.015331574 -0.104751796 -0.042769928 -0.10064297 0.015017266 -0.089066185 -0.008622029
0.09643401 0.14986143 -0.1000028 0.123937845 -0.0710768 -0.10747014 -0.059239015 -0.119276516
-0.041811287 -0.096047774 -0.060746655 0.05193294 -0.14425787 -0.05173378 -0.16323806 -0.014177428
-0.1119691 0.17009394 -0.044225276 -0.07644642 -0.09488581 -0.09215929 -0.1235474 -0.088456936
-0.04645245 -0.0028769274 -0.06705399 -0.07514094 0.022551263 0.017047856 -0.0422985 0.057096533
-0.047728904 -0.075210586 -0.0496687 -0.04172456 0.1897582 -0.12261642 -0.017046556 0.04637379
-0.05437677 -0.010013632 -0.01632794 -0.013095271 0.045740645 -0.09009306 -0.06303051 -0.12690228
-0.041081436 -0.10605574 -0.13370197 -0.05195997 -0.05434848 -0.117911324 0.13112085 -0.10311607
0.17960708 -0.039352022 -0.038818073 0.10039128 0.1621776 -0.026384206 0.11101402 -0.06694657
-0.13930272 -0.056863964 -0.056225665 0.18365508 0.18910764 -0.10408447 -0.11423044 -0.078927234
-0.040094554 0.19730547 -0.07226879 -0.058949888 -0.06265389 -0.1080291 -0.06507275 -0.008713149
0.22056715 -0.013304368 -0.07186075 -0.06077459 -0.069774255 0.029828506 0.18128963 -0.06004614

mu_net.4.weight f4 [3, 128]
00000000: fa6e 533b d1f0 0abc 76f1 6abd 90ff 19bd
00000010: bdea 34bd 56aa ad3c 1f3a bcbc c0b2 18bd
00000020: e9dd 62bc 688b 2e3d 035f c43d 3fe7 70bb
00000030: ea1b c9bd dc87 b5bc 081f 0fbd 197d 733c
00000040: 549b 08bd 2c0b 003c a3c6 c0bd 868b a43c
00000050: 70fe 91bc 50c0 f73c 6e0d a33d 446c dabb
00000060: 5dc1 13bc 62e6 7bbd 05f4 24bd 4876 c9bc
00000070: 69de 473d 0fd4 333d 4000 2abe f9a5 fa3c
00000080: 590f 473d 31e9 863d 8a27 c93a 56ee 993c
00000090: aa78 a23d 755a dc3d ee25 b9bd ef80 bf3c
000000a0: f23e 883e 54b6 993c 279e 4c3d 4911 2ebe
000000b0: 41b7 773b 151b 81bd 5654 94bc 60b5 3fbd
000000c0: 89f8 263e 23e6 10bd 421a 33bd db5b cebd
000000d0: a9f3 85bc 9fb0 983c 8b79 113d cdb3 34bd
000000e0: ef14 663d 5a33 0d3d a675 c9bc 5c82 b03c
000000f0: 5105 e63c 11b8 353b 187a f53b 8c3d 6c3d
00000100: 60a4 823c b8d3 9c3d 91d9 7ebd f1e4 a33d
00000110: 47c7 a1bc bfea 363d 3ab2 1e3d 868e 913d
00000120: 9811 5e3c 5202 6b3d 07e0 313d d9a4 c13c
00000130: 1f82 c2bd abe8 0d3e 9d95 833c 162a 903c
00000140: d48b 8e3c 6716 4c3e f984 133c b765 1cbb
00000150: fbc3 99bd 9fc0 283b 653a 3fbc fa22 3fbd
00000160: 94ed 1e3d 2989 4c3d 21ba ab3c 5677 783d
00000170: e669 c83c bc13 ccbc e2f9 4abe 2405 02bc
00000180: 1976 dabd 4961 663c 31d9 4e3d 8945 2bbd
00000190: 8507 0fbe 1047 13bd 3a8f cc3b 57c3 babc
000001a0: d9ca cebc 9006 6fbc c0b1 6cbb 647c a9bd
000001b0: 03fd 53bd ebca b23c 39ab 26bd 78d4 7dba
000001c0: f89d e43c 5748 88bd f642 903d 6621 ab3c
000001d0: 6022 5a3c 9ebf b33c 092a 933d 88f2 65bc
000001e0: 027a a4bd 363f 1bbd 7b95 3c3d cae3 b5bd
000001f0: 9079 2bbc 2b2e b8bd e918 eebd 2bdd b7bc
00000200: bfb5 7fbb 2f8a 0ebd 6216 5a3e 1835 d43b
00000210: 7e9d 92bd be46 e23c ceb7 5a3b 44a3 d0bc
00000220: 8dbd 253d 1566 afbc aa24 933d 935c 6d3c
00000230: 566c f93d 10c4 883b 39ad 173e 33d5 1fbd
00000240: 5d31 113b dfc5 3b3d 793c 3f3e c086 bf3c
00000250: 7b9d c43c 7840 f4bc 1af7 d53c 11b8 9b3d
00000260: 7ef1 dbbc 26bc 3d3e fe9a 483d 0f7b fcbb
00000270: 8b74 afbc 2b7e f0bc 2a59 9c3d f2ba 053d
00000280: 17df 0ebd 783c 713d 6a06 2f3d cf1f fa3c
00000290: 9182 6fbc c086 293d d84f 063d f9ca 4f3d
000002a0: 5182 15bd e070 1a3e 2722 533d bd2a a63d
000002b0: 3204 253d 23c2 debc ddea 07bd c730 9939
000002c0: 31e0 823b 2520 3f3c 3e0b 733d 7370 f43c
000002d0: f0b7 923d 512a 1b3b 278e 1cbd 46f1 913c
000002e0: 6cd9 ce3d d7ee 213e 8977 ac3c bd83 803c
000002f0: 1424 8fbb 0971 69bd 0e1c 31bd fe7b cd3b
00000300: 871a d6bc ca70 953c 0a13 4d3d 374f acbd
00000310: 39b4 c03c 742e b93c f8fc 2bbc 9ea3 543d
00000320: d9b1 b7bc baf6 c2bc cf95 7aba 767b f7bb
00000330: 1e0c 233e 3422 1e3d 4e26 c13b 6b4f 873d
00000340: 7868 afbd f4bd 4f3d a1b9 a83c b135 693c
00000350: cc18 e53c 71c4 5c3b 9f58 fdbc 7426 6d3c
00000360: 243f 85bb 66fa db3a 94a8 4b3b 1c3e 8dbc
00000370: e958 a0b8 3821 2dbc 076b a83d 5b8f 033d
00000380: c7a7 e73d 2983 453d f3df 8dbd 091f d93d
00000390: b6dc e53d 3c93 bf3c a8a9 e93d 6294 143d
000003a0: f1c1 c33c 8dd3 e1bb 8fe2 b83b e6ef c23d
000003b0: 8226 023e 61fd 73bc ca29 10bd 1302 193d
000003c0: 7d3c 25bc ddaf 0b3e e400 5b3d 5764 1cbc
000003d0: dab0 6a3d 3779 cd3b a7a1 80bd cacd 1c3d
000003e0: 43ee 223e 2aa5 8d3c 0326 37bd 04aa 003d
000003f0: 69e2 12bc d7ea 933c e40d df3d b1dc d3bc
0.0032262192 -0.008480267 -0.05735918 -0.03759724 -0.044169176 0.021199387 -0.022976933 -0.037279844
-0.013846853 0.042613417 0.095884345 -0.0036758927 -0.09819777 -0.02215951 -0.034941703 0.014861369
-0.033351257 0.007815164 -0.09412887 0.020086061 -0.01782152 0.030243069 0.07961546 -0.0066657383
-0.009018269 -0.061499007 -0.040271778 -0.024592534 0.04879609 0.043903407 -0.16601658 0.03059672
0.04859862 0.065874465 0.0015346867 0.018790405 0.07933171 0.10759441 -0.09040438 0.02337691
0.26610523 0.018763699 0.049955513 -0.16998781 0.0037798437 -0.063039936 -0.01810662 -0.046803832
0.16305746 -0.035375725 -0.043726213 -0.10076114 -0.016351538 0.018638907 0.035516303 -0.044116784
0.056172308 0.0344728 -0.024592232 0.021546535 0.028078707 0.002772812 0.0074913613 0.057675883
0.01594752 0.0765757 -0.062219206 0.080026515 -0.019748343 0.044657465 0.03874419 0.07107262
0.013553999 0.05737526 0.04342654 0.023638176 -0.09497475 0.13858287 0.016062552 0.017598193
0.01740066 0.19930421 0.009003871 -0.0023864338 -0.075080834 0.0025749577 -0.011671637 -0.046664216
0.03880079 0.049935494 0.020962777 0.060660683 0.024464559 -0.024911754 -0.19821885 -0.007935796
-0.106670566 0.0140612805 0.0505001 -0.04181436 -0.13967712 -0.035956442 0.00624266 -0.022798223
-0.02524321 -0.014588967 -0.003611669 -0.08275679 -0.051754963 0.021825274 -0.040690634 -0.00096828444
0.027907357 -0.06654423 0.07044022 0.020889949 0.01331386 0.021941956 0.07185752 -0.014034875
-0.08031084 -0.03790208 0.046040993 -0.08881338 -0.0104659945 -0.08993181 -0.11625845 -0.022444328
-0.0039018241 -0.03479975 0.21297601 0.006476056 -0.071589455 0.027621623 0.0033373716 -0.025468476
0.040463973 -0.021410981 0.071847275 0.014487403 0.121788666 0.004173763 0.14812173 -0.039021682
0.0022154667 0.045843 0.18675412 0.023379683 0.024000874 -0.029815897 0.026118804 0.07603467
-0.02684855 0.18528804 0.048975937 -0.0077050994 -0.021417877 -0.029357037 0.07634194 0.032648988
-0.034880724 0.058895558 0.042730726 0.030532746 -0.014618532 0.041388273 0.03279099 0.05073068
-0.036501233 0.15082121 0.051546242 0.081136204 0.040287204 -0.027192181 -0.033182967 0.00029218776
0.003994011 0.011665379 0.059336893 0.029838776 0.071639895 0.0023676346 -0.038221505 0.017815243
0.10100064 0.15813766 0.021053093 0.015687818 -0.0043683145 -0.056992564 -0.043239646 0.0062708845
-0.026135696 0.018242259 0.050066985 -0.084135465 0.023523437 0.022605158 -0.010497324 0.05191385
-0.022423672 -0.023799289 -0.00095590664 -0.0075525595 0.15922591 0.038606837 0.005894459 0.06606945
-0.08564848 0.050718263 0.020596327 0.014233992 0.027965926 0.0033686424 -0.030926047 0.0144745
-0.004066365 0.0016782999 0.0031075822 -0.01724153 -7.645955e-05 -0.010567002 0.08223539 0.032119136
0.11311298 0.048220787 -0.069274805 0.106016226 0.11223738 0.023385637 0.114093125 0.03627432
0.02389619 -0.006891674 0.0056422423 0.09518413 0.12710002 -0.014891953 -0.035196103 0.037355494
-0.010085222 0.13641305 0.053467646 -0.009545407 0.057297565 0.0062705535 -0.06280833 0.038282193
0.15911202 0.01729067 -0.044713985 0.03141214 -0.008965113 0.018056316 0.10891321 -0.02586207

mu_net.4.bias f4 [3]
00000000: c741 6f3c 3ae9 cf3d 86d3 21be
0.014603085 0.10151906 -0.15803346
